examples/inputs/example_02b/learned_strategies/example_02b_base/avg_reward/actors/actor_pp_7.pt (torch, 748450 bytes, 24 tensors)

FC1.weight f4 [256, 50]
-0.14662716 -0.004074126 0.029989043 -0.15880896 -0.022204582 -0.0042790514 -0.0037005984 0.014713527
-0.0052465904 -0.13582112 -0.16537143 -0.056616005 -0.12579192 -0.11033524 0.01731604 -0.06943737
0.04364812 -0.12926415 0.079424925 0.10291321 0.097655855 0.000542095 -0.018529601 -0.14222099
-0.1303888 0.10138744 0.060952697 -0.14566055 0.054242708 0.070978455 0.03315901 -0.023426991
0.081077725 0.05542634 -0.03833926 -0.14367427 -0.03509802 0.1024312 -0.003898298 -0.0098799085
0.0072818836 -0.08850871 0.081608586 0.09143615 0.028063526 0.111063115 0.0133567285 -0.1489683
-0.17290424 0.092660695 0.07288109 -0.06816265 0.13806112 0.056833953 -0.08863154 -0.08556146
-0.06518696 -0.036718592 0.058451295 -0.0641597 -0.02627571 0.035108566 -0.10030475 -0.044915408
-0.027108043 -0.052587956 -0.07978821 -0.06213201 -0.09001655 0.12977071 -0.013654128 0.025848344
-0.041480035 -0.010408059 -0.072633624 0.069929555 -0.12686037 -0.06515414 0.08260928 0.03292407
-0.07603811 -0.12428563 -0.009213015 -0.018135265 -0.028213628 0.044207573 0.06715016 0.040094167
-0.0023448616 0.044165775 -0.026716433 -0.055113412 -0.04600703 -0.023246042 0.027520388 -0.07513238
0.09542243 0.07145479 0.09401026 0.025663272 -0.12202839 0.04968113 -0.15816712 0.07092782
-0.021533042 -0.057242427 0.10887447 0.10937689 -0.016707193 -0.03730306 -0.10115902 -0.1023505
0.017401155 0.10150719 0.07882568 0.06097737 -0.10452935 -0.0442582 0.01338801 0.0962554
0.06691497 -0.068902545 0.017316312 -0.06145611 0.052129783 -0.10034553 -0.05706316 -0.14942464
0.07076997 -0.014417319 0.006658399 -0.15425979 -0.08757161 -0.16183831 -0.07191886 -0.11927245
0.015398252 -0.0866211 -0.15767318 -0.05565984 0.024088701 -0.15716676 0.014902 -0.043095425
-0.0342621 -0.051615104 -0.12598573 0.083125405 0.06646384 0.11333997 0.01242828 0.09132266
0.08423291 0.035225507 0.024381815 -0.1152835 -0.040664706 -0.14519 -0.09150727 0.0091465125
-0.084707215 -0.047435824 -0.1319998 0.02723426 -0.070913106 0.024874886 0.0040864833 0.09602874
0.09977686 -0.016297847 0.0030097472 0.022514554 0.045568775 0.03642518 -0.099754 0.097096294
0.09370591 -0.0990808 -0.12400109 -0.021477401 -0.135985 0.038827345 -0.13842128 -0.03320172
-0.09284977 0.00042528074 -0.15290837 -0.0135709895 -0.09467199 -0.054150026 -0.060608335 0.08418627
0.055383865 0.11419419 -0.08532772 0.10169355 0.1126876 0.053271286 0.0417295 -0.01690445
-0.716358 -0.58775514 -0.45254496 -0.44680262 -0.32741356 -0.2526153 -0.032291725 0.020635542
0.0653539 -0.07244821 -0.065986656 -0.10309368 -0.05034833 -0.20781443 -0.15857904 -0.031817105
-0.17719714 -0.0075154766 0.11575373 0.030530337 0.19191274 0.18114147 0.044965543 -0.11726595
0.15360568 0.21762925 0.024078771 -0.16501677 0.03140708 -0.048173007 0.16844618 0.047112733
0.031926233 -0.09866676 0.03497651 -0.14248776 0.0021761542 0.2977817 0.05544453 0.229885
0.08595444 -0.056665312 0.10231001 0.006517266 0.22344734 -0.022189088 0.25676024 0.3334878
-0.10974739 0.41098458 0.0513133 -0.042489473 -0.15013294 0.081315115 -0.0069975504 -0.052705146
00000000: 6e25 16be 3f80 85bb 95ab f53c d19e 22be
00000010: 62e6 b5bc 4937 8cbb bd85 72bb 0111 713c
00000020: 97eb abbb b114 0bbe 2157 29be 2fe6 67bd
00000030: 99cf 00be 71f7 e1bd 5eda 8d3c 2e35 8ebd
00000040: 5fc8 323d d25d 04be 89a9 a23d 29c4 d23d
00000050: cbff c73d 611b 0e3a 64cb 97bc 61a2 11be
00000060: a484 05be 38a4 cf3d 89a9 793d 0a28 15be
00000070: 9a2d 5e3d 275d 913d bed1 073d f6e9 bfbc
00000080: 140c a63d bb06 633d a109 1dbd 591f 13be
00000090: f1c2 0fbd 73c7 d13d 967a 7fbb 57df 21bc
000000a0: de9c ee3b 0e44 b5bd 6722 a73d e042 bb3d
000000b0: 7be5 e53c 0f75 e33d 2ed6 5a3c 258b 18be
000000c0: cf0d 31be e4c4 bd3d ae42 953d dc98 8bbd
000000d0: e55f 0d3e b8ca 683d 7484 b5bd d93a afbd
000000e0: be80 85bd 3c66 16bd a06a 6f3d 2966 83bd
000000f0: 2840 d7bc 00ce 0f3d 946c cdbd 38f9 37bd
00000100: b011 debc 7866 57bd 0068 a3bd 227e 7ebd
00000110: 995a b8bd 9de2 043e 90b5 5fbc e8bf d33c
00000120: f8e6 29bd 9086 2abc f0c0 94bd 3a37 8f3d
00000130: afe7 01be 896f 85bd 0e2f a93d 64db 063d
00000140: deb9 9bbd 7789 febd 30f2 16bc 6890 94bc
00000150: 4420 e7bc 0013 353d 0686 893d c839 243d
00000160: 40ac 19bb 2ce7 343d 6cdc dabc 9abe 61bd
00000170: de71 3cbd 7c6e bebc 7072 e13c 01df 99bd
00000180: d66c c33d e456 923d 7488 c03d c83b d23c
00000190: 05ea f9bd 717e 4b3d 90f6 21be 9b42 913d
000001a0: 1066 b0bc 0977 6abd 94f9 de3d fe00 e03d
000001b0: 86dd 88bc 18cb 18bd 762c cfbd 249d d1bd
000001c0: de8c 8e3c 00e3 cf3d 5c6f a13d 68c3 793d
000001d0: 7c13 d6bd 1648 35bd 6259 5b3c 8d21 c53d
000001e0: b70a 893d c71c 8dbd f0da 8d3c 67b9 7bbd
000001f0: 0a86 553d f581 cdbd 0fbb 69bd c602 19be
00000200: d9ef 903d 9e36 6cbc b32e da3b 47f6 1dbe
00000210: bf58 b3bd f1b8 25be 324a 93bd 1d45 f4bd
00000220: f348 7c3c 6766 b1bd 1475 21be 93fb 63bd
00000230: ab55 c53c 53f0 20be 8527 743c d484 30bd
00000240: 6a56 0cbd 5c6a 53bd 6702 01be a73d aa3d
00000250: 321e 883d c91e e83d fc9f 4b3c 6007 bb3d
00000260: 4e82 ac3d 9f48 103d 5fbc c73c c119 ecbd
00000270: 0990 26bd b0ac 14be 2a68 bbbd 41db 153c
00000280: fa7a adbd 114c 42bd f52a 07be 621a df3c
00000290: e43a 91bd 6bc6 cb3c e8e7 853b b7aa c43d
000002a0: cf57 cc3d 1083 85bc 2e3f 453b 7170 b83c
000002b0: 53a6 3a3d 9232 153d d34b ccbd 6cda c63d
000002c0: e2e8 bf3d e0ea cabd 49f4 fdbd 60f1 afbc
000002d0: a73f 0bbe 6c09 1f3d 4fbe 0dbe 87fe 07bd
000002e0: 0528 bebd 37f8 de39 0394 1cbe db58 5ebc
000002f0: 63e3 c1bd 6bcc 5dbd 7240 78bd da69 ac3d
00000300: 31da 623d a5de e93d 4dc0 aebd b544 d03d
00000310: c2c8 e63d fe32 5a3d 8dec 2a3d 337b 8abc
00000320: 3d63 37bf 1f77 16bf f9b3 e7be 50c3 e4be
00000330: c0a2 a7be cb56 81be 5444 04bd de0b a93c
00000340: 44d8 853d ba5f 94bd 0324 87bd c822 d3bd
00000350: 0d3a 4ebd 4ecd 54be 8b62 22be a752 02bd
00000360: 2b73 35be 6344 f6bb 4b10 ed3d c21a fa3c
00000370: c684 443e 267d 393e ca2d 383d 2129 f0bd
00000380: cf4a 1d3e 34da 5e3e d840 c53c 28fa 28be
00000390: b6a4 003d 0f51 45bd 287d 2c3e 48f9 403d
000003a0: 15c5 023d cc11 cabd 8743 0f3d 50e8 11be
000003b0: cf9d 0e3b d876 983e ce19 633d f966 6b3e
000003c0: e208 b03d e319 68bd e987 d13d ca8e d53b
000003d0: 61cf 643e e4c5 b5bc 1476 833e eabe aa3e
000003e0: 3dc3 e0bd 926c d23e e52d 523d 7109 2ebd
000003f0: 73bc 19be 8a88 a63d b54b e5bb 5ae1 57bd

FC1.bias f4 [256]
-0.15568931 -0.11410791 0.07835315 -0.038079698 0.24318798 0.11396823 -0.036969274 -0.10428746
0.021460399 -0.018771654 -0.08558768 0.062636256 -0.062751755 0.060873296 0.11972428 -0.12584575
-0.037241254 0.110930115 0.0033457726 0.074885294 0.07994837 0.07661984 -0.122755855 0.06690003
-0.06782398 -0.10826976 -0.13038877 -0.129974 0.03591578 -0.0710962 0.0347877 0.023918808
-0.096458025 -0.030494064 0.072301075 0.06458246 0.08846037 0.08529776 -0.012330421 -0.0230876
-0.012969025 -0.13531211 -0.13459711 -0.13841897 0.064808115 -0.12809151 -0.05661557 0.03317952
-0.004890144 0.08399084 0.067552306 -0.035941914 -0.077822775 -0.14709799 0.10867889 0.082142115
-0.03595564 0.05561975 0.10136226 0.0141797215 -0.059149615 -0.11920055 0.0881187 0.07187958
-0.07657569 0.10159227 -0.12722136 0.033760387 -0.09574139 -0.05136444 -0.12671053 -0.114552714
-0.0062863044 -0.019052349 -0.12970491 0.0031507853 0.38085216 0.039730396 0.060081705 0.027061954
0.07806535 -0.1184707 -0.03362287 0.019725375 0.020256458 0.085135505 -0.07309338 -0.022532139
-0.035870846 0.13256986 -0.09050122 -0.03714724 0.1344956 0.101268694 -0.068384424 0.3885467
-0.14821966 -0.06708442 -0.1164901 0.02183877 0.11174044 0.058501795 0.07239018 -0.10854599
-0.1204422 -0.020538585 -0.0017983144 -0.0021648924 -0.058876727 0.2976498 0.034993187 -0.078372724
0.121027485 0.09009512 0.07100681 0.05400144 0.053522885 -0.029825017 0.16066864 -0.07373608
-0.0059284163 -0.0947652 -0.033014655 -0.07889619 -0.12002429 -0.03875909 0.089109816 -0.10298158
0.02723682 -0.07327463 0.080028266 -0.11552942 -0.13226856 0.1220396 0.009611592 0.053127795
-0.10164178 -0.022049071 0.018880993 0.0139230415 -0.092533186 0.03721449 -0.1253993 -0.11712431
-0.15139657 0.09867362 0.32377645 -0.03451097 0.03776861 0.17208232 -0.102939695 -0.12698953
0.031435736 0.025318699 0.07893342 -0.031077422 -0.16491063 0.057211354 -0.04939128 -0.124363
-0.066796094 -0.061137162 -0.06159602 0.07645636 0.0058398843 -0.004946793 -0.13099201 -0.04803022
-0.13465972 -0.122974195 -0.031811174 -0.038300022 -0.11544594 -0.09593539 -0.01360634 -0.101257876
0.0027104341 -0.059500918 -0.07745742 0.062905066 0.06937034 -0.029130679 0.015532085 0.07601506
0.027970212 -0.03891611 -0.054094404 0.020094994 -0.14815685 0.087430455 -0.05907114 0.054839045
0.023949727 -0.0123734465 -0.0953269 -0.1251549 0.10320808 -0.021417653 -0.1276595 -0.111066446
-0.1467432 -0.12898165 0.029967638 0.0031834398 0.1134275 0.01404556 -0.08657392 -0.12233728
-0.01104793 -0.037646577 0.018678084 -0.032551296 0.09106599 0.008217204 -0.017181486 0.11821736
-0.15990919 0.10283042 -0.10709944 -0.016494267 -0.08469339 -0.15401928 0.09545689 -0.10558032
-0.139235 0.017216833 -0.06458004 0.05506345 -0.11046397 -0.13207401 -0.044695474 -0.04480704
-0.04292588 0.028720431 0.1328531 -0.12630196 -0.11159742 0.00047568258 0.11094813 -0.047557786
0.034740582 -0.0020152032 0.05985413 -0.1401259 -0.050224166 -0.11441108 0.12644626 -0.011837587
-0.048679654 -0.018548116 0.07650609 -0.020538814 -0.08139182 -0.07665103 0.045539863 -0.042135153
00000000: 056d 1fbe 68b1 e9bd 9e77 a03d 75f9 1bbd
00000010: 4506 793e 2d68 e93d 186d 17bd aa94 d5bd
00000020: b8cd af3c 03c7 99bc 9848 afbd 7047 803d
00000030: fe83 80bd 4756 793d 0132 f53d b5dd 00be
00000040: 498a 18bd 542f e33d c044 5b3b 765d 993d
00000050: f9bb a33d ddea 9c3d 6c67 fbbd e202 893d
00000060: 4ce7 8abd 89bc ddbd a284 05be e717 05be
00000070: 6d1c 133d e29a 91bd 8c7d 0e3d 60f1 c33c
00000080: c98b c5bd b0ce f9bc 9612 943d cf43 843d
00000090: b62a b53d 98b0 ae3d 8905 4abc 3522 bdbc
000000a0: 097c 54bc 428f 0abe d3d3 09be b4bd 0dbe
000000b0: 1eba 843d 6c2a 03be bae5 67bd 40e7 073d
000000c0: 803d a0bb 6403 ac3d dd58 8a3d d437 13bd
000000d0: 8c61 9fbd dba0 16be 0a93 de3d 203a a83d
000000e0: 3946 13bd 89d1 633d 0497 cf3d 1052 683c
000000f0: de46 72bd 6b1f f4bd 9477 b43d 9a35 933d
00000100: b7d3 9cbd 9c0f d03d 5146 02be 5548 0a3d
00000110: 1014 c4bd 8563 52bd 68c0 01be 9d9a eabd
00000120: 58fd cdbb ac13 9cbc 5dd1 04be 687d 4e3b
00000130: 0eff c23e 57bc 223d 3c18 763d 08b1 dd3c
00000140: bae0 9f3d c4a0 f2bd 22b8 09bd 1c97 a13c
00000150: dff0 a53c 865b ae3d fbb1 95bd 5295 b8bc
00000160: 4fed 12bd 65c0 073e b458 b9bd b427 18bd
00000170: 37b9 093e f665 cf3d 220d 8cbd 98ef c63e
00000180: e5c6 17be 8e63 89bd 5d92 eebd 38e7 b23c
00000190: 2cd8 e43d 949f 6f3d 4d41 943d 5c4d debd
000001a0: 66aa f6bd 8940 a8bc 6bb5 ebba dee0 0dbb
000001b0: b928 71bd 8e65 983e 0455 0f3d e181 a0bd
000001c0: 42dd f73d ca83 b83d 056c 913d 9d30 5d3d
000001d0: d03a 5b3d 9853 f4bc 5286 243e f102 97bd
000001e0: 2943 c2bb 4214 c2bd 603a 07bd 5394 a1bd
000001f0: 4ccf f5bd dac1 1ebd 357f b63d 02e8 d2bd
00000200: c01f df3c 0211 96bd dce5 a33d b09a ecbd
00000210: 6971 07be e6ef f93d f079 1d3c 889c 593d
00000220: 9129 d0bd 41a0 b4bc 50ac 9a3c 781d 643c
00000230: 0a82 bdbd 396e 183d ad68 00be dfde efbd
00000240: b407 1bbe 6515 ca3d 07c6 a53e 605b 0dbd
00000250: 42b3 1a3d 5936 303e 0cd2 d2bd 8b09 02be
00000260: c2c2 003d 2969 cf3c d8a7 a13d 1496 febc
00000270: 55de 28be 7456 6a3d 834e 4abd 07b2 febd
00000280: 64cc 88bd f66a 7abd 1c4c 7cbd 2795 9c3d
00000290: 805c bf3b b518 a2bb c522 06be 56bb 44bd
000002a0: 3de4 09be e5d9 fbbd 6f4c 02bd 7ce0 1cbd
000002b0: ec6e ecbd c679 c4bd 20ed 5ebc 4a60 cfbd
000002c0: 8aa1 313b 3cb7 73bd ffa1 9ebd 5fd4 803d
000002d0: 0912 8e3d 76a3 eebc 497a 7e3c c9ad 9b3d
000002e0: c921 e53c 8066 1fbd 1892 5dbd 429e a43c
000002f0: 6eb6 17be bd0e b33d 94f4 71bd e89e 603d
00000300: 3832 c43c ffb9 4abc c03a c3bd 9b28 00be
00000310: c25e d33d 1374 afbc 2cb9 02be ce76 e3bd
00000320: d943 16be c413 04be b17e f53c 42a1 503b
00000330: ad4c e83d 591f 663c ab4d b1bd f88b fabd
00000340: 6102 35bc 4c33 1abd c802 993c 8254 05bd
00000350: ce80 ba3d 74a1 063c 30c0 8cbc f11b f23d
00000360: 3cbf 23be c198 d23d f456 dbbd fc1e 87bc
00000370: ba73 adbd 3bb7 1dbe e77e c33d 7f3a d8bd
00000380: 9f93 0ebe 510a 8d3c 8a42 84bd 368a 613d
00000390: ef3a e2bd 693e 07be 9a12 37bd 9687 37bd
000003a0: 0cd3 2fbd 1c47 eb3c a50a 083e 4d55 01be
000003b0: 308d e4bd 0965 f939 c638 e33d f4cb 42bd
000003c0: 244c 0e3d 8011 04bb 9b29 753d 2a7d 0fbe
000003d0: dbb7 4dbd 5b50 eabd 217b 013e 70f2 41bc
000003e0: 5164 47bd 38f2 97bc 3aaf 9c3d 0441 a8bc
000003f0: c1b0 a6bd 37fb 9cbd 0288 3a3d e995 2cbd

FC2.weight f4 [128, 256]
-0.07265125 0.031863652 0.014359349 -0.06886571 0.14844479 0.036728185 -0.07210707 0.012449317
0.054335766 -0.05944684 -0.0059502907 -0.013437143 -0.0034335926 -0.03449537 -0.038874544 0.0010784119
-0.04128664 0.007895023 -0.05587016 -0.0051939934 -0.04083707 -0.029925764 -0.057420917 -0.06172905
-0.04456543 0.050131947 -0.062407106 0.03389167 0.005453661 -0.054684244 -0.060110584 -0.06579664
-0.07269629 0.008564265 0.03294181 -0.045979068 -0.040043242 -0.048426792 -0.024158746 -0.038313936
-0.0078253625 -0.041184857 -0.02763743 -0.062272295 0.026429266 0.004004881 -0.016261108 0.009844281
0.04240752 -0.045670673 -0.051457636 -0.030980706 -0.02493146 0.03151314 0.051287666 0.017258165
-0.05957009 0.045914203 0.024140643 -0.005695507 -0.014905229 0.016105652 -0.009736844 -0.013066985
-0.04152493 0.05462694 0.050128408 -0.028820455 0.032550775 -0.057999074 -0.04929637 -0.033752464
-0.06671532 0.038725927 -0.043131813 0.0118622705 0.12921283 -0.020013858 -0.05230196 -0.017763563
-0.0037960112 0.026210444 -0.00041383505 -0.07398127 -0.019166134 -0.017421588 0.014309861 -0.006759234
-0.013894439 -0.056930132 -0.048192594 0.055074565 -0.015052035 0.023907285 0.052254356 -0.042585503
-0.06940623 -0.02342029 -0.05913417 -0.06134754 -0.045721784 -0.07136418 -0.058902305 0.046851277
0.019288242 -0.0017279834 -0.026532765 -0.009047918 -0.0014202073 0.5350389 0.025433384 0.042246036
0.03731844 -0.048466615 -0.059844352 -0.02686229 -0.05474843 0.054841064 -0.046809882 -0.01055644
0.0057349694 0.008864149 -0.058127716 -0.062248062 0.0601947 -0.0094392225 -0.0070482865 0.03092172
0.047088735 0.05996593 -0.03531656 0.007595174 0.03612137 -0.03900806 -0.061053813 0.019123219
0.023053162 0.014163501 -0.059341386 0.052972175 -0.03677877 -0.010726906 0.0046870485 -0.019117989
0.059297197 -0.012901217 0.5220867 0.03435798 0.00692261 -0.084755406 -0.01330926 -0.0040768012
0.047826067 -0.079611264 -0.022709155 -0.025558747 -0.015701279 -0.09721898 0.038006153 0.041709527
-0.03939327 -0.04159194 0.051643938 0.045477726 -0.018786415 0.0286588 0.058958434 -0.021332929
0.017606838 0.006017633 -0.031016499 -0.05008979 0.009707831 0.045309044 0.024390988 -0.006907746
-0.025627837 0.019039124 -0.30811304 0.023708377 -0.039114747 -0.05322241 -0.028549457 -0.08553249
-0.044346422 0.009247273 -0.024936303 -0.029783828 -0.011362858 -0.0008411229 -0.05325543 0.013099295
-0.04768399 0.052689 0.02005601 -0.03480019 -0.050727464 -0.006353013 0.0038034096 -0.3437766
0.015076093 -0.01662422 0.021221967 -0.08266763 -0.0065781074 -0.0061065555 0.0028853342 0.008667439
-0.029898228 0.04619676 -0.049840786 -0.025870487 -0.054641232 -0.023630217 0.03297434 0.022004291
-0.0313605 -0.011785746 -0.028578296 0.02147977 0.039977238 -0.008137501 -0.056432724 -0.0424925
-0.0046500266 -0.033530585 -0.039913602 0.040227115 -0.038045414 -0.07210814 -0.0049430355 -0.0017551556
-0.033028334 -0.051966913 -0.05023455 -0.018561207 0.03982895 -0.04110482 0.02056127 -0.052498527
-0.0035493833 -0.061099887 0.027537808 0.034910053 -0.033549998 0.0006106581 0.042961076 -0.037758403
-0.016658992 -0.007467918 -0.028792143 -0.038823687 -0.01937958 0.023061387 -0.041377313 -0.006061308
00000000: 2eca 94bd 7683 023d 7a43 6b3c 7709 8dbd
00000010: e901 183e 4b70 163d dfac 93bd 38f8 4b3c
00000020: 2e8f 5e3d 887e 73bd a8fa c2bb 7627 5cbc
00000030: 2006 61bb 044b 0dbd ea3a 1fbd 8059 8d3a
00000040: 2e1c 29bd 205a 013c 1cd8 64bd 6032 aabb
00000050: c644 27bd e026 f5bc 3232 6bbd 9ad7 7cbd
00000060: 3e8a 36bd 2857 4d3d 989e 7fbd fed1 0a3d
00000070: a0b4 b23b 96fc 5fbd 8436 76bd 64c0 86bd
00000080: cbe1 94bd 2251 0c3c feed 063d 8c54 3cbd
00000090: 6204 24bd 2c5b 46bd 90e8 c5bc 13ef 1cbd
000000a0: f335 00bc 74b1 28bd e467 e2bc 3c11 7fbd
000000b0: 3082 d83c 603b 833b 0436 85bc e849 213c
000000c0: 82b3 2d3d 2c11 3bbd 3ec5 52bd 40cb fdbc
000000d0: 103d ccbc ec13 013d 0413 523d ff60 8d3c
000000e0: c4ff 73bd 8810 3c3d 99c2 c53c 60a1 babb
000000f0: 1035 74bc 00f0 833c 4987 1fbc e816 56bc
00000100: 0c16 2abd 80c0 5f3d 7253 4d3d e018 ecbc
00000110: f653 053d 7090 6dbd feea 49bd 0640 0abd
00000120: 0ba2 88bd 149f 1e3d fcaa 30bd f859 423c
00000130: 5e50 043e 1af4 a3bc 943a 56bd e484 91bc
00000140: 80c6 78bb 49b7 d63c 00f8 d8b9 7e83 97bd
00000150: 4c02 9dbc b8b7 8ebc e873 6a3c 907c ddbb
00000160: 80a5 63bc 922f 69bd 9965 45bd de95 613d
00000170: d09c 76bc 36d9 c33c aa08 563d 236e 2ebd
00000180: da24 8ebd e8db bfbc ac36 72bd 8f47 7bbd
00000190: c446 3bbd 6227 92bd 8b43 71bd 20e7 3f3d
000001a0: 6002 9e3c 807d e2ba 3e5b d9bc b83d 14bc
000001b0: 4026 baba 4ff8 083f ac59 d03c 2e0a 2d3d
000001c0: 38db 183d ee84 46bd 5a1f 75bd 4e0e dcbc
000001d0: e43f 60bd 06a1 603d b8bb 3fbd ebf4 2cbc
000001e0: 69ec bb3b f03a 113c 5417 6ebd d3f7 7ebd
000001f0: b88e 763d f8a6 1abc 50f5 e6bb 8c4f fd3c
00000200: 1ee0 403d d69e 753d 19a8 10bd f0e0 f83b
00000210: 00f4 133d eac6 1fbd 9013 7abd 4ca8 9c3c
00000220: fcd9 bc3c 070e 683c f40f 73bd 5af9 583d
00000230: 56a5 16bd e8bf 2fbc d095 993b 549d 9cbc
00000240: 9ee1 723d a05f 53bc 79a7 053f f4ba 0c3d
00000250: 10d7 e23b 3e94 adbd 150f 5abc b096 85bb
00000260: 44e5 433d 3b0b a3bd 8d08 babc 9460 d1bc
00000270: f89f 80bc bf1a c7bd 57ac 1b3d 9cd7 2a3d
00000280: d65a 21bd 4f5c 2abd 9888 533d da46 3a3d
00000290: f8e5 99bc dcc5 ea3c 667e 713d 65c2 aebc
000002a0: 373c 903c 902f c53b 5016 febc f42a 4dbd
000002b0: 980d 1f3c fa95 393d 9ccf c73c 605a e2bb
000002c0: 78f1 d1bc f0f7 9b3c fec0 9dbe 1238 c23c
000002d0: c936 20bd beff 59bd 8de0 e9bc a82b afbd
000002e0: 98a4 35bd e081 173c 3847 ccbc 37fd f3bc
000002f0: 482b 3abc cd7e 5cba 5e22 5abd 6d9e 563c
00000300: 4a50 43bd 6cd0 573d 804c a43c a58a 0ebd
00000310: 9ac7 4fbd f02c d0bb a042 793b 7d03 b0be
00000320: b801 773c 842f 88bc b1d9 ad3c a54d a9bd
00000330: 2a8d d7bb 8019 c8bb e017 3d3b e001 0e3c
00000340: 21ed f4bc d038 3d3d da25 4cbd 58ee d3bc
00000350: 7ccf 5fbd 2894 c1bc 1a10 073d 5842 b43c
00000360: de73 00bd 0019 41bc 081d eabc 58f6 af3c
00000370: 2cbf 233d 2753 05bc 0026 67bd 9e0c 2ebd
00000380: 405f 98bb 5e57 09bd 727c 23bd 30c5 243d
00000390: 82d5 1bbd 6fad 93bd 30f9 a1bb 400d e6ba
000003a0: b848 07bd 42db 54bd bec2 4dbd ac0d 98bc
000003b0: ae23 233d 875d 28bd 1c70 a83c b208 57bd
000003c0: c59c 68bb e043 7abd f896 e13c d8fd 0e3d
000003d0: b96b 09bd 9214 203a f4f7 2f3d 8ea8 1abd
000003e0: 7078 88bc 70b5 f4bb 80dd ebbc 9605 1fbd
000003f0: edc1 9ebc 3ceb bc3c 427b 29bd f09d c6bb

FC2.bias f4 [128]
-0.22342137 0.06046998 0.2423436 -0.07687465 0.14338055 0.24339658 -0.06550523 0.24600366
0.23923333 0.2550495 -0.52830976 -0.031030785 -0.0843872 -0.060271602 -0.068186544 -0.07317097
-0.06353542 -0.03924145 0.17903467 -0.039204296 0.5103992 -0.020647304 0.20294032 -0.07006238
-0.032887258 -0.037214544 -0.08058681 -0.06891099 0.035276745 -0.04785321 0.074146055 -0.08516199
-0.064600945 -0.033612024 0.0017252717 -0.012970391 -0.113986105 -0.020827023 0.3317157 -0.08147665
0.079159945 0.21035746 -0.021057753 -0.42999122 0.2801839 -0.25433722 -0.08220784 -0.071480915
0.0986051 -0.061748523 0.44900107 -0.050674643 -0.26975355 -0.0810439 -0.017108683 -0.05217188
-0.044796422 -0.03224077 -0.044491183 0.2086004 -0.07139147 0.13366252 0.13727821 -0.21306194
0.11761188 -0.027097506 -0.16583854 0.14581473 -0.027719839 0.19356835 -0.012334443 0.3260659
-0.09666943 -0.082952425 -0.29815885 -0.06870998 0.05417261 0.24211101 -0.012642666 -0.10953281
-0.099496864 0.290165 -0.37872964 -0.0017822011 0.08027185 -0.072573945 0.23611084 -0.020240512
-0.05124798 -0.0908664 -0.0284504 -0.08389796 -0.101727724 -0.073076606 -0.06855038 -0.04810618
-0.051706787 -0.012955505 -0.038791284 -0.080958486 0.24471614 0.0017858001 -0.06430757 -0.041477904
0.21083985 0.3371064 -0.064026944 0.22477223 -0.0074754865 0.29370978 -0.08106583 0.035619814
-0.06582789 0.11192542 -0.024301866 -0.07996606 -0.01710696 0.19395262 -0.061666578 -0.2039742
0.25522378 -0.07996892 -0.0856351 -0.06582623 0.2637269 -0.0016924284 -0.07864522 -0.033247218
00000000: 92c8 64be 5faf 773d ec28 783e 7570 9dbd
00000010: 5ad2 123e f43c 793e 9b27 86bd 62e8 7b3e
00000020: 95f9 743e d995 823e 4f3f 07bf 4634 febc
00000030: 32d3 acbd 5bdf 76bd 63a5 8bbd a9da 95bd
00000040: dc1e 82bd a5bb 20bd dd54 373e af94 20bd
00000050: 86a9 023f 8924 a9bc 96cf 4f3e dd7c 8fbd
00000060: cab4 06bd 476e 18bd b30a a5bd 3521 8dbd
00000070: 597e 103d ba01 44bd e3d9 973d 6969 aebd
00000080: 804d 84bd c3ac 09bd 8322 e23a c381 54bc
00000090: 8c71 e9bd 6f9d aabc a4d6 a93e 3bdd a6bd
000000a0: 9c1e a23d f267 573e 4f81 acbc cf27 dcbe
000000b0: 4474 8f3e 7d38 82be 965c a8bd 9664 92bd
000000c0: 78f1 c93d 05ec 7cbd 78e3 e53e 3790 4fbd
000000d0: 231d 8abe 58fa a5bd 8227 8cbc 2eb2 55bd
000000e0: 747c 37bd e60e 04bd 633c 36bd 589b 553e
000000f0: b135 92bd d4de 083e a992 0c3e e92c 5abe
00000100: 7fde f03d 97fb ddbc 94d1 29be 7550 153e
00000110: b714 e3bc c836 463e 6716 4abc 1cf2 a63e
00000120: 9ffa c5bd f6e2 a9bd 47a8 98be d1b7 8cbd
00000130: 19e4 5d3d f3eb 773e 2f23 4fbc bd52 e0bd
00000140: 03c5 cbbd 8290 943e dae8 c1be bf98 e9ba
00000150: 9165 a43d a6a1 94bd 0ac7 713e 6ecf a5bc
00000160: 67e9 51bd 2a18 babd d010 e9bc b2d2 abbd
00000170: a056 d0bd 30a9 95bd 2464 8cbd fc0a 45bd
00000180: 7fca 53bd 5443 54bc 9ce3 1ebd 90cd a5bd
00000190: de96 7a3e 8211 ea3a b0b3 83bd bce4 29bd
000001a0: 67e6 573e 3699 ac3e 8f20 83bd b12a 663e
000001b0: edf4 f4bb 2161 963e d805 a6bd 15e6 113d
000001c0: c6d0 86bd 2839 e53d b514 c7bc 3fc5 a3bd
000001d0: e523 8cbc 849b 463e 1896 7cbd 9dde 50be
000001e0: b1ac 823e bfc6 a3bd 7561 afbd e7cf 86bd
000001f0: 3607 873e 79d4 ddba bf10 a1bd 3c2e 08bd

FC3.weight f4 [2, 128]
-0.54202414 0.13639021 0.05073802 -0.013934954 0.64188087 0.36117402 -0.03789616 0.15990552
0.19682632 0.056472477 0.27291146 -0.011527477 0.06628005 -0.016407562 0.01463644 -0.04494287
0.04667544 0.5286421 0.18333767 0.019933615 -0.14977942 0.022136187 -0.9921681 0.00690312
-0.02889931 0.05923532 -0.002814922 -0.05369087 0.38736868 0.038768224 0.17397787 -0.003982563
0.005061897 0.016817762 0.0059382524 -0.059461504 0.036459126 -0.020583102 0.052718062 -0.046957564
-1.762005 0.032659862 -0.0019056075 0.06769492 -0.59918684 0.49283594 -0.004008306 0.019729193
-0.0033392175 -0.05921006 -0.33298793 0.018429102 -1.430193 -0.0314921 0.012165253 -0.022197181
-0.099706426 0.0538 -0.0058061955 0.12179434 -0.030082256 0.22007695 -0.019204574 0.6370167
0.26558566 -0.10750806 -1.045458 0.09097401 0.014074601 0.124048956 0.02072006 0.16073783
-0.048330344 0.00012427705 0.23352998 0.06413986 -0.003962354 -0.063937336 -0.013108019 0.019265443
0.021893272 0.42032474 -1.2844678 0.017969908 -0.26839358 0.08255093 0.10439954 -0.021664515
0.027728599 0.03481629 0.039710358 0.031266224 0.0019744337 -1.1658573 0.05619484 -0.027399603
-0.013151285 -0.07211472 0.03591828 -0.05444817 0.16623566 0.048798423 0.056567173 -0.029069044
0.09642141 0.15437695 0.01036794 -0.46790484 0.023014763 0.18739453 -0.025506802 0.1080648
-0.017767517 0.17215858 -0.049548395 -0.03382319 0.06171753 0.12157898 0.038519863 -0.76728034
0.19250748 0.0135239065 0.024893321 -0.06878291 0.155432 -0.0142283775 -0.027853452 0.007772208
-0.042939123 0.05794782 0.1359975 -0.0021256001 -0.13886766 -0.47260422 -0.0040526125 0.1814455
0.15650819 0.13254072 -0.7890292 -0.052307446 -0.033092517 0.006261567 -0.039862353 -0.056205932
0.08258652 0.32984295 0.032036908 0.053846546 -1.5015795 -0.00037102567 -0.7554706 -0.07252076
-0.036818516 -0.06886315 -0.019945148 -0.052459322 0.30057335 0.044722702 0.050919544 -0.053312186
0.035741307 0.060678568 0.07089652 -0.053029794 -0.07218945 -0.048257396 -0.75563604 -0.0128077
-0.61798906 0.10395258 0.03592934 -0.56920934 -0.3817211 -0.27297586 0.014805075 0.018555585
0.05225355 -0.038768124 -1.343169 -0.08042967 0.04342369 -0.0006512694 -0.002673673 0.07492372
0.049059898 0.058365863 0.014222342 -0.6393383 0.104002915 0.27895108 0.06377612 -0.39170584
-0.024075706 0.03598 -0.15229642 0.0441983 0.07547462 0.03685883 -0.046061896 0.20141013
-0.041273743 -0.011904876 -0.41387102 -0.06204349 0.14237295 0.27274123 -0.023360215 0.055684105
0.015223465 -0.0042679617 -0.15023023 -0.06686259 -0.26137593 -0.051001456 0.11328553 -0.029259343
-0.07190796 -0.0066203047 0.011908951 -0.059159465 -0.04540523 -0.47908393 0.04589825 -0.08096016
-0.007514007 -0.00782676 0.088011526 -0.04169192 0.184103 0.3030324 -0.1661117 -0.013996726
0.09347674 0.24250968 -0.0493888 -0.1284991 -0.019405236 0.1845727 0.0074839406 0.23589677
-0.054478556 0.33372873 -0.057326794 0.03365362 0.0409673 0.042324618 0.07200605 0.21670678
0.22825336 0.048595347 0.057120726 -0.043276805 0.1277984 -0.055345427 -0.024321256 -0.008163193
00000000: 18c2 0abf e0a9 0b3e acd2 4f3d 6f4f 64bc
00000010: 4e52 243f cdeb b83e 0139 1bbd 46be 233e
00000020: d78c 493e af4f 673d 0dbb 8b3e bedd 3cbc
00000030: d6bd 873d 2769 86bc aecd 6f3c 0416 38bd
00000040: bf2e 3f3d 1755 073f dfbc 3b3e d24b a33c
00000050: c75f 19be f356 b53c bbfe 7dbf 9133 e23b
00000060: 3fbe ecbc bca0 723d 8e7a 38bb f5ea 5bbd
00000070: 3055 c63e 6ecb 1e3d 4127 323e 2980 82bb
00000080: 45de a53b 67c5 893c ac95 c23b e88d 73bd
00000090: 2a56 153d e59d a8bc e5ee 573d 9356 40bd
000000a0: 6189 e1bf 59c6 053d 94c5 f9ba a2a3 8a3d
000000b0: 4f64 19bf fe54 fc3e 1c58 83bb 1e9f a13c
000000c0: c6d6 5abb 3f86 72bd 657d aabe a1f8 963c
000000d0: 9010 b7bf dcfd 00bd c550 473c ddd6 b5bc
000000e0: e232 ccbd 645d 5c3d e641 bebb 506f f93d
000000f0: 106f f6bc da5b 613e e952 9dbc 8713 233f
00000100: d8fa 873e 302d dcbd 91d1 85bf 9550 ba3d
00000110: 2899 663c 610d fe3d 1ebd a93c 7598 243e
00000120: 0af6 45bd 5e50 0239 7c22 6f3e c25b 833d
00000130: a2d6 81bb 94f1 82bd 04c3 56bc 90d2 9d3c
00000140: 8559 b33c ce34 d73e 7169 a4bf a135 933c
00000150: e26a 89be 7610 a93d 6dcf d53d c879 b1bc
00000160: 1627 e33c 879b 0e3d 54a7 223d 0311 003d
00000170: 8065 013b d03a 95bf 902c 663d 2275 e0bc
00000180: 7d78 57bc e2b0 93bd 0c1f 133d 0b05 5fbd
00000190: ae39 2a3e dbe0 473d fbb2 673d 3422 eebc
000001a0: 9778 c53d fe14 1e3e 4bde 293c 3991 efbe
000001b0: 7589 bc3c 5ae4 3f3e a4f3 d0bc 1451 dd3d
000001c0: 2f8d 91bc 574a 303e 42f3 4abd 2f8a 0abd
000001d0: 85cb 7c3d 66fe f83d 01c7 1d3d 7c6c 44bf
000001e0: ae20 453e 6093 5d3c 14ed cb3c 0ede 8cbd
000001f0: 9129 1f3e 241e 69bc ec2c e4bc 02ae fe3b
00000200: efe0 2fbd b15a 6d3d ee42 0b3e a74d 0bbb
00000210: 5333 0ebe 2ef9 f1be c7cb 84bb d9cc 393e
00000220: af43 203e c1b8 073e d1fd 49bf 5540 56bd
00000230: 058c 07bd d52d cd3b b546 23bd 3138 66bd
00000240: 1f23 a93d 2de1 a83e 2239 033d 328e 5c3d
00000250: c233 c0bf 3986 c2b9 8566 41bf c485 94bd
00000260: 03cf 16bd 2008 8dbd 0264 a3bc 96df 56bd
00000270: c0e4 993e 272f 373d 0391 503d e15d 5abd
00000280: 7a65 123d 178a 783d 3232 913d c535 59bd
00000290: 10d8 93bd 8ca9 45bd 5d71 41bf 63d7 51bc
000002a0: 8834 1ebf 17e5 d43d a52a 133d b4b7 11bf
000002b0: f370 c3be 7ec3 8bbe fc90 723c e201 983c
000002c0: d207 563d 53cb 1ebd f6ec abbf 50b8 a4bd
000002d0: 0add 313d f3b9 2aba ca38 2fbb 9b71 993d
000002e0: 08f3 483d 0b11 6f3d d304 693c adab 23bf
000002f0: 7bff d43d add2 8e3e 0e9d 823d ab8d c8be
00000300: 6a3a c5bc c45f 133d 98f3 1bbe 4709 353d
00000310: 7092 9a3d 49f9 163d 66ab 3cbd 753e 4e3e
00000320: a80e 29bd ab0c 43bc e7e6 d3be 5121 7ebd
00000330: 37ca 113e bda4 8b3e ec5d bfbc 0415 643d
00000340: d76b 793c 42da 8bbb f4d5 19be 41ef 88bd
00000350: 11d3 85be e7e6 50bd 3e02 e83d 4ab1 efbc
00000360: 7b44 93bd 24ef d8bb c31d 433c 3251 72bd
00000370: d6fa 39bd 7d4a f5be ceff 3b3d 71ce a5bd
00000380: 0f38 f6bb d03b 00bc 633f b43d 26c5 2abd
00000390: 7f85 3c3e 1027 9b3e 2f19 2abe 8652 65bc
000003a0: bc70 bf3d 7554 783e e94b 4abd 4595 03be
000003b0: bbf7 9ebc a000 3d3e d83b f53b ec8e 713e
000003c0: e824 5fbd 7ede aa3e 80cf 6abd 61d8 093d
000003d0: 54cd 273d 945c 2d3d e877 933d 62e8 5d3e
000003e0: 40bb 693e ea0b 473d 6cf7 693d 0543 31bd
000003f0: 95dd 023e e3b1 62bd 5f3d c7bc eabe 05bc

FC3.bias f4 [2]
0.27490357 0.38530177
00000000: 29c0 8c3e 4646 c53e

FC1.weight f4 [256, 50]
-0.14662609 -0.0040741214 0.029989174 -0.15880631 -0.022204429 -0.0042790123 -0.0037005907 0.0147137
-0.0052465643 -0.13581975 -0.16536878 -0.0566159 -0.12579127 -0.110335015 0.017316096 -0.06943724
0.043648895 -0.12926324 0.0794255 0.10291422 0.097657084 0.0005421059 -0.018529426 -0.14221832
-0.13038678 0.101388335 0.060952883 -0.14566049 0.054242883 0.07097951 0.03315921 -0.023426697
0.08107804 0.055426784 -0.038338862 -0.14367267 -0.035097856 0.102431424 -0.003898264 -0.0098797595
0.007281971 -0.08850777 0.08161001 0.09143733 0.02806357 0.111063674 0.013356761 -0.14896557
-0.17290282 0.09266221 0.07288109 -0.06816265 0.13806112 0.056833953 -0.08863154 -0.08556146
-0.06518696 -0.036718592 0.058451295 -0.0641597 -0.02627571 0.035108566 -0.10030475 -0.044915408
-0.027108043 -0.052587956 -0.07978821 -0.06213201 -0.09001655 0.12977071 -0.013654128 0.025848344
-0.041480035 -0.010408059 -0.072633624 0.069929555 -0.12686037 -0.06515414 0.08260928 0.03292407
-0.07603811 -0.12428563 -0.009213015 -0.018135265 -0.028213628 0.044207573 0.06715016 0.040094167
-0.002344863 0.044165775 -0.026716433 -0.055113412 -0.04600703 -0.023246042 0.027520388 -0.07513238
0.09542243 0.07145479 0.09401026 0.025663272 -0.12202796 0.049681634 -0.15816556 0.07092885
-0.02153276 -0.05724175 0.108874686 0.10937835 -0.016707012 -0.037302487 -0.101158865 -0.102349475
0.017401405 0.101507545 0.07882647 0.06097747 -0.104528025 -0.04425761 0.0133880535 0.096256375
0.06691596 -0.06890229 0.017316468 -0.0614558 0.0521299 -0.10034526 -0.057062935 -0.14942452
0.0707709 -0.014417167 0.0066584502 -0.15425846 -0.08757049 -0.1618372 -0.071918294 -0.11927125
0.015398408 -0.086619794 -0.15767084 -0.055659246 0.024089053 -0.1571642 0.014902199 -0.04309532
-0.0342619 -0.051615067 -0.12598498 0.08312695 0.066464454 0.11334057 0.012428418 0.09132408
0.0842341 0.035226006 0.024381861 -0.1152822 -0.040664192 -0.14518961 -0.091505885 0.0091466205
-0.08470648 -0.047435287 -0.13199909 0.027234318 -0.070912465 0.02487509 0.0040865075 0.09602988
0.09977752 -0.016297603 0.0030097812 0.022514744 0.04556891 0.03642555 -0.099753685 0.0970968
0.09370678 -0.09908015 -0.12400088 -0.02147725 -0.13598366 0.038827617 -0.13841851 -0.033201683
-0.09284848 0.00042528592 -0.15290841 -0.013570966 -0.0946709 -0.054149754 -0.060607925 0.08418642
0.055384316 0.11419441 -0.085326366 0.10169382 0.1126879 0.053272072 0.04172962 -0.016904453
-0.7163472 -0.5877441 -0.45253977 -0.44679984 -0.32741162 -0.2526137 -0.032291222 0.020635705
0.06535432 -0.072447285 -0.065986134 -0.10309304 -0.05034772 -0.2078133 -0.15857683 -0.03181662
-0.17719436 -0.0075154547 0.11575456 0.030530458 0.19191372 0.18114315 0.044966158 -0.11726555
0.15360875 0.21763016 0.024078995 -0.16501413 0.03140758 -0.048172895 0.16844735 0.04711342
0.031926885 -0.0986659 0.034977153 -0.14248654 0.0021762 0.2977821 0.055444665 0.22988787
0.085955195 -0.056665074 0.102310725 0.006517355 0.22344759 -0.022188783 0.25676215 0.33349127
-0.10974642 0.4109893 0.05131406 -0.04248884 -0.15013084 0.081316456 -0.0069975457 -0.052705087
00000000: 2625 16be 3580 85bb dbab f53c 1f9e 22be
00000010: 10e6 b5bc f536 8cbb 9c85 72bb bb11 713c
00000020: 5feb abbb 5514 0bbe 6f56 29be 13e6 67bd
00000030: 6dcf 00be 53f7 e1bd 7cda 8d3c 1d35 8ebd
00000040: 2fc9 323d 955d 04be d6a9 a23d b1c4 d23d
00000050: 7000 c83d 1c1c 0e3a 06cb 97bc aea1 11be
00000060: 1d84 05be b0a4 cf3d bba9 793d 0628 15be
00000070: c92d 5e3d b55d 913d f4d1 073d 58e9 bfbc
00000080: 3e0c a63d 3207 633d 3609 1dbd ee1e 13be
00000090: c5c2 0fbd 91c7 d13d 047a 7fbb b7de 21bc
000000a0: 9a9d ee3b 9043 b5bd 2623 a73d 7f43 bb3d
000000b0: 92e5 e53c 5a75 e33d 51d6 5a3c 6e8a 18be
000000c0: 700d 31be afc5 bd3d ae42 953d dc98 8bbd
000000d0: e55f 0d3e b8ca 683d 7484 b5bd d93a afbd
000000e0: be80 85bd 3c66 16bd a06a 6f3d 2966 83bd
000000f0: 2840 d7bc 00ce 0f3d 946c cdbd 38f9 37bd
00000100: b011 debc 7866 57bd 0068 a3bd 227e 7ebd
00000110: 995a b8bd 9de2 043e 90b5 5fbc e8bf d33c
00000120: f8e6 29bd 9086 2abc f0c0 94bd 3a37 8f3d
00000130: afe7 01be 896f 85bd 0e2f a93d 64db 063d
00000140: deb9 9bbd 7789 febd 30f2 16bc 6890 94bc
00000150: 4420 e7bc 0013 353d 0686 893d c839 243d
00000160: 46ac 19bb 2ce7 343d 6cdc dabc 9abe 61bd
00000170: de71 3cbd 7c6e bebc 7072 e13c 01df 99bd
00000180: d66c c33d e456 923d 7488 c03d c83b d23c
00000190: cce9 f9bd f87e 4b3d 27f6 21be 2543 913d
000001a0: 7865 b0bc 5376 6abd b1f9 de3d c201 e03d
000001b0: 25dd 88bc 7eca 18bd 612c cfbd 9a9c d1bd
000001c0: 648d 8e3c 30e3 cf3d c66f a13d 83c3 793d
000001d0: ca12 d6bd 7847 35bd 9159 5b3c 1022 c53d
000001e0: 3c0b 893d a51c 8dbd 44db 8d3c 14b9 7bbd
000001f0: 2986 553d d181 cdbd d3ba 69bd be02 19be
00000200: 55f0 903d fb35 6cbc 212f da3b eef5 1dbe
00000210: 2858 b3bd a7b8 25be e649 93bd 7c44 f4bd
00000220: 9b49 7c3c b865 b1bd 7774 21be f3fa 63bd
00000230: 6856 c53c a7ef 20be 5a28 743c b884 30bd
00000240: 3556 0cbd 526a 53bd 3502 01be 763e aa3d
00000250: 841e 883d 1a1f e83d 90a0 4b3c 1f08 bb3d
00000260: ee82 ac3d 2549 103d 78bc c73c 1319 ecbd
00000270: 7f8f 26bd 96ac 14be 7067 bbbd b5db 153c
00000280: 977a adbd 814b 42bd c52a 07be 811a df3c
00000290: 8e3a 91bd d8c6 cb3c 1ce8 853b 50ab c43d
000002a0: 2858 cc3d 8d82 85bc c03f 453b d770 b83c
000002b0: 77a6 3a3d f532 153d a94b ccbd b0da c63d
000002c0: 57e9 bf3d 89ea cabd 2cf4 fdbd 0ff1 afbc
000002d0: 4d3f 0bbe b509 1f3d 95bd 0dbe 7dfe 07bd
000002e0: 5827 bebd e9f8 de39 0694 1cbe c258 5ebc
000002f0: d1e2 c1bd 22cc 5dbd 0440 78bd ee69 ac3d
00000300: aada 623d c2de e93d 97bf aebd d944 d03d
00000310: eac8 e63d d133 5a3d aeec 2a3d 357b 8abc
00000320: 8862 37bf 6676 16bf 4bb3 e7be f3c2 e4be
00000330: 7fa2 a7be 9556 81be cd43 04bd 360c a93c
00000340: 7cd8 853d 3e5f 94bd bd23 87bd 7222 d3bd
00000350: 6939 4ebd 02cd 54be f761 22be 2552 02bd
00000360: 7072 35be 3444 f6bb ba10 ed3d 031b fa3c
00000370: 0885 443e 977d 393e 6f2e 383d ec28 f0bd
00000380: 9d4b 1d3e 71da 5e3e 5041 c53c 77f9 28be
00000390: 3ca5 003d f150 45bd 767d 2c3e 00fa 403d
000003a0: c4c5 023d 5911 cabd 3444 0f3d fee7 11be
000003b0: 949e 0e3b e576 983e f219 633d ba67 6b3e
000003c0: 4709 b03d a319 68bd 4988 d13d 898f d53b
000003d0: 72cf 643e 40c5 b5bc 5476 833e 5ebf aa3e
000003e0: bbc2 e0bd 316d d23e b12e 523d c708 2ebd
000003f0: e6bb 19be 3e89 a63d ab4b e5bb 4ae1 57bd

FC1.bias f4 [256]
-0.15568897 -0.11410799 0.078354105 -0.038079582 0.24318866 0.1139694 -0.0369687 -0.10428746
0.021460399 -0.01877157 -0.08558714 0.06263672 -0.062751755 0.060873907 0.11972573 -0.12584491
-0.037240647 0.110931054 0.0033457726 0.074885294 0.07994853 0.07662109 -0.122755855 0.06690003
-0.06782398 -0.10826971 -0.13038877 -0.12997253 0.03591593 -0.07109575 0.03478791 0.02391918
-0.09645755 -0.030493952 0.072301246 0.06458393 0.08846157 0.08529805 -0.012330257 -0.023087323
-0.012968959 -0.13531211 -0.13459711 -0.13841851 0.064808115 -0.12808903 -0.056615155 0.03317952
-0.004890147 0.083991215 0.06755373 -0.035941266 -0.077822775 -0.14709696 0.10867948 0.08214347
-0.03595542 0.0556205 0.101363 0.0141797215 -0.059149615 -0.11920055 0.088118844 0.07188103
-0.07657491 0.10159227 -0.12722136 0.033760473 -0.09574139 -0.051363982 -0.12671053 -0.114552714
-0.0062862937 -0.019052349 -0.12970431 0.00315083 0.38085318 0.03973063 0.06008191 0.02706221
0.078066505 -0.118469566 -0.03362287 0.019725617 0.020256843 0.085135624 -0.07309338 -0.022531882
-0.035870485 0.13256986 -0.09050006 -0.03714724 0.1344956 0.101269126 -0.06838373 0.3946253
-0.14821753 -0.06708442 -0.1164901 0.021838976 0.11174168 0.058502384 0.07239065 -0.10854599
-0.1204422 -0.020538477 -0.0017983041 -0.0021648847 -0.05887641 0.29894185 0.034993187 -0.078372724
0.12102809 0.09009623 0.071007825 0.054002225 0.053523157 -0.029825017 0.16066894 -0.073734745
-0.0059283865 -0.0947652 -0.033014674 -0.078895025 -0.12002376 -0.03875909 0.08911126 -0.10298158
0.02723682 -0.07327463 0.080028996 -0.11552807 -0.13226731 0.12203988 0.009611592 0.053127795
-0.10164167 -0.022049084 0.018880993 0.013923192 -0.092533186 0.037214566 -0.1253993 -0.11712431
-0.15139446 0.098674834 0.32378167 -0.03451097 0.03776889 0.17208324 -0.10293956 -0.12698932
0.031435892 0.025318772 0.07893376 -0.031077422 -0.16490982 0.057211943 -0.049391065 -0.124363
-0.06679527 -0.061136916 -0.06159602 0.07645718 0.00583991 -0.0049467715 -0.13099177 -0.048029844
-0.13465746 -0.12297419 -0.03181066 -0.038300022 -0.11544594 -0.09593539 -0.01360634 -0.101257876
0.002710454 -0.05950077 -0.07810644 0.06290606 0.06937167 -0.029130494 0.015532146 0.076016106
0.027970437 -0.03891611 -0.054093875 0.020095166 -0.14815494 0.0874319 -0.05907087 0.054839678
0.02394973 -0.012373284 -0.0953269 -0.12515424 0.103209265 -0.021417646 -0.1276595 -0.11106517
-0.14674231 -0.12898165 0.02996794 0.0031834731 0.11342849 0.014045754 -0.0865736 -0.12233728
-0.011047825 -0.037646577 0.018678084 -0.032551296 0.09106599 0.008217346 -0.017181486 0.11821773
-0.159909 0.102830775 -0.10709944 -0.016493926 -0.08469339 -0.15401706 0.09545767 -0.10558032
-0.1392351 0.017217003 -0.064579464 0.05506394 -0.110463165 -0.1320736 -0.044695474 -0.04480704
-0.04292588 0.02872071 0.1328531 -0.12630089 -0.11159714 0.000475688 0.110948935 -0.047557477
0.03474097 -0.0020152032 0.059854668 -0.1401232 -0.05022404 -0.11441048 0.12644626 -0.011837588
-0.048679534 -0.018548053 0.07650609 -0.020538814 -0.08139097 -0.0766509 0.045540597 -0.042134937
00000000: ee6c 1fbe 73b1 e9bd 1e78 a03d 56f9 1bbd
00000010: 7306 793e ca68 e93d 7e6c 17bd aa94 d5bd
00000020: b8cd af3c d6c6 99bc 4f48 afbd ae47 803d
00000030: fe83 80bd eb56 793d c332 f53d 7ddd 00be
00000040: a689 18bd d22f e33d c044 5b3b 765d 993d
00000050: 0ebc a33d 85eb 9c3d 6c67 fbbd e202 893d
00000060: 4ce7 8abd 82bc ddbd a284 05be 8517 05be
00000070: 951c 133d a69a 91bd c47d 0e3d 28f2 c33c
00000080: 898b c5bd 74ce f9bc ad12 943d 9444 843d
00000090: 572b b53d beb0 ae3d d904 4abc a021 bdbc
000000a0: c27b 54bc 428f 0abe d3d3 09be 95bd 0dbe
000000b0: 1eba 843d c529 03be 4be5 67bd 40e7 073d
000000c0: 873d a0bb 9603 ac3d 9c59 8a3d 2637 13bd
000000d0: 8c61 9fbd 96a0 16be 5993 de3d d63a a83d
000000e0: fe45 13bd 52d2 633d 6897 cf3d 1052 683c
000000f0: de46 72bd 6b1f f4bd a777 b43d 5d36 933d
00000100: 4ed3 9cbd 9c0f d03d 5146 02be 6c48 0a3d
00000110: 1014 c4bd 0a63 52bd 68c0 01be 9d9a eabd
00000120: 41fd cdbb ac13 9cbc 35d1 04be 287e 4e3b
00000130: 30ff c23e 96bc 223d 7318 763d 91b1 dd3c
00000140: 55e1 9f3d 2ca0 f2bd 22b8 09bd 9e97 a13c
00000150: aef1 a53c 965b ae3d fbb1 95bd c894 b8bc
00000160: eeec 12bd 65c0 073e 1858 b9bd b427 18bd
00000170: 37b9 093e 3066 cf3d c50c 8cbd 540c ca3e
00000180: 56c6 17be 8e63 89bd 5d92 eebd a7e7 b23c
00000190: d2d8 e43d 32a0 6f3d 8d41 943d 5c4d debd
000001a0: 66aa f6bd 4f40 a8bc 13b5 ebba bde0 0dbb
000001b0: 6428 71bd e80e 993e 0455 0f3d e181 a0bd
000001c0: 93dd f73d 5f84 b83d 8d6c 913d 7031 5d3d
000001d0: 193b 5b3d 9853 f4bc 6686 243e 3e02 97bd
000001e0: e942 c2bb 4214 c2bd 653a 07bd b793 a1bd
000001f0: 04cf f5bd dac1 1ebd f77f b63d 02e8 d2bd
00000200: c01f df3c 0211 96bd 3ee6 a33d fb99 ecbd
00000210: 1571 07be 0bf0 f93d f079 1d3c 889c 593d
00000220: 8229 d0bd 48a0 b4bc 50ac 9a3c 1a1e 643c
00000230: 0a82 bdbd 4d6e 183d ad68 00be dfde efbd
00000240: 2607 1bbe 0816 ca3d b6c6 a53e 605b 0dbd
00000250: 8db3 1a3d 9736 303e fad1 d2bd 7d09 02be
00000260: ecc2 003d 5069 cf3c 06a8 a13d 1496 febc
00000270: 1fde 28be 1257 6a3d 494e 4abd 07b2 febd
00000280: f5cb 88bd b46a 7abd 1c4c 7cbd 9595 9c3d
00000290: b75c bf3b 8718 a2bb b522 06be f1ba 44bd
000002a0: a5e3 09be e4d9 fbbd e54b 02bd 7ce0 1cbd
000002b0: ec6e ecbd c679 c4bd 20ed 5ebc 4a60 cfbd
000002c0: dfa1 313b 14b7 73bd 45f6 9fbd e4d4 803d
000002d0: bc12 8e3d 13a3 eebc 8b7a 7e3c 55ae 9b3d
000002e0: 4222 e53c 8066 1fbd 8a91 5dbd 9e9e a43c
000002f0: eeb5 17be 7f0f b33d 4cf4 71bd 929f 603d
00000300: 3932 c43c 51b9 4abc c03a c3bd 6f28 00be
00000310: 615f d33d 0f74 afbc 2cb9 02be 2376 e3bd
00000320: 9e43 16be c413 04be 537f f53c d1a1 503b
00000330: 324d e83d 2a20 663c 804d b1bd f88b fabd
00000340: f001 35bc 4c33 1abd c802 993c 8254 05bd
00000350: ce80 ba3d 0ca2 063c 30c0 8cbc 231c f23d
00000360: 2fbf 23be f198 d23d f456 dbbd 451e 87bc
00000370: ba73 adbd a6b6 1dbe 507f c33d 7f3a d8bd
00000380: a593 0ebe ac0a 8d3c 3d42 84bd ba8a 613d
00000390: 833a e2bd 4d3e 07be 9a12 37bd 9687 37bd
000003a0: 0cd3 2fbd b247 eb3c a50a 083e 0555 01be
000003b0: 0b8d e4bd c365 f939 3239 e33d a1cb 42bd
000003c0: 8c4c 0e3d 8011 04bb 2b2a 753d 757c 0fbe
000003d0: b9b7 4dbd 0b50 eabd 217b 013e 71f2 41bc
000003e0: 3164 47bd 16f2 97bc 3aaf 9c3d 0441 a8bc
000003f0: 4fb0 a6bd 26fb 9cbd c788 3a3d af95 2cbd

FC2.weight f4 [128, 256]
-0.07264994 0.031863652 0.014359424 -0.06886504 0.14844699 0.03672879 -0.07210605 0.012449317
0.054335766 -0.05944684 -0.0059502725 -0.013437042 -0.0034335926 -0.034495104 -0.03887456 0.0010784119
-0.041286316 0.007895023 -0.05587016 -0.0051939934 -0.04083707 -0.029925764 -0.057420917 -0.06172905
-0.04456543 0.050131947 -0.062407106 0.03389167 0.005453661 -0.054684244 -0.060110584 -0.0657954
-0.072696134 0.008564357 0.03294181 -0.045979068 -0.040043242 -0.048426792 -0.024158718 -0.03831353
-0.007825307 -0.041184857 -0.02763743 -0.062272295 0.026429284 0.004004881 -0.016261108 0.009844281
0.04240752 -0.045670673 -0.051457636 -0.030980706 -0.02493146 0.03151314 0.051287666 0.017258354
-0.05957009 0.045914203 0.024140835 -0.005695507 -0.014905229 0.016105652 -0.009736707 -0.013066985
-0.04152493 0.05462694 0.050128408 -0.028820455 0.032550775 -0.057999074 -0.04929637 -0.033752464
-0.0667148 0.038725927 -0.04313183 0.0118622705 0.12921257 -0.020013584 -0.05230196 -0.017763563
-0.0037960112 0.026210608 -0.00041383505 -0.073980615 -0.019166134 -0.017421523 0.014309861 -0.006759234
-0.013894439 -0.056930132 -0.048192266 0.055074565 -0.015052035 0.023907632 0.052254356 -0.03674994
-0.06940595 -0.02342029 -0.0591342 -0.061347023 -0.04572165 -0.07136397 -0.058901742 0.046851277
0.019288242 -0.0017279834 -0.026532475 -0.009047918 -0.0014202073 0.5334058 0.025433384 0.042246036
0.03731844 -0.048466448 -0.059844352 -0.026862163 -0.05474843 0.054841064 -0.046809435 -0.010556272
0.005735043 0.008864149 -0.058127623 -0.062247798 0.0601947 -0.0094392225 -0.0070482865 0.03092172
0.047088735 0.05996593 -0.03531616 0.007595176 0.03612137 -0.03900806 -0.061053813 0.019123219
0.023053162 0.01416366 -0.059341386 0.052972175 -0.03677877 -0.010726906 0.0046870485 -0.019117989
0.059297197 -0.012901217 0.5220836 0.03435798 0.00692261 -0.084755644 -0.013309265 -0.0040768012
0.047826067 -0.07961028 -0.022708833 -0.025558747 -0.01570109 -0.097219 0.038006563 0.041709527
-0.039393123 -0.04159179 0.051643938 0.045478012 -0.018786415 0.0286588 0.058958434 -0.02133271
0.017607043 0.006017633 -0.031016499 -0.05008979 0.009707836 0.045309044 0.024390988 -0.006907746
-0.025627837 0.019039417 -0.3018224 0.023708701 -0.03911447 -0.05322241 -0.028549349 -0.085532
-0.044346422 0.009247273 -0.024936303 -0.02978354 -0.011362858 -0.000841119 -0.05325543 0.0130993435
-0.04768399 0.052689 0.02005601 -0.034799833 -0.050727464 -0.006353013 0.0038034096 -0.34377313
0.015076093 -0.01662422 0.021222066 -0.08266651 -0.0065780776 -0.0061065485 0.0028853342 0.008667439
-0.029897906 0.04619676 -0.049840786 -0.02587049 -0.054641232 -0.023630217 0.03297434 0.022004291
-0.0313605 -0.011785746 -0.028578296 0.02147977 0.03997725 -0.008137439 -0.056432724 -0.0424925
-0.0046500266 -0.033530585 -0.039913602 0.040227115 -0.038045414 -0.07210754 -0.0049430355 -0.0017551556
-0.033028334 -0.051966913 -0.05023455 -0.018561207 0.039828982 -0.04110452 0.02056127 -0.052498527
-0.0035493437 -0.061099887 0.027537808 0.034910053 -0.033549625 0.000610663 0.042961076 -0.037758403
-0.016658992 -0.007467918 -0.028792143 -0.038823687 -0.019379538 0.023061387 -0.041377213 -0.006061308
00000000: 7ec9 94bd 7683 023d ca43 6b3c 1d09 8dbd
00000010: 7d02 183e ed70 163d 56ac 93bd 38f8 4b3c
00000020: 2e8f 5e3d 887e 73bd 81fa c2bb 0a27 5cbc
00000030: 2006 61bb bd4a 0dbd ee3a 1fbd 8059 8d3a
00000040: d71b 29bd 205a 013c 1cd8 64bd 6032 aabb
00000050: c644 27bd e026 f5bc 3232 6bbd 9ad7 7cbd
00000060: 3e8a 36bd 2857 4d3d 989e 7fbd fed1 0a3d
00000070: a0b4 b23b 96fc 5fbd 8436 76bd bdbf 86bd
00000080: b6e1 94bd 8451 0c3c feed 063d 8c54 3cbd
00000090: 6204 24bd 2c5b 46bd 81e8 c5bc a6ee 1cbd
000000a0: b735 00bc 74b1 28bd e467 e2bc 3c11 7fbd
000000b0: 3a82 d83c 603b 833b 0436 85bc e849 213c
000000c0: 82b3 2d3d 2c11 3bbd 3ec5 52bd 40cb fdbc
000000d0: 103d ccbc ec13 013d 0413 523d 6461 8d3c
000000e0: c4ff 73bd 8810 3c3d 00c3 c53c 60a1 babb
000000f0: 1035 74bc 00f0 833c b686 1fbc e816 56bc
00000100: 0c16 2abd 80c0 5f3d 7253 4d3d e018 ecbc
00000110: f653 053d 7090 6dbd feea 49bd 0640 0abd
00000120: c5a1 88bd 149f 1e3d 00ab 30bd f859 423c
00000130: 4d50 043e 87f3 a3bc 943a 56bd e484 91bc
00000140: 80c6 78bb a1b7 d63c 00f8 d8b9 2683 97bd
00000150: 4c02 9dbc 95b7 8ebc e873 6a3c 907c ddbb
00000160: 80a5 63bc 922f 69bd 4165 45bd de95 613d
00000170: d09c 76bc f0d9 c33c aa08 563d 1b87 16bd
00000180: b524 8ebd e8db bfbc b436 72bd 0447 7bbd
00000190: a046 3bbd 4627 92bd f442 71bd 20e7 3f3d
000001a0: 6002 9e3c 807d e2ba a25a d9bc b83d 14bc
000001b0: 4026 baba 488d 083f ac59 d03c 2e0a 2d3d
000001c0: 38db 183d c184 46bd 5a1f 75bd 0a0e dcbc
000001d0: e43f 60bd 06a1 603d 40bb 3fbd 37f4 2cbc
000001e0: 07ed bb3b f03a 113c 3b17 6ebd 8cf7 7ebd
000001f0: b88e 763d f8a6 1abc 50f5 e6bb 8c4f fd3c
00000200: 1ee0 403d d69e 753d aea7 10bd f4e0 f83b
00000210: 00f4 133d eac6 1fbd 9013 7abd 4ca8 9c3c
00000220: fcd9 bc3c b20e 683c f40f 73bd 5af9 583d
00000230: 56a5 16bd e8bf 2fbc d095 993b 549d 9cbc
00000240: 9ee1 723d a05f 53bc 45a7 053f f4ba 0c3d
00000250: 10d7 e23b 5e94 adbd 1a0f 5abc b096 85bb
00000260: 44e5 433d b70a a3bd e007 babc 9460 d1bc
00000270: 939f 80bc c11a c7bd c5ac 1b3d 9cd7 2a3d
00000280: af5a 21bd 275c 2abd 9888 533d 2747 3a3d
00000290: f8e5 99bc dcc5 ea3c 667e 713d efc1 aebc
000002a0: a53c 903c 902f c53b 5016 febc f42a 4dbd
000002b0: 9e0d 1f3c fa95 393d 9ccf c73c 605a e2bb
000002c0: 78f1 d1bc 8df8 9b3c 7788 9abe c038 c23c
000002d0: 7f36 20bd beff 59bd 53e0 e9bc 672b afbd
000002e0: 98a4 35bd e081 173c 3847 ccbc 9cfc f3bc
000002f0: 482b 3abc 8a7e 5cba 5e22 5abd a19e 563c
00000300: 4a50 43bd 6cd0 573d 804c a43c 458a 0ebd
00000310: 9ac7 4fbd f02c d0bb a042 793b 0803 b0be
00000320: b801 773c 842f 88bc e6d9 ad3c 0f4d a9bd
00000330: ea8c d7bb 7119 c8bb e017 3d3b e001 0e3c
00000340: 74ec f4bc d038 3d3d da25 4cbd 5aee d3bc
00000350: 7ccf 5fbd 2894 c1bc 1a10 073d 5842 b43c
00000360: de73 00bd 0019 41bc 081d eabc 58f6 af3c
00000370: 2fbf 233d e552 05bc 0026 67bd 9e0c 2ebd
00000380: 405f 98bb 5e57 09bd 727c 23bd 30c5 243d
00000390: 82d5 1bbd 1ead 93bd 30f9 a1bb 400d e6ba
000003a0: b848 07bd 42db 54bd bec2 4dbd ac0d 98bc
000003b0: b723 233d 375d 28bd 1c70 a83c b208 57bd
000003c0: 1b9c 68bb e043 7abd f896 e13c d8fd 0e3d
000003d0: 556b 09bd e614 203a f4f7 2f3d 8ea8 1abd
000003e0: 7078 88bc 70b5 f4bb 80dd ebbc 9605 1fbd
000003f0: d6c1 9ebc 3ceb bc3c 277b 29bd f09d c6bb
