examples/inputs/example_02b/learned_strategies/example_02b_base/avg_reward/actors/actor_pp_6.pt (torch, 748450 bytes, 24 tensors)

FC1.weight f4 [256, 50]
0	0x3dd8a892	0.10579027
1	0x3dc4e6d2	0.09614338
2	0xbdfc7e3b	-0.12328764
3	0x3d0ce38c	0.034396693
4	0xbdac8f01	-0.08425713
5	0x3de719bc	0.11284205
6	0xbd06d1a5	-0.032914776
7	0xbd8de12a	-0.06927712
8	0x3cb0b368	0.021569923
9	0xbd9f7391	-0.077857144
10	0xbda49a1c	-0.080372065
11	0x3d4f5147	0.05061462
12	0xbd120fac	-0.035659477
13	0xbe08cdb1	-0.13359715
14	0x3df8ba94	0.12144962
15	0x3dd9097f	0.10597514
16	0x3dc1196e	0.094286785
17	0xbc2ca7d0	-0.0105380565
18	0x3d8fb3ac	0.070166916
19	0xbd9bbc97	-0.0760433
20	0xbe01da59	-0.1268095
21	0xbd4a71a2	-0.049424775
22	0x3c14b820	0.009077102
23	0x3cf76026	0.030197214
24	0x3dc049a1	0.093890436
25	0xbe1ba135	-0.15198214
26	0xbd7f71c6	-0.062364362
27	0xbd13060c	-0.03589444
28	0xbd89502a	-0.06704743
29	0xbd4a09cd	-0.049325753
30	0xbe1a439d	-0.15064855
31	0xbd676b62	-0.056498893
32	0xbde4ec81	-0.11177922
33	0x3d2d786e	0.04235118
34	0xbba34d17	-0.004983555
35	0x3d07d4a2	0.033161767
36	0x3d2cfaf5	0.04223152
37	0x3d99fce3	0.075189374
38	0x3df83023	0.12118556
39	0x3d387ad2	0.045039006
40	0x3d2b069e	0.041754358
41	0xbca12f9b	-0.01967602
42	0xbd931a7b	-0.07182785
43	0xbd992e74	-0.07479563
44	0xbdd8eca0	-0.10592008
45	0xbe13aaa4	-0.14420563
46	0xbae888d2	-0.0017740971
47	0x3d4f9a8f	0.050684508
48	0x3d61c445	0.055118818
49	0xbe09b7c2	-0.13449004
50	0xbe6f8b28	-0.23392928
51	0xbea1a806	-0.31573504
52	0xbe928b9c	-0.28622139
53	0xbe88aac3	-0.2669278
54	0xbd46ec5a	-0.048565246
55	0xbe4d474d	-0.2004673
56	0xbe1e664b	-0.15468709
57	0x3d93d202	0.0721779
58	0x3dc3957b	0.095499955
59	0xbd37e866	-0.044899367
60	0x3d98db91	0.07463754
61	0x3d6cc5b4	0.057805732
62	0x3dd3e4c2	0.103463665
63	0x3cc48682	0.02398992
64	0xbc823ec8	-0.015899077
65	0xbdd980fa	-0.106203035
66	0xbd3343a3	-0.043765675
67	0x3d686db6	0.056745254
68	0x3dc27a15	0.094959415
69	0xbc930619	-0.017947244
70	0xbe354a84	-0.17704207
71	0xbe541c6e	-0.2071397
72	0xbd8cf84f	-0.068832986
73	0xbe2f5690	-0.17122865
74	0x3dd2d928	0.102953255
75	0xbe060a79	-0.13089933
76	0xbdfc08ac	-0.123063415
77	0xbdc7ffdd	-0.09765599
78	0xbc9949f0	-0.018712014
79	0x3da8f968	0.082506955
80	0xbc58bdbd	-0.013228831
81	0x3cf8da40	0.030377507
82	0x3ba4be01	0.005027533
83	0x3b89bcb7	0.0042034048
84	0x3db7cbf7	0.0897445
85	0xbd58d1a6	-0.05293431
86	0x3dcd9016	0.10037248
87	0xbd170ce1	-0.036877517
88	0xbdfdcdd3	-0.123927735
89	0x3d18cf31	0.037306968
90	0x3d51ddcf	0.051236924
91	0x3d27e26f	0.04098743
92	0x3d51041c	0.05102931
93	0x3d995826	0.07487516
94	0x3e465cdb	0.19371359
95	0x3d8a3d38	0.06749958
96	0x3e49675f	0.19668339
97	0x3d5180b1	0.05114812
98	0xbeb48ef7	-0.35265324
99	0x3e379db4	0.17931253
100	0x3d756b94	0.059917048
101	0x3c974a78	0.018468127
102	0x3d3efc84	0.046627536
103	0xbdee18c6	-0.11625819
104	0x3dc1457a	0.0943708
105	0x3db114a2	0.086465135
106	0x3ded933e	0.1160035
107	0xbe0632e6	-0.13105354
108	0xbdb73afe	-0.08946799
109	0xbdbb0c76	-0.09133236
110	0xbd31a960	-0.04337442
111	0xbe0ef932	-0.13962248
112	0x3d89e54a	0.067331865
113	0xbdc32ac1	-0.09529639
114	0x3d5fa398	0.054599375
115	0x3e02cec3	0.12774186
116	0xbd3acb5e	-0.045604102
117	0xbd29ee84	-0.04148723
118	0xbcef9564	-0.02924604
119	0xbdb8da40	-0.09026003
120	0xbca3d2c0	-0.019997954
121	0x3d926784	0.0714865
122	0x3d41bbe8	0.047298342
123	0xbcd319e8	-0.025769189
124	0xbd5b540c	-0.05354695
125	0x3c369640	0.011144221
126	0xbcfd8400	-0.030946732
127	0x3c059100	0.0081522465
128	0x3db871c6	0.090060756
129	0xbe06d51b	-0.13167231
130	0xbca0d874	-0.019634463
131	0x3d18f3d0	0.037341893
132	0x3da1321c	0.07870886
133	0xbd85b32b	-0.06528314
134	0xbdf2dad6	-0.11858146
135	0xbd16f8d0	-0.03685838
136	0xbd579a00	-0.0526371
137	0xbda24196	-0.07922666
138	0x3d4aa2dc	0.04947172
139	0x3d90182c	0.070358604
140	0x3d410620	0.047124982
141	0x3b0d3300	0.002154529
142	0x3d15610c	0.036469504
143	0xbe026956	-0.12735495
144	0x3d138aec	0.036021158
145	0x3d987a5c	0.07445213
146	0xbd5bfc2a	-0.05370728
147	0x3ddb0fd6	0.1069638
148	0xbce21c30	-0.027601331
149	0xbb599280	-0.0033198893
150	0xbe09c017	-0.13452183
151	0xbd087e56	-0.03332361
152	0x3dc03410	0.0938493
153	0x3c9b4ee8	0.018958524
154	0xbd81a784	-0.06330779
155	0xbdd861be	-0.10565518
156	0x3cbec8c0	0.023289084
157	0x3de971c6	0.11398654
158	0x3df8d506	0.12150006
159	0xbd0014ca	-0.031269826
160	0xbd471972	-0.04860825
161	0xbd768250	-0.06018287
162	0x3d866366	0.065619275
163	0x3d065ca0	0.032803178
164	0x3e0281ad	0.1274478
165	0x3dc65ea4	0.0968602
166	0x3d4e5568	0.05037442
167	0xbdf7c4aa	-0.120980576
168	0xbdf1e3a0	-0.11810994
169	0xbd26deac	-0.0407397
170	0x3dacb808	0.08433539
171	0xbb5bdc40	-0.0033548027
172	0x3dec80f2	0.11548032
173	0xbdbb6340	-0.0914979
174	0xbd83c1b4	-0.0643343
175	0xbd6db066	-0.058029555
176	0x3d34c084	0.04412891
177	0xbdb5af52	-0.0887133
178	0xbd5125d0	-0.05106145
179	0x3e0028a1	0.12515499
180	0xbe02c593	-0.12770681
181	0xbda39db2	-0.07989062
182	0xbddff972	-0.1093625
183	0x3d23e4dc	0.04001318
184	0xbcd3e150	-0.025864273
185	0xbd1a16c4	-0.037619367
186	0x3ce72030	0.02821359
187	0xbde567df	-0.112014525
188	0x3de39e76	0.111142084
189	0x3dde4cde	0.10854505
190	0x3e065dcf	0.13121723
191	0xbd7febc4	-0.062480703
192	0xbc6b1fb0	-0.014350817
193	0xbde47a76	-0.1115617
194	0xbdb1218f	-0.08648979
195	0xbd00b208	-0.031419784
196	0xbb08e740	-0.002088979
197	0xbdb60b1a	-0.08888836
198	0xbc195800	-0.00935936
199	0x3b5bcc80	0.003353864
200	0xbdd646f8	-0.10462755
201	0xbdefba75	-0.11705486
202	0x3dcd573c	0.10026404
203	0xbd7fad1a	-0.062420942
204	0xbdf47213	-0.119358204
205	0xbd426718	-0.0474616
206	0xbdd30066	-0.1030281
207	0xbc838fea	-0.016059835
208	0x3d48d596	0.049031816
209	0xbdae87f6	-0.08522026
210	0x3d9a861c	0.075451106
211	0x3dd50227	0.10400801
212	0x3dd0bcf5	0.10192291
213	0x3d061396	0.032733522
214	0xbda277ff	-0.07933044
215	0xbd2e6086	-0.04257252
216	0x3d40f827	0.047111657
217	0x3d7550e1	0.059891585
218	0xbca8a556	-0.02058665
219	0xbda857b5	-0.08219854
220	0xbdcd89f1	-0.10036076
221	0xbe233c0b	-0.15940873
222	0x3d987080	0.07443333
223	0x3d8a8d26	0.06765203
224	0xbdf13a28	-0.117786705
225	0xbd58ff1a	-0.05297766
226	0x3cf6024a	0.030030388
227	0xbd75220c	-0.059846923
228	0x3d1d7ee9	0.03845111
229	0x3df0c2d9	0.11755914
230	0xbe1f8b13	-0.15580396
231	0xbd7f782d	-0.062370468
232	0x3de79b63	0.113089345
233	0x3db3fc5b	0.08788367
234	0xbe212058	-0.15734994
235	0x3ce94b8d	0.028478408
236	0x3cdacef2	0.026710007
237	0x3d7b2ed9	0.061323974
238	0xbcf01c43	-0.029310351
239	0x3da8e0fd	0.08246038
240	0x3ddd7e3f	0.10815095
241	0xbe17f14a	-0.14838138
242	0xbde77f40	-0.11303568
243	0xbe07c79d	-0.1325974
244	0x3cbb5476	0.022867423
245	0xbd09fecb	-0.033690255
246	0xbd240d2d	-0.040051628
247	0xbd6e3f30	-0.05816573
248	0xbe360829	-0.1777655
249	0x3d430ccc	0.047619626
250	0xbcde3e53	-0.027129328
251	0x3e00eeb4	0.12591058
252	0x3cda8bb8	0.026677951
253	0xbd0a670a	-0.033789672
254	0x3d865fcd	0.06561241
255	0xbd2b2262	-0.041780837

FC1.bias f4 [256]
0	0x3c9d7875	0.019222477
1	0x3e9cd723	0.30632886
2	0xbd53c562	-0.05170191
3	0xbc87c160	-0.0165717
4	0x3c577ca7	0.013152278
5	0x3c2995f9	0.010350698
6	0xbdd0ebf6	-0.10201256
7	0x3bef552e	0.0073038554
8	0xbdf5ed3f	-0.12008142
9	0xbccc8e41	-0.024970176
10	0x3cc6413e	0.024201032
11	0xbd0379b4	-0.032098487
12	0x3dcd25ae	0.100169525
13	0xbe0fe5f5	-0.14052565
14	0xbe0ca850	-0.13736081
15	0x3dea1fcf	0.11431848
16	0xbd55bb8e	-0.05218082
17	0xbe07528c	-0.13215083
18	0x3dbdadfe	0.09261702
19	0xbe0b3c69	-0.13597263
20	0x3db4ee72	0.08834542
21	0xbd53315d	-0.05156075
22	0xbddfe111	-0.109316
23	0xbc278fe0	-0.010227174
24	0x3d9e252e	0.07721935
25	0x3d10e5a8	0.035375267
26	0xbcd5b205	-0.026085863
27	0xbdc12a70	-0.094319224
28	0x3ada8d00	0.0016674101
29	0x3ec7c75b	0.39019284
30	0xbdcba62c	-0.09943804
31	0x3db8d634	0.09025231
32	0xbdf91708	-0.12162596
33	0x3e030631	0.1279533
34	0x3da983b2	0.08277072
35	0x3db6dc3e	0.089287266
36	0x3eb3e3ab	0.35134634
37	0xbe0450a8	-0.12921393
38	0x3d250640	0.040289164
39	0x3eb5c062	0.3549834
40	0xbdd958fb	-0.10612675
41	0x3d9fde80	0.078061104
42	0x3d8d7b7e	0.0690832
43	0xbd929542	-0.07157375
44	0x3c982f70	0.018577307
45	0xbd669247	-0.056291845
46	0xbdffd20b	-0.124912344
47	0xbcc19544	-0.023630746
48	0x3ddca892	0.1077434
49	0x3d9b6a85	0.07588676
50	0x3c2f2750	0.010690525
51	0xbe143569	-0.144735
52	0xbdb75507	-0.089517646
53	0xbde6ed0c	-0.11275682
54	0x3d860476	0.065438196
55	0xbe03a378	-0.12855327
56	0xbdd619ff	-0.10454177
57	0x3d80a6c8	0.06281811
58	0xbe01e158	-0.12683618
59	0xbd394c5e	-0.045238845
60	0x3d7c2dfa	0.061567284
61	0xbe0003de	-0.12501475
62	0x3ce3a2d8	0.02778761
63	0xbd1d8d68	-0.038464934
64	0xbd2e126c	-0.042498037
65	0x3d8f7849	0.070053644
66	0xbda17968	-0.078844845
67	0xbced4ee8	-0.02896829
68	0xbc7d5623	-0.015462431
69	0xbd110c6d	-0.03541224
70	0xbd944ace	-0.0724083
71	0x3d109ff5	0.035308797
72	0xbdde3ae4	-0.10851076
73	0xbd18bce8	-0.03728953
74	0x3d7be2e3	0.061495673
75	0x3dca1bfd	0.098686196
76	0x3d9913c3	0.074744724
77	0x3de726cb	0.11286696
78	0x3df2df46	0.11858992
79	0x3db591f0	0.08865726
80	0x3d926e37	0.07149928
81	0x3b04233b	0.00201626
82	0xbdf8885b	-0.12135383
83	0x3d92b1ae	0.07162796
84	0x3d23ea18	0.04001817
85	0x3d1d8e15	0.038465578
86	0xbd9fb6bc	-0.07798526
87	0xbd8f7f45	-0.070066966
88	0xbd5429ac	-0.051797554
89	0xbe1d5d9b	-0.15367739
90	0x3cc840c6	0.024444949
91	0xbdf88f1e	-0.121366724
92	0xbca61eec	-0.020278417
93	0x3cb54b20	0.022130549
94	0xbda0b68d	-0.07847319
95	0x3aec5880	0.0018031746
96	0x3ea8d61e	0.32975858
97	0x3eb15177	0.34632465
98	0x3c6f1880	0.014593244
99	0xbddb158d	-0.1069747
100	0xbdf0fa13	-0.11766448
101	0x3da6e82c	0.08149752
102	0x3de3f6db	0.11131068
103	0x3c175310	0.009236112
104	0x3dcc0a2d	0.099628784
105	0xbdb83912	-0.0899526
106	0xbc234431	-0.009964989
107	0xbdafff8a	-0.08593662
108	0xbd8488ee	-0.0647143
109	0xbdfa0815	-0.12208573
110	0x3cfbfa10	0.030758888
111	0xbd0358e8	-0.03206721
112	0xbdd93291	-0.10605348
113	0xbe060f1e	-0.13091704
114	0xbd14ba17	-0.03631028
115	0x3d993548	0.07480866
116	0x3c6fb610	0.014630809
117	0x3df800b6	0.121095106
118	0xbdb4a95b	-0.088213645
119	0xbd79c602	-0.06097985
120	0xbd087d49	-0.033322606
121	0xbca89333	-0.020578003
122	0x3a8c7bc8	0.0010718042
123	0x3dd25ef2	0.10272016
124	0x3e2db1ff	0.16962431
125	0x3d9fd201	0.07803727
126	0x3e033f99	0.1281723
127	0x3dae900d	0.08523569
128	0x3ce9287a	0.028461684
129	0xb9f21600	-0.00046174228
130	0xbbd5c602	-0.0065238485
131	0x3d598364	0.05310382
132	0xbcabde58	-0.020980045
133	0xbd5df40f	-0.05418783
134	0xbcdb2262	-0.026749793
135	0xbdbc35ea	-0.09189971
136	0xbd9cd097	-0.07656973
137	0xbd72845e	-0.059208266
138	0xbd2c485a	-0.042061187
139	0x3c1c9ff2	0.009559618
140	0xbdfaba30	-0.12242544
141	0x3e8eb7cd	0.27874604
142	0x3d2bc1b2	0.04193277
143	0xbd8877d1	-0.06663478
144	0x3db857d6	0.090011284
145	0x3d9d67c6	0.07685809
146	0x3d91fb5d	0.07128022
147	0x3dd12d37	0.10213702
148	0xbcb775c8	-0.02239503
149	0xbda90ba2	-0.08254172
150	0x3dfde316	0.12396829
151	0xbdfd0b66	-0.1235569
152	0xbe0f29f9	-0.13980855
153	0xbdb36c2a	-0.08760865
154	0x3db0e935	0.08638231
155	0xbce53a68	-0.027981952
156	0x3d745fb0	0.059661567
157	0x3dd7c932	0.10536422
158	0x3ddd2700	0.10798454
159	0x3d3d7b4b	0.04626016
160	0x3cd9dd99	0.026594924
161	0x3e2943fc	0.1652984
162	0x3de69bda	0.11260195
163	0xbd4ac2bc	-0.04950212
164	0x3ddd3e23	0.10802867
165	0xbd737263	-0.05943526
166	0xbdfe0df4	-0.12405005
167	0x3dee6bd1	0.11641658
168	0x3ae0afff	0.0017142295
169	0xbd440239	-0.047853682
170	0x3e102119	0.14075126
171	0x3db41c50	0.08794463
172	0xbe0fc573	-0.14040165
173	0xbda77a2b	-0.081775986
174	0xbcf794c1	-0.030222299
175	0x3d1cc5c9	0.03827456
176	0x3dba7c06	0.09105687
177	0x3c748a4e	0.0149255525
178	0xbdd49d30	-0.10381544
179	0x3cb509e1	0.022099437
180	0x3d982c6b	0.07430347
181	0x3e742584	0.23842436
182	0x3ed41282	0.4142037
183	0x3e69b108	0.22821438
184	0x3d922b19	0.071371265
185	0xbca4efdf	-0.02013391
186	0x3d1501d4	0.036378697
187	0xbdb532bf	-0.0884757
188	0xbd915649	-0.07096536
189	0xbda67cd6	-0.08129279
190	0xbc4d0b3b	-0.012514885
191	0xbdf11b6e	-0.1177281
192	0xbd542564	-0.05179347
193	0xbdbf4791	-0.09339822
194	0x3d7c4e4a	0.0615981
195	0xbda6d9f8	-0.08147043
196	0xbe14d82d	-0.1453559
197	0xbdc37e8f	-0.095456235
198	0xbc6dde80	-0.01451838
199	0x3d70cd2c	0.058789417
200	0xbd1fef31	-0.03904647
201	0xbd6f8342	-0.058474787
202	0x3ebf6cf9	0.37387827
203	0xbd6fc6ca	-0.05853919
204	0xbde9c79f	-0.11415028
205	0x3da4317f	0.08017253
206	0x3d0c28d5	0.034218628
207	0x3d9f7858	0.077866256
208	0xbce1e279	-0.02757381
209	0xbd175e12	-0.036954947
210	0xbde9c326	-0.11414175
211	0xbcf8b014	-0.030357398
212	0x3dadc080	0.08483982
213	0x3db12430	0.0864948
214	0x3d5d9902	0.054100998
215	0x3da1f945	0.079088725
216	0x3da15b6e	0.07878767
217	0x3d39c3f3	0.045352887
218	0x3d4cee6f	0.050032075
219	0xbddc3e37	-0.10754054
220	0xbdbf0bd6	-0.093284294
221	0xbdd8f4a1	-0.10593534
222	0xbdfdb8ed	-0.123887874
223	0x3b78e6d2	0.0037979377
224	0xbe099d39	-0.13438882
225	0xbd4220c1	-0.047394518
226	0xbdf96fce	-0.12179528
227	0xbdde39f1	-0.10850895
228	0xbd33fe90	-0.04394394
229	0x3d4bd848	0.04976681
230	0xbd646a8e	-0.05576568
231	0xbdb68602	-0.08912279
232	0xbd7b7718	-0.061392874
233	0xbc7098d3	-0.014684874
234	0x3f0a7604	0.5408633
235	0x3c80dea7	0.015731169
236	0xbd0901ce	-0.033448987
237	0x3df6de6a	0.12054141
238	0x3b8359b9	0.0040084985
239	0xbd216973	-0.039407205
240	0x3d94c3ba	0.072638944
241	0xbdfebfd8	-0.12438935
242	0xbde04562	-0.10950734
243	0x3dd86d76	0.10567753
244	0xbc46ca90	-0.012133256
245	0x3d470b1c	0.04859458
246	0xbd9c77ca	-0.076400355
247	0x3c95d140	0.018288255
248	0x3cc0ad15	0.023520032
249	0xbdcfddab	-0.10149702
250	0x3dae1eae	0.085019454
251	0xbe36aa9d	-0.17838521
252	0x3d063351	0.032763783
253	0x3d4abc00	0.049495697
254	0x3e4b0aae	0.19828293
255	0x3dea87ea	0.11451705

FC2.weight f4 [128, 256]
0	0x3ccf318e	0.025292184
1	0x3c7a90e9	0.015293338
2	0x3c887548	0.016657487
3	0xbd76f792	-0.060294695
4	0xbce3e3e0	-0.02781862
5	0x3bc5c7eb	0.006035795
6	0xbd066274	-0.032808736
7	0x3d7aea62	0.06125868
8	0x3ce3eef8	0.02782391
9	0x3d3fdebb	0.04684327
10	0x3c37c4c2	0.011216344
11	0xbc63d17c	-0.013904925
12	0x3d673042	0.056442507
13	0xbcc30715	-0.023807088
14	0x3d405667	0.0469574
15	0x3d3d3062	0.04618872
16	0x3cccd480	0.025003672
17	0x3d3ba51e	0.045811765
18	0xbd03f12c	-0.03221242
19	0x3ca7bbf0	0.020475358
20	0xbd8a97bf	-0.067672245
21	0x3d2db244	0.042406335
22	0xbc976f54	-0.018485703
23	0x38f04800	0.00011457503
24	0xbd08b85b	-0.03337894
25	0x3c269940	0.010168374
26	0xbd5f7b25	-0.0545608
27	0x3d11576b	0.03548376
28	0xbd2b8704	-0.041876808
29	0xbd76dc2e	-0.060268573
30	0xbca9da08	-0.020733848
31	0xbc06d020	-0.008228332
32	0xbb4de20a	-0.0031415247
33	0xbcc6ec1c	-0.024282508
34	0x3d27dc31	0.040981475
35	0x3cac07a8	0.020999745
36	0xbd8bc13a	-0.068239644
37	0x3bc07c80	0.0058742166
38	0xbd57d46f	-0.052692827
39	0xbd79a574	-0.060948804
40	0xbcce5e44	-0.025191434
41	0x3d4be2d7	0.04977688
42	0x3d348fa8	0.044082314
43	0x3b198980	0.0023427904
44	0xbd2db83f	-0.04241204
45	0x3d526523	0.051365983
46	0x3d42bf2c	0.047545597
47	0x3d49c2ce	0.049258046
48	0x3ce6f436	0.02819262
49	0x3ce27e9c	0.027648263
50	0xbd033a5e	-0.032038085
51	0xbc572f3a	-0.013133818
52	0xbcde6efb	-0.027152529
53	0xbc61d9e0	-0.013784856
54	0x3d51112e	0.051041774
55	0x3c0b75c0	0.0085119605
56	0xbac11f40	-0.0014734045
57	0xbd3446b5	-0.044012744
58	0xbd6b4ba6	-0.05744519
59	0x3a742000	0.00093126297
60	0x3cfdc01d	0.030975396
61	0xbcf26017	-0.029586835
62	0x3c763950	0.015028313
63	0xbd6f49a6	-0.058419846
64	0x3c9736b8	0.01845871
65	0x3cf3ec62	0.029775802
66	0x3d4b1080	0.049576283
67	0xbd09cd64	-0.03364314
68	0xbd94f376	-0.07272999
69	0x3cdece71	0.027198048
70	0xbd639c9e	-0.055569284
71	0x3cc77410	0.024347335
72	0x3d68f5ca	0.056875028
73	0xbca758c0	-0.020428061
74	0x3d1afa6e	0.037836485
75	0x3b9aef32	0.0047282213
76	0xbd3f9672	-0.046774335
77	0x3d1ddbf8	0.038539857
78	0x3bef6bc1	0.0073065464
79	0xbbea0624	-0.0071418453
80	0x3d53150a	0.051533736
81	0x3ce69382	0.02814651
82	0x3cff2138	0.03114377
83	0xbd800e1d	-0.06252692
84	0xbd560ec6	-0.052260183
85	0x3c81ca94	0.015843667
86	0xbc2709e0	-0.0101952255
87	0x3d07a628	0.033117443
88	0x3adf8840	0.0017054155
89	0x3cd812ec	0.02637621
90	0xbc24cd1e	-0.010058669
91	0x3d708bce	0.05872708
92	0xbd570e38	-0.052503794
93	0x3d40111a	0.04689131
94	0x3d5bcc23	0.053661477
95	0x3d4c489e	0.04987394
96	0xbd2b712e	-0.041855983
97	0xbd8b80cd	-0.06811676
98	0x3d148aaa	0.036265053
99	0x3c9a7938	0.01885663
100	0xbc0c3b78	-0.0085591
101	0x3bca4180	0.006172359
102	0x3c0287e2	0.007966967
103	0x3d069be8	0.032863528
104	0x3d4050d8	0.0469521
105	0xbc7a1790	-0.015264407
106	0xbcb2d242	-0.021828774
107	0x3d090813	0.033454966
108	0xbd20fffc	-0.039306626
109	0x3d42fd1d	0.04760467
110	0xb9e21b00	-0.00043126196
111	0xbd09ee30	-0.03367442
112	0x3d6d3500	0.057911873
113	0x3cb6a1cd	0.02229395
114	0x3d280953	0.041024517
115	0xbd2bb504	-0.041920677
116	0xbd31df10	-0.04342562
117	0xbd169c5c	-0.03677021
118	0xbcb5c90c	-0.022190593
119	0xbbbe11f0	-0.005800478
120	0x3b2d9b53	0.0026490286
121	0xbd6de9c4	-0.058084264
122	0xbd83f5ef	-0.064433925
123	0x3b95fd10	0.0045772865
124	0xbd3de61e	-0.046362035
125	0xbd973a91	-0.073842175
126	0x3d4f5608	0.050619155
127	0x3c82fc22	0.015989367
128	0xbd5ab01f	-0.05339062
129	0xbc7565e0	-0.014977902
130	0xbd446656	-0.047949158
131	0xbd6ace16	-0.057325445
132	0xbc821378	-0.015878424
133	0x3d646263	0.05575789
134	0x3d837aab	0.064198814
135	0x3d3c0997	0.045907583
136	0xbc45aeee	-0.012065632
137	0x3d116618	0.035497755
138	0xbc7ca468	-0.015420057
139	0x3c4dbad2	0.012556748
140	0xbbb5bea2	-0.005546407
141	0xbd62af9f	-0.055343267
142	0xbd08df46	-0.033416055
143	0x3d39c4a6	0.045353554
144	0x3ac448da	0.0014975325
145	0x3c0ed144	0.008716885
146	0xbc31ae2a	-0.010844747
147	0xbd0a9a3e	-0.033838503
148	0xbc476660	-0.012170404
149	0x3d1fd9c8	0.03902605
150	0x3c917ed1	0.017760666
151	0x3d04629e	0.03232061
152	0x3ca19d31	0.019728275
153	0x3ce38e68	0.027777866
154	0xbd87d37b	-0.066321336
155	0x3d1eb00d	0.038742114
156	0x3cef966c	0.029246531
157	0xbcf191a2	-0.029488388
158	0x3d190350	0.037356675
159	0xbd90ab02	-0.07063867
160	0xbd2810bd	-0.041031588
161	0xbc9a67c1	-0.018848302
162	0xbd81ca79	-0.06337447
163	0x3d1d00de	0.038330905
164	0x3cdf7a2a	0.027279932
165	0xbd042bbc	-0.03226827
166	0x3c6d80c0	0.014496028
167	0xbc203b62	-0.009779783
168	0xbcf5a81c	-0.029987387
169	0xbb97278b	-0.004612868
170	0x3badb460	0.0053010434
171	0xbc36573c	-0.011129197
172	0xbd398da5	-0.0453011
173	0xbd83570c	-0.06413087
174	0xbcace6a5	-0.021106074
175	0xbd5ee249	-0.05441502
176	0xbc9e57e0	-0.019329011
177	0xbca6c554	-0.020357765
178	0xbd33c784	-0.043891445
179	0x3c4b13bf	0.012394845
180	0x3caaa823	0.020832127
181	0xbd59eec2	-0.053206213
182	0xbd61869c	-0.055060014
183	0xbc481a94	-0.012213368
184	0xbd82f24f	-0.06393873
185	0x3d58c1a5	0.05291905
186	0x3ccebc97	0.025236411
187	0x3ca817e8	0.020519212
188	0x3b38cf72	0.002819982
189	0x3d674624	0.056463376
190	0xbd4dc047	-0.050232198
191	0x3cd17fba	0.0255736
192	0x3d1e6cbe	0.038677923
193	0x38a63aa2	7.926418e-05
194	0x3cb5ea83	0.02220655
195	0x3d126bdc	0.035747394
196	0x3cb7f698	0.022456452
197	0xbcd5cd90	-0.026098996
198	0xbce14180	-0.027497053
199	0xbd8ac070	-0.06774986
200	0xbd3cade2	-0.046064265
201	0x3c95df4f	0.018294958
202	0xba28be61	-0.000643706
203	0x3d473975	0.04863878
204	0xbd2c302a	-0.04203812
205	0xbc9fa3fd	-0.019487375
206	0x3d0385c2	0.032109983
207	0xbd02de94	-0.03195055
208	0xbd7627f9	-0.060096715
209	0xbcea83ff	-0.028627394
210	0xbcd91e8c	-0.026503824
211	0xbcbd6cc8	-0.02312316
212	0xba66deec	-0.00088070217
213	0x3d2fa1f9	0.04287908
214	0xbd4150c1	-0.047196154
215	0x3d205c2c	0.039150402
216	0x3d0b0873	0.033943605
217	0x3c70dccf	0.014701082
218	0xbc9d62e8	-0.019212201
219	0xbd1f6e62	-0.03892363
220	0x3c91c190	0.017792493
221	0xbd4af5d7	-0.049550857
222	0x3d100f74	0.035170987
223	0xbbfa2ccc	-0.0076347347
224	0xbce82b20	-0.028340876
225	0xbca2f3cd	-0.019891644
226	0x3d24ffdf	0.04028308
227	0x3d5a4f5d	0.053298343
228	0x3cc90f23	0.02454335
229	0xbcb28a71	-0.02179453
230	0xbcf3f9e8	-0.02978225
231	0x3d0ec484	0.03485538
232	0xbc04aa98	-0.008097313
233	0xbd650677	-0.05591437
234	0xbd82afdb	-0.06381198
235	0xbd927734	-0.071516424
236	0xbce2b514	-0.027674235
237	0xbca4bd44	-0.02010978
238	0x3cadd9dd	0.02122205
239	0x3cf86c7e	0.03032517
240	0xbd724012	-0.059143133
241	0xbcae4604	-0.02127362
242	0x3d52f3c7	0.051502015
243	0x3d1c5bd8	0.038173527
244	0xbbd64560	-0.006539032
245	0xbd8a1012	-0.067413464
246	0xbd73ddb3	-0.0595376
247	0x3d581967	0.0527586
248	0x3d7aa1a7	0.06118932
249	0x3d61f37a	0.055163838
250	0x3d7d0778	0.0617747
251	0xbd4fd500	-0.050740242
252	0xbd280dbc	-0.041028723
253	0xbc4c79f0	-0.012480244
254	0xbd15dcac	-0.036587402
255	0xbb5b9df9	-0.0033510907

FC2.bias f4 [128]
0	0xbc574d08	-0.013140924
1	0xbd3f4f7b	-0.046706658
2	0xbcaabaa8	-0.020840958
3	0xbda4c17f	-0.08044719
4	0xbd38447c	-0.044987187
5	0xbd5e5c58	-0.054287285
6	0xbd8e1977	-0.06938451
7	0x3f107406	0.5642704
8	0xbcd8df93	-0.026473796
9	0xba8650c1	-0.0010247455
10	0xbd491ec6	-0.049101613
11	0xbd6d7cbf	-0.057980295
12	0xbd97998b	-0.07402333
13	0x3e9c2bbe	0.30502123
14	0x3d063be8	0.032771975
15	0xbc8e824c	-0.017396115
16	0xbd636806	-0.055519126
17	0xbd32a10f	-0.04361063
18	0xbd8da5aa	-0.069163635
19	0xbd9da1c7	-0.07696872
20	0xbd03868a	-0.03211073
21	0xbd961a74	-0.07329264
22	0xbe0aca07	-0.1355363
23	0xbca64cb4	-0.020300247
24	0xbc80055f	-0.015627561
25	0x3e6a203d	0.2286386
26	0xbbd2ed39	-0.0064369706
27	0xbcaacb90	-0.02084902
28	0xbd9e9b8a	-0.077445105
29	0x3ee9efcd	0.45690766
30	0xbd0affdb	-0.03393541
31	0xbd7d4543	-0.06183363
32	0xbda9fc5b	-0.08300086
33	0xbd658875	-0.05603834
34	0xbd4c0413	-0.049808573
35	0xbd91f3de	-0.07126592
36	0xbd955545	-0.072916545
37	0xbcee1ce6	-0.029066514
38	0xbd3493aa	-0.044086136
39	0xbdc41965	-0.09575156
40	0xbd607311	-0.054797236
41	0xb9eddfea	-0.00045370992
42	0xbca7acd0	-0.020468146
43	0xbdc39878	-0.095505655
44	0xbd00a21b	-0.031404596
45	0xbc3e0600	-0.01159811
46	0xbd73c51a	-0.059514143
47	0xbcddcb4c	-0.027074479
48	0xbc273ff7	-0.0102081215
49	0x3e5490b7	0.2075833
50	0xbd1ee321	-0.038790826
51	0x3ef8d586	0.48600405
52	0xbca1abce	-0.019735243
53	0xbd122717	-0.03568181
54	0x3ea0e4d8	0.31424594
55	0xbdbad74c	-0.09123096
56	0xbd4c5fc0	-0.049896
57	0xbd856f43	-0.06515362
58	0xbc6259f0	-0.013815388
59	0xbccefe01	-0.025267603
60	0xbbc320aa	-0.0059548216
61	0xbd2f37fa	-0.042777993
62	0xbd030f8a	-0.03199724
63	0x3e00a83d	0.12564178
64	0xbd92f227	-0.07175093
65	0xbd8d4262	-0.06897427
66	0xbce27a55	-0.027646223
67	0xb9ae359e	-0.00033227814
68	0xbd959151	-0.073031075
69	0xbd3d09ca	-0.046151914
70	0xbd6e45ec	-0.05817215
71	0xbd90f258	-0.070774734
72	0xbd5f1777	-0.054465737
73	0xbd979094	-0.07400623
74	0xbdd3d38f	-0.10343086
75	0xbd4acf6a	-0.04951421
76	0x3ee935ee	0.45548958
77	0xbd734171	-0.05938858
78	0xbccfedfb	-0.025382033
79	0xbc608fb6	-0.013706138
80	0xbd148f5f	-0.03626954
81	0xbd65cb96	-0.056102358
82	0xbd6a293e	-0.057168238
83	0xbd408763	-0.047004115
84	0xbd99f635	-0.075176634
85	0xbd13c3e1	-0.036075477
86	0xbd20a24a	-0.03921727
87	0xbd4be76d	-0.04978125
88	0x3eea1ee5	0.45726696
89	0xbd049da5	-0.032376904
90	0xbb6cf36e	-0.0036155838
91	0xbd225231	-0.039629165
92	0xbd39e4d3	-0.04538424
93	0xbae3b24a	-0.001737186
94	0xbd6ac556	-0.0573171
95	0xbc8f6eaa	-0.017508823
96	0xbc8e3460	-0.017358959
97	0xbcd4be5d	-0.025969679
98	0x3ea6b2d4	0.3255831
99	0xbcbbf639	-0.022944557
100	0xbd007753	-0.031363796
101	0xbd385765	-0.04500522
102	0x3e140da4	0.14458328
103	0x3df90616	0.12159364
104	0x3e95e17c	0.29273593
105	0xbcdc407d	-0.02688622
106	0xbd862d11	-0.065515645
107	0xbc95ff4e	-0.018310215
108	0xbd4af967	-0.049554255
109	0xbb93d0b2	-0.0045109624
110	0xbcfd6cb3	-0.03093562
111	0xbc4408d5	-0.011964996
112	0xbda5f1af	-0.08102738
113	0xbc9c3758	-0.019069359
114	0xbd207f65	-0.039183993
115	0xba074515	-0.00051601353
116	0x3e2bcb3f	0.16776751
117	0x3e2dd01b	0.16973917
118	0xbd189e3b	-0.037260275
119	0xbdb87e58	-0.09008473
120	0xb9bed0c3	-0.00036395164
121	0xbcdfeef5	-0.027335623
122	0xbd6d06ef	-0.05786794
123	0xbdb868f5	-0.09004394
124	0xbcb93545	-0.022608409
125	0xbd821108	-0.06350905
126	0xbc70dd38	-0.01470118
127	0xbd01dd70	-0.03170532

FC3.weight f4 [2, 128]
0	0x3c9c2c70	0.019064158
1	0xbda50e96	-0.08059423
2	0xbd532d71	-0.05155701
3	0x3d48f31a	0.049059965
4	0x3c47b4c6	0.012189096
5	0x3cb9cf82	0.022681955
6	0xbd17608c	-0.03695731
7	0x3e46601a	0.19372597
8	0x3d268d2f	0.040661987
9	0xbd3f9c62	-0.046779998
10	0x3d4b0b4a	0.049571313
11	0xbc61c252	-0.01377924
12	0x3c99572c	0.018718325
13	0x3eaef72c	0.34172952
14	0x3f02fc4e	0.51166236
15	0x3df86624	0.12128857
16	0xbd8bafec	-0.06820664
17	0xbd3b981e	-0.045799367
18	0xbc639bad	-0.0138920965
19	0x3ccb9169	0.02484961
20	0xbd33a809	-0.043861423
21	0x3cb3b51a	0.021936942
22	0xbd23cf85	-0.039992828
23	0xbd9d9c50	-0.0769583
24	0x3ba6414f	0.0050737034
25	0xbe845ae1	-0.25850585
26	0x3ca39cea	0.019972283
27	0xbc82ccd4	-0.01596681
28	0x3c8720c3	0.016495114
29	0x3e8e71cd	0.27821198
30	0xbd4d974f	-0.050193127
31	0x3c88f638	0.016718969
32	0xbbbc5bcd	-0.005748248
33	0xbdb1ee78	-0.086880624
34	0x3d505e03	0.050870907
35	0xbd1c668d	-0.038183738
36	0x3d338edc	0.043837413
37	0xbb8944f5	-0.0041891285
38	0xbda28408	-0.07935339
39	0xbb378540	-0.0028003007
40	0x3d8bce71	0.06826485
41	0xbd12ac1b	-0.035808664
42	0xbd26a03e	-0.040680163
43	0xbab700b8	-0.0013962006
44	0xbc1cb2c1	-0.009564103
45	0x3ab2dee3	0.0013646748
46	0x3d1cd419	0.03828821
47	0x3d70cc09	0.058788333
48	0xbd52c0c9	-0.051453386
49	0x3cd8394e	0.026394513
50	0xbd4385cb	-0.047735017
51	0x3ec0b880	0.37640762
52	0xbd004448	-0.031315118
53	0xbd8fd144	-0.07022336
54	0x3e65afb7	0.22430311
55	0x3d58d18c	0.052934214
56	0x3d59f024	0.05320753
57	0xbaca4fab	-0.001543512
58	0xbbda80fa	-0.0066682072
59	0x3d8b563d	0.06803558
60	0xbbcf4d79	-0.006326374
61	0x3d2e4cce	0.042553715
62	0x3d0474ee	0.032338075
63	0x3d4faa03	0.050699245
64	0x3d302faf	0.043014225
65	0xbcf52a5d	-0.029927427
66	0xbd365d7f	-0.04452276
67	0xbb6def93	-0.0036306127
68	0x3aa1fc68	0.0012358548
69	0x3d964223	0.07336833
70	0xbcafbc07	-0.021451963
71	0xbae0752f	-0.0017124767
72	0xbbcb3f2b	-0.0062025986
73	0xbcae22fd	-0.021256918
74	0xbcbd85f6	-0.023135167
75	0x3d064974	0.032784894
76	0x3e9493db	0.29019055
77	0x3aa231c6	0.0012374453
78	0x3b24a1a9	0.002512077
79	0x3c9bcd9f	0.019018946
80	0x3d8e3f63	0.06945684
81	0xbdd19b99	-0.10234756
82	0x3c0b5cac	0.008505981
83	0x3d84668c	0.06464872
84	0xbcaa349f	-0.020777045
85	0xbd488bd0	-0.04896146
86	0xbcd8ac4b	-0.026449343
87	0xbd2a2749	-0.04154137
88	0x3e6455ee	0.22298405
89	0x39e92749	0.00044470493
90	0x3d32ab05	0.04362013
91	0xbc067e78	-0.008208863
92	0x3f6d98df	0.9281139
93	0xbc7b9fc3	-0.015357914
94	0x3aa93ad6	0.0012911211
95	0x3d63d52d	0.055623222
96	0xbaad372f	-0.0013215299
97	0x3c43b315	0.011944552
98	0x3df7a3c7	0.12091785
99	0xbc6c1b0e	-0.014410747
100	0x3d09bc58	0.033626884
101	0xbc99e036	-0.01878367
102	0x3e65dee4	0.22448307
103	0x3e851503	0.25992593
104	0xbdbe8143	-0.093019985
105	0xbc3c9454	-0.011509974
106	0xbc281d9b	-0.010260965
107	0xbc88b6db	-0.016688755
108	0x3d89f25b	0.06735679
109	0x3bdebe12	0.0067975605
110	0x3c66d15c	0.014088001
111	0xbc964256	-0.018342178
112	0xbb96f752	-0.0046071196
113	0xbd045747	-0.032309797
114	0x3ceba11a	0.028763343
115	0x3d2c8df5	0.04212757
116	0x3e9e2eff	0.3089523
117	0xbd31eacd	-0.043436814
118	0xbde6185f	-0.11235117
119	0xbcec5d72	-0.028853152
120	0x3bbc45bf	0.005745619
121	0x3d0db929	0.03460041
122	0x3cca1e2e	0.024672594
123	0xbc236222	-0.009972127
124	0xbcb6e832	-0.022327516
125	0xbd9a5030	-0.07534826
126	0x3c54208f	0.012947216
127	0x3d5c993c	0.053857073
128	0x3cd6a91b	0.026203683
129	0x3d48daf3	0.04903693
130	0x3cabd4de	0.020975526
131	0x3d855f20	0.06512284
132	0xbcc413fd	-0.023935312
133	0xbbae0434	-0.0053105596
134	0x3cb35d95	0.02189521
135	0xbeb46f91	-0.35241368
136	0xbc433ba2	-0.011916073
137	0xbd75a591	-0.05997235
138	0xbcbb6c27	-0.02287872
139	0xbbe9c839	-0.007134464
140	0xbae62420	-0.0017558374
141	0x400d2603	2.205445
142	0xbe09bb2a	-0.13450304
143	0x3c85da3a	0.01633941
144	0xbce6061e	-0.028079089
145	0x3caf0579	0.021364914
146	0x3c90dec8	0.017684355
147	0xbccef607	-0.0252638
148	0xbd6b2737	-0.057410445
149	0xbc48f123	-0.012264523
150	0xbf119ff7	-0.5688471
151	0x3d1a12ac	0.037615463
152	0x3bb2d360	0.005457327
153	0x3f6c02b6	0.92191637
154	0x3ccaa04d	0.02473464
155	0x3d85198c	0.06499013
156	0xbd93a15c	-0.07208511
157	0x3cfcca7a	0.030858267
158	0xbd34a01c	-0.044098005
159	0xbc916f82	-0.017753366
160	0xbd5627fd	-0.05228423
161	0xbb8eac0f	-0.004354007
162	0x3d880e94	0.066434056
163	0x3d528da8	0.051404625
164	0x3d94a2c7	0.0725761
165	0xbcdad8d3	-0.026714718
166	0xbdab237a	-0.08356376
167	0x3d614cd3	0.055004906
168	0x3cdb06bf	0.026736615
169	0x3d90d2d1	0.0707146
170	0x3d870a49	0.065937586
171	0xbda7f69a	-0.082013324
172	0xbd23d8fa	-0.040001847
173	0x3d26d325	0.040728707
174	0x3c30aa15	0.010782738
175	0xbd36d9e9	-0.04464141
176	0xbd90c2de	-0.07068418
177	0x3d54d952	0.051965065
178	0x3d96f884	0.07371619
179	0xbd8dc704	-0.06922725
180	0x3c91cbef	0.017797438
181	0xbc89792e	-0.016781416
182	0xbef8532d	-0.48500958
183	0xbd9784eb	-0.07398399
184	0xbd4f441a	-0.050602056
185	0x3be07f4f	0.006851114
186	0xbd559a5c	-0.05214916
187	0xbd3fab89	-0.046794448
188	0x3bf5d89e	0.0075026294
189	0xbd91e09b	-0.07122918
190	0xbdf38a5d	-0.11891625
191	0xbf9182c1	-1.1368028
192	0x3bdcd598	0.0067393295
193	0xbd6dd942	-0.05806852
194	0x3c8b514b	0.017006537
195	0x3d3b0615	0.045660097
196	0xbd2e57f6	-0.042564355
197	0xbda576b1	-0.08079279
198	0x3cdd0076	0.026977759
199	0xbab116e5	-0.0013510851
200	0xbcf0c74e	-0.02939191
201	0xbd379db2	-0.044828124
202	0xbd3df14d	-0.0463727
203	0x3d7d1026	0.06178298
204	0x3c249232	0.010044621
205	0xbc1eeb0f	-0.009699597
206	0xbd5a862e	-0.05335062
207	0xbb7386d0	-0.0037159212
208	0x3ca9fc3e	0.020750161
209	0x3d13e010	0.036102355
210	0xb954d535	-0.00020297321
211	0x3d6e8beb	0.058238905
212	0xc0051ad8	-2.0797634
213	0xbb0a1902	-0.0021072035
214	0xbc341a46	-0.010992592
215	0x3d32a162	0.043610938
216	0xbd42ed24	-0.047589436
217	0x3cb9c88a	0.022678632
218	0xbe25fbae	-0.1620929
219	0xbd5976d6	-0.053091846
220	0xbdd90819	-0.10597248
221	0xbd49502e	-0.04914873
222	0x3d86295a	0.06550856
223	0xbd6a6eae	-0.05723446
224	0xbd13978b	-0.036033195
225	0xbccfb680	-0.025355577
226	0xbe768663	-0.24074702
227	0xbca0d93c	-0.019634835
228	0x3d802b08	0.062582076
229	0x3cada5b5	0.02119718
230	0x3efb7ef6	0.491203
231	0x3ed8445d	0.42239657
232	0x3f1f0292	0.62113297
233	0xbc189932	-0.009313868
234	0x3d3a72d3	0.04551966
235	0xbd66913f	-0.05629086
236	0x3cc1bf30	0.023650736
237	0x3d89f649	0.06736428
238	0xbd90c610	-0.070690274
239	0xbcffa68a	-0.031207342
240	0xbd0b56e9	-0.03401843
241	0x3ba811b8	0.0051290654
242	0xbf5b4854	-0.8565724
243	0xbd495dd5	-0.04916175
244	0x3f0af4c7	0.5427975
245	0x3f6bc2dd	0.9209421
246	0x3d2f81fa	0.042848565
247	0xbde2e919	-0.11079616
248	0x3c9432d0	0.018090636
249	0xbdee14e0	-0.11625075
250	0xbd94b41d	-0.072609164
251	0xbd9ef6ed	-0.07761941
252	0x3ad35b1f	0.0016125179
253	0xbd02953a	-0.031880595
254	0x3cd19f69	0.025588708
255	0xbdce8013	-0.10083022

FC3.bias f4 [2]
0	0x3ec86098	0.39136195
1	0x3d8d4511	0.06897939

FC1.weight f4 [256, 50]
0	0x3dd8a949	0.105791636
1	0x3dc4e778	0.09614462
2	0xbdfc7df4	-0.12328711
3	0x3d0ce39c	0.034396753
4	0xbdac8ea7	-0.08425646
5	0x3de71a2a	0.11284287
6	0xbd06d0ed	-0.03291409
7	0xbd8de0bd	-0.06927631
8	0x3cb0b397	0.02157001
9	0xbd9f732e	-0.07785641
10	0xbda499ef	-0.08037173
11	0x3d4f51e0	0.05061519
12	0xbd120f0e	-0.03565889
13	0xbe08cd85	-0.1335965
14	0x3df8baab	0.12144979
15	0x3dd90a29	0.10597641
16	0x3dc11a08	0.09428793
17	0xbc2ca7a7	-0.010538018
18	0x3d8fb3ec	0.07016739
19	0xbd9bbc66	-0.076042935
20	0xbe01d9d5	-0.12680753
21	0xbd4a7171	-0.049424592
22	0x3c14b84d	0.009077144
23	0x3cf76093	0.030197417
24	0x3dc04a38	0.09389156
25	0xbe1ba10e	-0.15198156
26	0xbd7f716c	-0.062364027
27	0xbd1305ee	-0.035894327
28	0xbd894ffd	-0.0670471
29	0xbd4a0989	-0.0493255
30	0xbe1a430e	-0.15064642
31	0xbd676b6b	-0.056498926
32	0xbde4ec5b	-0.11177894
33	0x3d2d7906	0.042351745
34	0xbba34d1f	-0.004983559
35	0x3d07d514	0.03316219
36	0x3d2cfb3e	0.04223179
37	0x3d99fd85	0.07519058
38	0x3df83063	0.12118604
39	0x3d387aff	0.045039173
40	0x3d2b073e	0.041754954
41	0xbca12eef	-0.0196757
42	0xbd931a3e	-0.0718274
43	0xbd992db6	-0.07479422
44	0xbdd8ec7a	-0.10591979
45	0xbe13a9fe	-0.14420316
46	0xbae88893	-0.0017740898
47	0x3d4f9b50	0.050685227
48	0x3d61c48a	0.055119075
49	0xbe09b71d	-0.13448758
50	0xbe6f8b1b	-0.23392908
51	0xbea1a807	-0.31573507
52	0xbe928b46	-0.28621882
53	0xbe88aa5d	-0.26692477
54	0xbd46ebe1	-0.048564795
55	0xbe4d4739	-0.200467
56	0xbe1e65a6	-0.15468463
57	0x3d93d29d	0.07217906
58	0x3dc395f8	0.09550089
59	0xbd37e820	-0.044899106
60	0x3d98dbad	0.07463775
61	0x3d6cc682	0.0578065
62	0x3dd3e4f9	0.103464074
63	0x3cc48698	0.02398996
64	0xbc823e9d	-0.015898997
65	0xbdd980ea	-0.106202915
66	0xbd334310	-0.043765128
67	0x3d686e02	0.056745537
68	0x3dc27a60	0.094959974
69	0xbc9305ee	-0.017947163
70	0xbe3549d0	-0.17703938
71	0xbe541c72	-0.20713976
72	0xbd8cf7ed	-0.068832256
73	0xbe2f565f	-0.17122792
74	0x3dd2d9c9	0.102954455
75	0xbe060a7d	-0.13089938
76	0xbdfc07fc	-0.123062104
77	0xbdc7ffa9	-0.0976556
78	0xbc9949d6	-0.018711966
79	0x3da8f976	0.08250706
80	0xbc58bd9a	-0.013228798
81	0x3cf8dab3	0.030377721
82	0x3ba4bddf	0.005027517
83	0x3b89bc95	0.004203389
84	0x3db7cc00	0.08974457
85	0xbd58d1e9	-0.05293456
86	0x3dcd90a8	0.100373566
87	0xbd170c66	-0.03687706
88	0xbdfdcd1c	-0.12392637
89	0x3d18cff5	0.0373077
90	0x3d51de39	0.05123732
91	0x3d27e28e	0.040987544
92	0x3d510441	0.051029447
93	0x3d9957e6	0.074874684
94	0x3e465c21	0.19371082
95	0x3d8a3d7c	0.067500085
96	0x3e4967d0	0.19668508
97	0x3d518141	0.051148657
98	0xbeb48e50	-0.35264826
99	0x3e379d20	0.17931032
100	0x3d756b94	0.059917048
101	0x3c974a78	0.018468127
102	0x3d3efc84	0.046627536
103	0xbdee18cb	-0.11625823
104	0x3dc1457a	0.0943708
105	0x3db114a2	0.086465135
106	0x3ded933e	0.1160035
107	0xbe0632e6	-0.13105354
108	0xbdb73afe	-0.08946799
109	0xbdbb0c76	-0.09133236
110	0xbd31a960	-0.04337442
111	0xbe0ef935	-0.13962252
112	0x3d89e54a	0.067331865
113	0xbdc32ac1	-0.09529639
114	0x3d5fa398	0.054599375
115	0x3e02cec3	0.12774186
116	0xbd3acb5e	-0.045604102
117	0xbd29ee84	-0.04148723
118	0xbcef9564	-0.02924604
119	0xbdb8da40	-0.09026003
120	0xbca3d2c0	-0.019997954
121	0x3d926784	0.0714865
122	0x3d41bbe8	0.047298342
123	0xbcd319e8	-0.025769189
124	0xbd5b540c	-0.05354695
125	0x3c369640	0.011144221
126	0xbcfd8400	-0.030946732
127	0x3c059100	0.0081522465
128	0x3db871c6	0.090060756
129	0xbe06d51b	-0.13167231
130	0xbca0d874	-0.019634463
131	0x3d18f3d0	0.037341893
132	0x3da1321c	0.07870886
133	0xbd85b32b	-0.06528314
134	0xbdf2dad6	-0.11858146
135	0xbd16f8d0	-0.03685838
136	0xbd579a00	-0.0526371
137	0xbda24196	-0.07922666
138	0x3d4aa2dc	0.04947172
139	0x3d90182c	0.070358604
140	0x3d410620	0.047124982
141	0x3b0d3300	0.002154529
142	0x3d15610e	0.03646951
143	0xbe026956	-0.12735495
144	0x3d138aec	0.036021158
145	0x3d987a5c	0.07445213
146	0xbd5bfc2a	-0.05370728
147	0x3ddb0fd6	0.1069638
148	0xbce21c30	-0.027601331
149	0xbb599280	-0.0033198893
150	0xbe09c017	-0.13452183
151	0xbd087e56	-0.03332361
152	0x3dc03410	0.0938493
153	0x3c9b4ee8	0.018958524
154	0xbd81a784	-0.06330779
155	0xbdd861be	-0.10565518
156	0x3cbec8c0	0.023289084
157	0x3de971c6	0.11398654
158	0x3df8d506	0.12150006
159	0xbd0014ca	-0.031269826
160	0xbd471972	-0.04860825
161	0xbd768250	-0.06018287
162	0x3d866366	0.065619275
163	0x3d065ca0	0.032803178
164	0x3e0281ad	0.1274478
165	0x3dc65ea4	0.0968602
166	0x3d4e5568	0.05037442
167	0xbdf7c4aa	-0.120980576
168	0xbdf1e3a0	-0.11810994
169	0xbd26deac	-0.0407397
170	0x3dacb80f	0.08433544
171	0xbb5bdc40	-0.0033548027
172	0x3dec80fb	0.115480386
173	0xbdbb6340	-0.0914979
174	0xbd83c1b4	-0.0643343
175	0xbd6db066	-0.058029555
176	0x3d34c084	0.04412891
177	0xbdb5af52	-0.0887133
178	0xbd5125da	-0.05106149
179	0x3e0028a1	0.12515499
180	0xbe02c593	-0.12770681
181	0xbda39db2	-0.07989062
182	0xbddff972	-0.1093625
183	0x3d23e4dc	0.04001318
184	0xbcd3e150	-0.025864273
185	0xbd1a16c4	-0.037619367
186	0x3ce72030	0.02821359
187	0xbde567df	-0.112014525
188	0x3de39e76	0.111142084
189	0x3dde4cde	0.10854505
190	0x3e065dcf	0.13121723
191	0xbd7febc4	-0.062480703
192	0xbc6b1fb0	-0.014350817
193	0xbde47a76	-0.1115617
194	0xbdb1218f	-0.08648979
195	0xbd00b208	-0.031419784
196	0xbb08e740	-0.002088979
197	0xbdb60b1a	-0.08888836
198	0xbc195800	-0.00935936
199	0x3b5bcc80	0.003353864
200	0xbdd6465a	-0.10462637
201	0xbdefb9fb	-0.11705395
202	0x3dcd57a0	0.10026479
203	0xbd7faccc	-0.06242065
204	0xbdf471cc	-0.119357675
205	0xbd4266d9	-0.047461364
206	0xbdd30012	-0.10302748
207	0xbc838f55	-0.016059557
208	0x3d48d5b8	0.049031943
209	0xbdae8757	-0.08521908
210	0x3d9a863d	0.07545135
211	0x3dd502e9	0.10400946
212	0x3dd0bd29	0.101923294
213	0x3d0613dc	0.032733783
214	0xbda277d7	-0.07933014
215	0xbd2e6047	-0.042572286
216	0x3d40f870	0.04711193
217	0x3d75513b	0.05989192
218	0xbca8a517	-0.020586533
219	0xbda857bf	-0.08219861
220	0xbdcd89a1	-0.10036016
221	0xbe233bef	-0.15940832
222	0x3d9870a5	0.0744336
223	0x3d8a8df4	0.06765357
224	0xbdf13994	-0.1177856
225	0xbd58fe72	-0.052977033
226	0x3cf60293	0.030030524
227	0xbd752194	-0.059846476
228	0x3d1d7f2d	0.038451362
229	0x3df0c39b	0.11756059
230	0xbe1f8a9e	-0.15580222
231	0xbd7f77ac	-0.062369987
232	0x3de79bda	0.11309023
233	0x3db3fcff	0.087884896
234	0xbe212017	-0.15734898
235	0x3ce94be2	0.028478567
236	0x3cdacf49	0.02671017
237	0x3d7b2f93	0.061324667
238	0xbcf01ba4	-0.029310055
239	0x3da8e13e	0.082460865
240	0x3ddd7ec9	0.10815198
241	0xbe17f14e	-0.14838144
242	0xbde77ef3	-0.113035105
243	0xbe07c705	-0.13259514
244	0x3cbb54af	0.022867529
245	0xbd09fe35	-0.033689696
246	0xbd240c87	-0.04005101
247	0xbd6e3f13	-0.05816562
248	0xbe3607a8	-0.17776358
249	0x3d430d40	0.047620058
250	0xbcde3e32	-0.027129266
251	0x3e00ef74	0.12591344
252	0x3cda8c19	0.026678132
253	0xbd0a66e5	-0.033789534
254	0x3d86606c	0.0656136
255	0xbd2b21cf	-0.04178029

FC1.bias f4 [256]
0	0x3c9d78ed	0.019222701
1	0x3e9cd66e	0.30632347
2	0xbd53c562	-0.05170191
3	0xbc87c160	-0.0165717
4	0x3c577d49	0.013152429
5	0x3c29967e	0.010350822
6	0xbdd0ebf6	-0.10201256
7	0x3bef55fa	0.0073039504
8	0xbdf5ed3f	-0.12008142
9	0xbccc8e11	-0.024970086
10	0x3cc64190	0.024201185
11	0xbd037975	-0.032098252
12	0x3dcd25ae	0.100169525
13	0xbe0fe5ed	-0.14052553
14	0xbe0ca83d	-0.13736053
15	0x3dea2062	0.11431958
16	0xbd55bb8e	-0.05218082
17	0xbe07528c	-0.13215083
18	0x3dbdadfe	0.09261702
19	0xbe0b3c69	-0.13597263
20	0x3db4ef2f	0.08834683
21	0xbd53314a	-0.051560678
22	0xbddfe111	-0.109316
23	0xbc278fe0	-0.010227174
24	0x3d9e2595	0.07722012
25	0x3d10e5a8	0.035375267
26	0xbcd5b1ea	-0.026085813
27	0xbdc12a71	-0.09431923
28	0x3ada8d00	0.0016674101
29	0x3ec7c768	0.39019322
30	0xbdcba609	-0.09943778
31	0x3db8d634	0.09025231
32	0xbdf916dc	-0.12162563
33	0x3e030631	0.1279533
34	0x3da983be	0.08277081
35	0x3db6dcef	0.089288585
36	0x3eb3e3ff	0.35134885
37	0xbe0450a8	-0.12921393
38	0x3d250686	0.040289424
39	0x3eb917ae	0.3615088
40	0xbdd9584a	-0.10612543
41	0x3d9fdefd	0.078062035
42	0x3d8d7bf4	0.06908408
43	0xbd929542	-0.07157375
44	0x3c982fcd	0.01857748
45	0xbd66923b	-0.0562918
46	0xbdffd184	-0.12491134
47	0xbcc19544	-0.023630746
48	0x3ddca8b9	0.10774369
49	0x3d9b6b25	0.075887956
50	0x3c2f2750	0.010690525
51	0xbe14350e	-0.14473364
52	0xbdb75478	-0.08951658
53	0xbde6ed0c	-0.11275682
54	0x3d860476	0.065438196
55	0xbe03a378	-0.12855327
56	0xbdd619ff	-0.10454177
57	0x3d80a794	0.06281963
58	0xbe01e158	-0.12683618
59	0xbd394c60	-0.045238853
60	0x3d7c2e43	0.061567556
61	0xbe000353	-0.12501268
62	0x3ce3a2d8	0.02778761
63	0xbd1d8d68	-0.038464934
64	0xbd2e126c	-0.042498037
65	0x3d8f788c	0.07005414
66	0xbda17927	-0.07884436
67	0xbced4ee8	-0.02896829
68	0xbc7d5594	-0.015462298
69	0xbd110c76	-0.035412274
70	0xbd944ace	-0.0724083
71	0x3d10a0a5	0.035309453
72	0xbdde3ae4	-0.10851076
73	0xbd18bc6e	-0.037289076
74	0x3d7be343	0.06149603
75	0x3dca1c48	0.098686755
76	0x3d9913ed	0.07474504
77	0x3de72772	0.112868205
78	0x3df2df73	0.11859026
79	0x3db59277	0.088658266
80	0x3d926e5d	0.071499564
81	0x3b0423c4	0.002016292
82	0xbdf887e4	-0.12135294
83	0x3d92b255	0.071629204
84	0x3d23ea18	0.04001817
85	0x3d1d8ecd	0.038466264
86	0xbd9fb65e	-0.07798456
87	0xbd8f7f45	-0.070066966
88	0xbd5429ac	-0.051797554
89	0xbe1d5d96	-0.15367731
90	0x3cc84148	0.024445191
91	0xbdf88f1e	-0.121366724
92	0xbca61eec	-0.020278417
93	0x3cb54b20	0.022130549
94	0xbda0b5d7	-0.07847183
95	0x3aec5880	0.0018031746
96	0x3ea8e05e	0.3298368
97	0x3eb1522f	0.34633014
98	0x3c6f190a	0.014593372
99	0xbddb14d2	-0.106973305
100	0xbdf0fa13	-0.11766448
101	0x3da6e82c	0.08149752
102	0x3de3f70a	0.11131103
103	0x3c175310	0.009236112
104	0x3dcc0ad0	0.09963
105	0xbdb83912	-0.0899526
106	0xbc2343bf	-0.009964882
107	0xbdafff1f	-0.08593582
108	0xbd8488ee	-0.0647143
109	0xbdfa077c	-0.12208459
110	0x3cfbfa10	0.030758888
111	0xbd0358e8	-0.03206721
112	0xbdd93291	-0.10605348
113	0xbe060e65	-0.13091429
114	0xbd14b9de	-0.03631007
115	0x3d993585	0.07480911
116	0x3c6fb613	0.014630812
117	0x3df800bc	0.12109515
118	0xbdb4a8e0	-0.08821273
119	0xbd79c602	-0.06097985
120	0xbd087d0d	-0.033322383
121	0xbca8931f	-0.020577965
122	0x3a8c7c7c	0.0010718252
123	0x3dd25f21	0.10272051
124	0x3e2db20e	0.16962454
125	0x3d9fd27d	0.07803819
126	0x3e033f99	0.1281723
127	0x3dae90b6	0.08523695
128	0x3ce928ba	0.028461803
129	0xb9f21600	-0.00046174228
130	0xbbd5c572	-0.0065237815
131	0x3d598364	0.05310382
132	0xbcabde58	-0.020980045
133	0xbd5df3fa	-0.054187752
134	0xbcdb221a	-0.02674966
135	0xbdbc35b0	-0.091899276
136	0xbd9cd02e	-0.076568946
137	0xbd72845e	-0.059208266
138	0xbd2c4857	-0.042061176
139	0x3c1ca085	0.009559755
140	0xbdfab99c	-0.122424334
141	0x3e8eb85c	0.2787503
142	0x3d2bc1f6	0.041933022
143	0xbd887795	-0.066634335
144	0x3db8589f	0.09001278
145	0x3d9d6885	0.07685951
146	0x3d91fb85	0.07128052
147	0x3dd12da9	0.10213787
148	0xbcb77548	-0.022394791
149	0xbda90ba2	-0.08254172
150	0x3dfde3c3	0.12396958
151	0xbdfd0b66	-0.1235569
152	0xbe0f29a5	-0.1398073
153	0xbdb36c2a	-0.08760865
154	0x3db0e97f	0.08638286
155	0xbce539b3	-0.027981615
156	0x3d745fd3	0.059661698
157	0x3dd7c9d9	0.10536546
158	0x3ddd2749	0.10798509
159	0x3d3d7b77	0.046260323
160	0x3cd9dde1	0.026595058
161	0x3e294476	0.16530022
162	0x3de69c62	0.112602964
163	0xbd4ac2bc	-0.04950212
164	0x3ddd3eb9	0.10802979
165	0xbd737254	-0.059435204
166	0xbdfe0df4	-0.12405005
167	0x3dee6c62	0.11641766
168	0x3ae0b0c2	0.0017142522
169	0xbd4401c9	-0.047853265
170	0x3e102119	0.14075126
171	0x3db41d07	0.08794599
172	0xbe0fc51d	-0.14040036
173	0xbda779df	-0.08177542
174	0xbcf79424	-0.030222006
175	0x3d1cc605	0.038274784
176	0x3dba7c06	0.09105687
177	0x3c748acb	0.014925669
178	0xbdd49d30	-0.10381544
179	0x3cb50a87	0.022099746
180	0x3d982cad	0.07430396
181	0x3e742603	0.23842625
182	0x3ed41311	0.41420797
183	0x3e69b172	0.22821596
184	0x3d922b2d	0.071371414
185	0xbca4efdf	-0.02013391
186	0x3d150285	0.036379356
187	0xbdb53260	-0.08847499
188	0xbd9155e6	-0.07096462
189	0xbda67cbf	-0.08129262
190	0xbc4d0b11	-0.0125148455
191	0xbdf11b1c	-0.11772749
192	0xbd542564	-0.05179347
193	0xbdbf46d8	-0.09339684
194	0x3d7c4f13	0.06159885
195	0xbda6d9f8	-0.08147043
196	0xbe14d78e	-0.14535353
197	0xbdc37e89	-0.09545619
198	0xbc6dde80	-0.01451838
199	0x3d70cdc3	0.05878998
200	0xbd1fee9e	-0.039045922
201	0xbd6f834b	-0.05847482
202	0x3ebf6d1f	0.3738794
203	0xbd6fc67b	-0.058538895
204	0xbde9c79f	-0.11415028
205	0x3da43206	0.08017354
206	0x3d0c28e4	0.034218684
207	0x3d9f78a5	0.07786683
208	0xbce1e23b	-0.027573695
209	0xbd175da6	-0.036954544
210	0xbde9c326	-0.11414175
211	0xbcf8b014	-0.030357398
212	0x3dadc0e6	0.08484058
213	0x3db124df	0.08649611
214	0x3d5d9959	0.05410132
215	0x3da1fa0e	0.07909022
216	0x3da15c3e	0.07878922
217	0x3d39c4af	0.045353588
218	0x3d4ceef0	0.050032556
219	0xbddc3db2	-0.10753955
220	0xbdbf0bd6	-0.093284294
221	0xbdd8f44a	-0.105934694
222	0xbdfdb8cc	-0.12388763
223	0x3b78e733	0.0037979602
224	0xbe099d39	-0.13438882
225	0xbd422089	-0.04739431
226	0xbdf96f24	-0.121794015
227	0xbdde3982	-0.108508125
228	0xbd33fe90	-0.04394394
229	0x3d4bd8d0	0.049767315
230	0xbd646a8e	-0.05576568
231	0xbdb68602	-0.08912279
232	0xbd7b7718	-0.061392874
233	0xbc7098a4	-0.01468483
234	0x3f091872	0.53552926
235	0x3c80df0c	0.015731357
236	0xbd0901ce	-0.033448987
237	0x3df6de6a	0.12054141
238	0x3b835a34	0.004008556
239	0xbd2168bf	-0.039406534
240	0x3d94c3ba	0.072638944
241	0xbdfebfd8	-0.12438935
242	0xbde044f3	-0.10950651
243	0x3dd86d76	0.10567753
244	0xbc46ca90	-0.012133256
245	0x3d6063ae	0.054782562
246	0xbd9c771e	-0.07639907
247	0x3c95d18d	0.018288398
248	0x3cc0ad70	0.023520201
249	0xbdcfddab	-0.10149702
250	0x3dae1eae	0.085019454
251	0xbe36aa28	-0.17838347
252	0x3d0633e4	0.03276433
253	0x3d4abc00	0.049495697
254	0x3e4b0b58	0.19828546
255	0x3dea884a	0.11451776
