examples/inputs/example_02b/learned_strategies/example_02b_base/avg_reward/actors/actor_pp_10.pt (torch, 748484 bytes, 24 tensors)

FC1.weight f4 [256, 50]
-0.1275556 -0.13815543 -0.129983 -0.10885917 0.0068696737 0.12145884 -0.110075116 -0.10994193
0.080189124 0.008096829 -0.07312268 -0.101758815 0.04999283 0.13905708 -0.002431795 -0.07105706
-0.102794364 -0.065252446 0.114619955 0.13270043 0.12306593 0.0040504187 -0.10513203 0.028135166
0.0025063753 -0.012399584 -0.10687502 -0.13943352 0.10239217 -0.06332073 -0.05889699 -0.12472494
0.012364313 -0.10429749 0.11914678 -0.07084056 -0.002294302 0.051251993 0.021300375 -0.0733948
-0.123854555 -0.054974094 -0.059258893 -0.0792851 -0.04042308 -0.11980193 0.12380372 -0.036354966
0.023122266 0.106102094 0.09486361 0.046809223 -0.1301959 -0.13805532 -0.11897714 -0.11695708
-0.13595223 -0.12243009 -0.0303845 0.020330396 0.05002397 -0.078394935 -0.076120555 -0.046633814
-0.09087017 0.08499172 -0.106734194 -0.15588878 0.09453372 -0.0016521225 0.04705873 0.040201686
0.018913116 -0.08473315 0.08725945 0.09565067 -0.07781663 -0.031548392 0.068701 -0.15022816
0.037719693 -0.046682183 0.057801265 -0.052302834 0.046525557 0.10323843 0.050901417 -0.046706304
-0.07198777 0.033964448 0.039034866 0.11156712 0.06619023 -0.009954227 0.08984062 -0.10491285
0.1041739 -0.025171941 0.08645184 -0.030108785 -0.063893236 -0.0378089 -0.10903158 0.0125922775
0.019291947 -0.07578445 -0.0060117072 -0.1449548 0.074243404 0.0910621 -0.006252221 -0.033766955
0.08361113 -0.09231426 -0.14376622 0.013466128 0.112380125 -0.036700852 -0.10211085 0.0841225
-0.10703562 0.09471231 0.10420865 -0.14040604 -0.120829016 -0.08841409 0.1286897 -0.089472234
0.021416096 0.062710755 0.021821473 -0.08956376 -0.019303901 -0.14946248 0.041972384 0.090355694
0.033367157 0.1169027 -0.03303993 0.017316533 -0.12187157 -0.034918595 -0.093788795 0.0045151934
0.0073025217 -0.1103343 -0.04624022 -0.03380878 0.13055517 -0.14040723 -0.007430073 -0.04331131
0.063373536 0.05759799 -0.0035256995 -0.016474834 -0.019405877 -0.14246303 0.07549018 -0.07713544
-0.06760004 0.015593591 0.032905817 -0.10396296 0.075967535 -0.021658432 -0.14930832 0.06695285
0.046904247 0.07780149 -0.14590983 -0.12758075 -0.057183802 -0.03756855 0.030784983 0.033962913
-0.16900049 0.07837285 0.10038749 0.030722277 0.05077332 -0.13230994 0.041826654 -0.14802538
0.06928693 0.09895358 -0.076957785 0.05017135 -0.009794164 0.018282698 -0.017966326 -0.10913339
-0.070102185 0.04962524 -0.0660007 0.03609176 0.071099065 0.08605773 -0.069764644 0.089750886
-0.49316028 -0.46298978 -0.3607299 -0.085212775 -0.058563072 0.08373213 0.19188638 0.20657894
0.072447136 0.19086552 0.14880022 -0.049651403 -0.062654935 -0.21179554 0.02312941 0.011437258
-0.0031507905 -0.10503858 -0.21520488 -0.15702857 -0.1544148 -0.31858525 -0.30841264 -0.33022553
-0.08242269 0.120055735 -0.098648794 -0.012566478 0.022851259 0.09302004 0.1285103 0.044265985
0.1381438 0.1123623 0.15322688 -0.013883017 0.013531011 0.03472379 0.107531205 0.10627816
-0.050653003 0.1184213 0.09010063 0.13396396 -0.030388445 0.0005289002 -0.06926454 0.07662856
-0.037601646 0.24236803 0.07188869 0.03649993 -0.11822618 0.08762265 0.031067573 -0.048539218
00000000: ef9d 02be 9e78 0dbe 431a 05be 8ef1 debd
00000010: 001b e13b 6abf f83d 106f e1bd 3c29 e1bd
00000020: 323a a43d 90a8 043c 58c1 95bd ed66 d0bd
00000030: 48c5 4c3d fb64 0e3e c05e 1fbb 5d86 91bd
00000040: da85 d2bd 13a3 85bd debd ea3d 9fe2 073e
00000050: fe09 fc3d 60b9 843b 764f d7bd b87b e63c
00000060: 0042 243b a027 4bbc 4ae1 dabd a9c7 0ebe
00000070: fcb2 d13d 4dae 81bd f83d 71bd ca6f ffbd
00000080: b093 4a3c ec99 d5bd 3a03 f43d db14 91bd
00000090: 005c 16bb 9ced 513d 207e ae3c 0350 96bd
000000a0: 75a7 fdbd 842c 61bd 74b9 72bd 3a60 a2bd
000000b0: ac92 25bd b75a f5bd ce8c fd3d f2e8 14bd
000000c0: e86a bd3c 0e4c d93d da47 c23d 07bb 3f3d
000000d0: 1352 05be 605e 0dbe 49aa f3bd 3287 efbd
000000e0: 1037 0bbe a1bc fabd eae8 f8bc ee8b a63c
000000f0: efe5 4c3d 868d a0bd 18e5 9bbd 1903 3fbd
00000100: 241a babd 2410 ae3d 7597 dabd 4fa1 1fbe
00000110: e59a c13d 088c d8ba a8c0 403d 86aa 243d
00000120: aeef 9a3c 9388 adbd 15b5 b23d 80e4 c33d
00000130: 535e 9fbd e338 01bd 1cb3 8c3d 69d5 19be
00000140: f77f 1a3d d135 3fbd 05c1 6c3d 7f3b 56bd
00000150: 9591 3e3d ac6e d33d 017e 503d 1c4f 3fbd
00000160: 536e 93bd 4e1e 0b3d 06e3 1f3d 4d7d e43d
00000170: be8e 873d 0e17 23bc 5cfe b73d 8cdc d6bd
00000180: 2059 d53d 6335 cebc aa0d b13d b3a6 f6bc
00000190: 75da 82bd 81dd 1abd f34b dfbd d74f 4e3c
000001a0: 250a 9e3c e134 9bbd dbfd c4bb 086f 14be
000001b0: ed0c 983d c47e ba3d 6edf ccbb 384f 0abd
000001c0: 503c ab3d 420f bdbd 7437 13be 09a1 5c3c
000001d0: 8d27 e63d a253 16bd 7e1f d1bd 6b48 ac3d
000001e0: 7e35 dbbd 87f8 c13d 586b d53d 9ac6 0fbe
000001f0: 3475 f7bd 7212 b5bd 3cc7 033e 383d b7bd
00000200: cf70 af3c 7f6e 803d f2c2 b23c 346d b7bd
00000210: 3723 9ebc b10c 19be 3ceb 2b3d 680c b93d
00000220: 00ac 083d af6a ef3d e154 07bd 67db 8d3c
00000230: cd97 f9bd cd06 0fbd 5714 c0bd 30f4 933b
00000240: fe49 ef3b f3f6 e1bd 6366 3dbd 137b 0abd
00000250: 41b0 053e eac6 0fbe f877 f3bb 3367 31bd
00000260: fcc9 813d dfeb 6b3d 6c0f 67bb 3bf6 86bc
00000270: 13f9 9ebc d4e1 11be 989a 9a3d 30f9 9dbd
00000280: e471 8abd 437c 7f3c 40c8 063d 88ea d4bd
00000290: de94 9b3d 066d b1bc 48e4 18be 931e 893d
000002a0: ab1e 403d 6356 9f3d 6369 15be 87a4 02be
000002b0: 9039 6abd 7be1 19bd ca30 fc3c b21c 0b3d
000002c0: 770e 2dbe f281 a03d f597 cd3d 49ad fb3c
000002d0: aff7 4f3d 427c 07be 6d52 2b3d f793 17be
000002e0: 4ee6 8d3d 2da8 ca3d 0b9c 9dbd 7980 4d3d
000002f0: b477 20bc 99c5 953c 1e2e 93bc 5481 dfbd
00000300: bc91 8fbd d643 4b3d 602b 87bd f4d4 133d
00000310: 639c 913d 093f b03d c4e0 8ebd 50cf b73d
00000320: 817f fcbe ff0c edbe 97b1 b8be 0984 aebd
00000330: d5df 6fbd c07b ab3d dd7d 443e 6e89 533e
00000340: 2a5f 943d 4072 433e 165f 183e 455f 4bbd
00000350: 3b51 80bd eee0 58be e379 bd3c 5663 3b3c
00000360: 7e7d 4ebb 781e d7bd ab5e 5cbe 19cc 20be
00000370: ea1e 1ebe 9b1d a3be 43e8 9dbe 5213 a9be
00000380: 3acd a8bd c8df f53d 6108 cabd a1e3 4dbc
00000390: 9032 bb3c 4a81 be3d 3498 033e 4050 353d
000003a0: 9175 0d3e 351e e63d 82e7 1c3e 9875 63bc
000003b0: 2cb1 5d3c 883a 0e3d 5239 dc3d 5da8 d93d
000003c0: 8679 4fbd de86 f23d ae86 b83d d92d 093e
000003d0: 30f1 f8bc e4a5 0a3a 91da 8dbd 6fef 9c3d
000003e0: 2f04 1abd 532f 783e 613a 933d f380 153d
000003f0: 9120 f2bd 8173 b33d 6c81 fe3c 0fd1 46bd

FC1.bias f4 [256]
-0.039810687 0.03386873 0.10941653 -0.12425825 0.18961145 0.05069348 -0.005738735 0.24711555
-0.08962934 -0.11643627 -0.032834843 -0.10288816 0.07033989 0.11132072 -0.018144958 -0.1279723
-0.005938835 0.06630045 -0.061910424 -0.060973115 0.0047819912 0.14311127 0.08447108 0.1222473
0.10076215 -0.16256751 -0.008240491 0.041395392 -0.06813583 -0.16006598 -0.13528076 0.3585654
0.0692847 -0.07716674 -0.13183314 -0.059831653 -0.059691228 -0.044848904 -0.1079105 0.047010764
0.026147708 0.11906031 0.06538975 0.047713816 0.13759626 -0.11495705 -0.06685264 -0.13890241
0.09551023 -0.034855183 -0.0836163 0.081190124 -0.111341566 -0.08619643 -0.082377955 0.09812064
0.1039789 0.12326688 0.00627982 0.08082388 -0.09865163 0.044628426 -0.008615179 0.06997828
0.037536025 -0.037066706 0.020288767 0.04701202 -0.08754322 0.12315558 -0.104172915 -0.06029699
-0.090969004 -0.09835759 -0.10444681 0.06189765 -0.08859973 0.034809433 -0.05649277 0.11434199
0.0689097 -0.022323415 -0.086310625 -0.0052357484 -0.014959627 -0.12318067 0.04223062 -0.111851774
-0.089607164 -0.039060637 -0.121147156 0.12092455 0.10824938 0.08453739 0.09506275 0.023349032
-0.13136245 -0.13393421 0.106919795 -0.127565 -0.13815865 -0.017827472 -0.106820986 -0.08367365
-0.009805632 -0.16112985 0.09201376 0.036009606 -0.106423125 0.3170908 0.0702999 0.01031946
0.1022065 0.06865299 -0.09743231 -0.030606883 0.12210954 -0.07301072 0.050850105 0.10030685
0.06154656 -0.017989056 0.02025283 -0.096839204 -0.10233519 0.122446 -0.011477341 -0.11920377
-0.03470875 -0.0038316227 -0.064218335 -0.102143206 -0.12590647 0.04430773 0.02294113 0.093121186
-0.13442935 -0.028957156 -0.053609565 0.087631576 -0.060822804 -0.03808286 -0.04001978 -0.08558941
-0.13674128 0.0794661 -0.06397654 0.3180821 0.038250297 0.11455785 0.0585718 -0.05188148
0.10260235 -0.0038668597 -0.0026719868 0.08102551 -0.09213288 0.09964928 -0.12229818 -0.10953248
-0.017975852 0.02133605 -0.07291334 0.058780104 0.03175652 0.11680588 -0.11809728 0.03774474
-0.025443971 -0.34306282 -0.16699034 -0.002525764 -0.020049356 -0.142498 0.04033329 -0.14503963
-0.02224683 0.079406574 -0.0750191 -0.074532084 0.034368828 0.0695943 -0.020796718 0.018902846
-0.0511973 0.059533797 0.13153563 -0.068141356 -0.15680546 0.019568264 -0.1112137 0.027584016
0.004189983 0.12525763 0.03231035 0.034371614 0.0573387 -0.12023213 -0.110487826 0.068631075
0.10188487 0.043036524 0.038001288 0.043489035 -0.07815855 -0.054040857 0.042987674 0.124385074
-0.0102825165 0.10315498 0.107922405 0.014650861 0.06342969 0.09644576 -0.10917476 -0.036343936
-0.1379285 0.1148213 0.051099923 -0.14542519 -0.048114777 0.006363556 -0.0922228 0.023665886
-0.03275886 0.012181614 -0.029784758 0.16253553 -0.03618262 -0.06333877 -0.08942413 -0.038285248
-0.0434341 -0.09881437 -0.10255291 0.05865087 -0.13886042 -0.13657747 -0.0063081384 0.05842954
-0.015644073 -0.10779409 0.16144839 0.014271468 -0.06985018 0.09558211 0.11685754 -0.14828736
-0.014451005 -0.009751105 -0.032675475 -0.061372735 0.34090126 -0.04602556 0.07242179 0.12466885
00000000: 8810 23bd f0b9 0a3d c615 e03d 1c7b febd
00000010: 8129 423e f7a3 4f3d 000c bcbb dc0b 7d3e
00000020: 968f b7bd 2476 eebd d47d 06bd 07b7 d2bd
00000030: 5c0e 903d 1efc e33d bca4 94bc 2c0b 03be
00000040: 8f9a c2bb 88c8 873d c995 7dbd f2be 79bd
00000050: 40b2 9c3b c38b 123e 2cff ac3d cb5c fa3d
00000060: 635c ce3d 1978 26be 2003 07bc 378e 293d
00000070: cc8a 8bbd 56e8 23be 0a87 0abe e295 b73e
00000080: 23e5 8d3d 9909 9ebd 44ff 06be 0912 75bd
00000090: ca7e 74bd 7cb3 37bd 2e00 ddbd 5c8e 403d
000000a0: b833 d63c e4d5 f33d 10eb 853d 906f 433d
000000b0: 09e6 0c3e 9a6e ebbd 09ea 88bd 6f3c 0ebe
000000c0: de9a c33d 4fc4 0ebd 063f abbd 0247 a63d
000000d0: 0c07 e4bd c187 b0bd c6b5 a8bd 79f3 c83d
000000e0: e4f2 d43d 5973 fc3d f3c6 cd3b fe86 a53d
000000f0: de09 cabd 4ccc 363d ae26 0dbc c650 8f3d
00000100: 60bf 193d 42d3 17bd a134 a63c ad8f 403d
00000110: dc49 b3bd fe38 fc3d 9c58 d5bd faf9 76bd
00000120: f54d babd b46f c9bd 36e8 d5bd 6488 7d3d
00000130: c673 b5bd 5694 0e3d f664 67bd 222c ea3d
00000140: 8720 8d3d 98df b6bc a0c3 b0bd a490 abbb
00000150: 3919 75bc 2646 fcbd 04fa 2c3d 8b12 e5bd
00000160: f683 b7bd 0cfe 1fbd 001c f8bd 4aa7 f73d
00000170: dab1 dd3d f021 ad3d 42b0 c23d 7846 bf3c
00000180: e183 06be 0d26 09be c4f8 da3d 66a0 02be
00000190: 7679 0dbe eb0a 92bc f6c4 dabd 175d abbd
000001a0: cda7 20bc 39ff 24be b671 bc3d cf7e 133d
000001b0: 5ef4 d9bd ba59 a23e 65f9 8f3d f412 293c
000001c0: a451 d13d f099 8c3d 978a c7bd 49bb fabc
000001d0: 9114 fa3d a586 95bd 3348 503d ae6d cd3d
000001e0: 3f18 7c3d c95d 93bc 43e9 a53c a253 c6bd
000001f0: 1d95 d1bd f8c4 fa3d 750b 3cbc 1b21 f4bd
00000200: c32a 0ebd f61b 7bbb e784 83bd 7530 d1bd
00000210: a0ed 00be 067c 353d 09ef bb3c 52b6 be3d
00000220: d9a7 09be 8f37 edbc b495 5bbd 2f78 b33d
00000230: 5521 79bd c6fc 1bbd c8eb 23bd 8049 afbd
00000240: e805 0cbe 1fbf a23d 2206 83bd a8db a23e
00000250: 58ac 1c3d 4e9d ea3d fce8 6f3d ad81 54bd
00000260: 2e21 d23d 246b 7dbb 801c 2fbb b4f0 a53d
00000270: 2ab0 bcbd ec14 cc3d 7877 fabd 9152 e0bd
00000280: 1842 93bc f1c8 ae3c 9753 95bd 68c3 703d
00000290: 2013 023d ec37 ef3d fddc f1bd 3a9a 1a3d
000002a0: e06f d0bc eea5 afbe 84ff 2abe 4a87 25bb
000002b0: 8c3e a4bc ffea 11be 8534 253d 4585 14be
000002c0: fc3e b6bc ea9f a23d 9da3 99bd 47a4 98bd
000002d0: 54c6 0c3d 7587 8e3d e15d aabc 24da 9a3c
000002e0: 43b4 51bd b6d9 733d 47b1 063e b28d 8bbd
000002f0: 9c91 20be a04d a03c 02c4 e3bd e0f7 e13c
00000300: 204c 893b 8943 003e dc57 043d 40c9 0c3d
00000310: fcdb 6a3d 433c f6bd 7147 e2bd 738e 8c3d
00000320: 04a9 d03d 1147 303d 3da7 1b3d 8f21 323d
00000330: 9711 a0bd f259 5dbd d813 303d 9abd fe3d
00000340: 0078 28bc eb42 d33d 6c06 dd3d 2a0a 703c
00000350: 6de7 813d 5b85 c53d 0497 dfbd 61dd 14bd
00000360: 213d 0dbe 6e27 eb3d 274e 513d 57ea 14be
00000370: 0014 45bd 6085 d03b 4fdf bcbd f6de c13c
00000380: 282e 06bd 6495 473c 2aff f3bc b76f 263e
00000390: 3a34 14bd c2b7 81bd 0024 b7bd fed0 1cbd
000003a0: f4e7 31bd 305f cabd 4307 d2bd e53b 703d
000003b0: 6d31 0ebe f7da 0bbe 80b4 cebb d053 6f3d
000003c0: 0028 80bc 26c3 dcbd ba52 253e e0d2 693c
000003d0: 9c0d 8fbd 8ec0 c33d 0253 ef3d a4d8 17be
000003e0: e8c3 6cbc 19c3 1fbc b8d6 05bd fa61 7bbd
000003f0: 9c8a ae3e 4c85 3cbd e051 943d 6252 ff3d

FC2.weight f4 [128, 256]
-0.013505347 -0.015560341 0.0032770373 -0.03882904 0.017336553 0.073809355 0.0033474192 -0.08511209
0.05114556 -0.053113237 0.0032351017 0.061168678 0.061759662 -0.04155094 0.047086194 0.010461494
0.071177885 0.02671375 0.020524083 -0.045377318 -0.05848787 -0.008852155 -0.004735416 -0.028063623
0.0067805173 0.04970236 0.00066259503 0.009348957 -0.02952554 -0.027769657 0.032500736 -0.026091203
0.066549204 0.0047738072 0.0055639893 -0.021975119 0.0011020075 -0.031934112 0.04998807 -0.035675492
0.002575136 -0.042165253 0.04068637 -0.015982576 -0.051170915 -0.043814115 -0.0211622 0.02305974
0.034465365 0.025191529 0.02215989 -0.022933217 0.02114174 0.034513317 -0.0045291036 0.031592228
0.040643692 0.071347535 -0.02204983 -0.05889857 -0.04595667 0.05107718 0.0066593806 -0.010383904
0.026454873 -0.009393215 -0.05417458 0.033224236 0.07067662 -0.009270705 -0.013870861 0.013399646
-0.016757213 -0.02061845 0.04349925 -0.030444661 0.042734258 -0.04208447 0.018589439 -0.033886746
-0.02696897 0.05327996 -0.0027566925 -0.03385624 -0.05658744 -0.020731052 0.01812575 0.019650236
0.039667074 0.0018521035 0.035832502 -0.045951795 -0.03128606 0.048524626 -0.0013349801 0.021610396
-0.012127557 -0.04918947 0.045342542 0.023056824 -0.0343477 0.056531053 0.034109734 0.0381058
0.03662985 -0.051988658 0.032437168 0.02566621 0.0015498474 -0.009101675 0.06301587 -0.06698811
-0.062252223 0.0632744 0.03670949 0.02027838 -0.0023725363 0.020490069 0.039893042 0.057382777
0.031402644 -0.002391015 -0.05585708 0.017515838 0.046554934 0.013710883 0.03346062 -0.040980577
-0.009932316 0.05053379 0.04754731 -0.03281742 0.055476762 -0.060849804 -0.013153377 0.04848096
0.017688151 0.027418781 0.042450987 -0.068910316 0.025237944 -0.06980265 0.007801026 0.05387079
-0.03626419 0.006883616 0.06461785 -0.052122816 0.030258356 0.04063478 0.058555312 -0.06755865
-0.030315138 0.07598749 0.007324472 0.032930695 0.025839478 0.049150363 -0.033855878 0.01314154
-0.013746195 -0.03020485 -0.03094741 0.033866085 -0.018420175 0.080366135 -0.033238683 0.043461062
-0.00021948665 -0.017603805 -0.004072198 0.020970864 0.012244843 -0.05431174 -0.030800087 -0.012092255
0.009433232 -0.00030752702 0.036525723 -0.017263822 0.038111646 0.0285933 -0.053042006 -0.0029315671
0.03653712 0.042599097 0.014107466 0.019204332 0.01478792 -0.061876353 0.062370285 0.045088373
0.009928003 -0.0020950884 0.025173515 -0.032145195 0.021320485 0.015746016 0.048270017 -0.058970235
0.0094000865 -0.015245349 -0.06551582 -0.045506783 -0.024268866 0.041320913 0.03563312 -0.05945594
0.023874864 -0.06101864 -0.034872185 0.023228882 -0.019532595 -0.041615915 -0.05154949 0.0583923
-0.05305517 0.054353252 -0.042827833 -7.636896e-05 0.00899601 0.016941682 0.028548643 0.050631795
0.04751108 0.03191967 -5.3169268e-05 -0.07020471 -0.023201928 -0.05371578 -0.019201623 -0.03628703
-0.035767972 -0.03708574 -0.004146427 -0.066185735 0.051515885 -0.043092757 -0.036195435 0.03219579
-0.042115524 -0.0038189143 0.01608403 0.011436401 0.04498703 -0.06966466 -0.02285476 -0.015568184
0.04487797 0.03382394 0.02052737 0.019437583 0.010451816 0.038525034 -0.0276227 0.021135002
00000000: 8845 5dbc cdf0 7ebc 90c3 563b 330b 1fbd
00000010: 6305 8e3c 5c29 973d 6060 5b3b 3f4f aebd
00000020: 027e 513d 448d 59bd 0004 543b 028c 7a3d
00000030: b3f7 7c3d 5231 2abd 74dd 403d b066 2b3c
00000040: b6c5 913d cbd6 da3c 1f22 a83c 91dd 39bd
00000050: fa90 6fbd a108 11bc 8c2b 9bbb afe5 e5bc
00000060: 1a2f de3b b494 4b3d 00b2 2d3a 5e2c 193c
00000070: 8cdf f1bc 317d e3bc 7e1f 053d 38bd d5bc
00000080: f34a 883d 996d 9c3b 2052 b63b 2a05 b4bc
00000090: 3c71 903a 58cd 02bd 4ac0 4c3d 7720 12bd
000000a0: 9dc3 283b 79b5 2cbd c0a6 263d e4ed 82bc
000000b0: 9898 51bd 6e76 33bd 5a5c adbc c8e7 bc3c
000000c0: 8e2b 0d3d 775e ce3c a888 b53c 71de bbbc
000000d0: 7131 ad3c d65d 0d3d e068 94bb da66 013d
000000e0: 007a 263d a81e 923d d8a1 b4bc a03f 71bd
000000f0: 103d 3cbd 4e36 513d ef36 da3b 4021 2abc
00000100: e4b7 d83c 00e6 19bc 2ae6 5dbd 2316 083d
00000110: e7be 903d 28e4 17bc 9c42 63bc 308a 5b3c
00000120: 6c46 89bc 06e8 a8bc 452c 323d 1567 f9bc
00000130: 1e0a 2f3d c460 2cbd e148 983c d4cc 0abd
00000140: 08ee dcbc 163c 5a3d a0a9 34bb d7ac 0abd
00000150: 3bc8 67bd 2bd4 a9bc 747c 943c 88f9 a03c
00000160: f179 223d 48c2 f23a 1ac5 123d f337 3cbd
00000170: d025 00bd c2c1 463d 80fa aeba 4908 b13c
00000180: a9b2 46bc e67a 49bd 1ab9 393d aae1 bc3c
00000190: 2db0 0cbd 1b8d 673d a6b6 0b3d d414 1c3d
000001a0: 2e09 163d 0ff2 54bd d6dc 043d f241 d23c
000001b0: 4024 cb3a 311f 15bc 770e 813d 1031 89bd
000001c0: 30fc 7ebd 0296 813d b15c 163d d81e a63c
000001d0: 8e7c 1bbb cada a73c e366 233d 340a 6b3d
000001e0: 0fa0 003d 93b2 1cbb 65ca 64bd 607d 8f3c
000001f0: 63b0 3e3d 9da3 603c 010e 093d 40db 27bd
00000200: 27bb 22bc 85fc 4e3d f8c0 423d 8f6b 06bd
00000210: 9a3b 633d a53d 79bd 4381 57bc f993 463d
00000220: bee6 903c 5a9d e03c 16e1 2d3d da20 8dbd
00000230: cebf ce3c b1f4 8ebd c09f ff3b 9ea7 5c3d
00000240: c289 14bd f58f e13b 5d56 843d bc7e 55bd
00000250: 5fe0 f73c a870 263d b2d7 6f3d 315c 8abd
00000260: 7457 f8bc 549f 9b3d 2002 f03b 56e2 063d
00000270: 50ad d33c e451 493d 76ac 0abd 9d4f 573c
00000280: b837 61bc 2970 f7bc 6c85 fdbc 2ab7 0a3d
00000290: e8e5 96bc 0097 a43d 4925 08bd 3a04 323d
000002a0: 0026 66b9 db35 90bc 1370 85bb 17cb ab3c
000002b0: 989e 483c fd75 5ebd 7750 fcbc 981e 46bc
000002c0: d88d 1a3c 943b a1b9 ff9b 153d dc6c 8dbc
000002d0: f51a 1c3d 7f3c ea3c 9342 59bd 891f 40bb
000002e0: f2a7 153d 647c 2e3d 0023 673c 6752 9d3c
000002f0: 0849 723c 0f72 7dbd fc77 7f3d 96ae 383d
00000300: 10a9 223c c04d 09bb b038 ce3c aeaa 03bd
00000310: 4ca8 ae3c cafd 803c c8b6 453d c68a 71bd
00000320: d202 1a3c a1c7 79bc 292d 86bd 5265 3abd
00000330: 80cf c6bc 1e40 293d 09f4 113d 1288 73bd
00000340: 3895 c33c aeee 79bd 23d6 0ebd 7f4a be3c
00000350: d202 a0bc 7375 2abd 8f25 53bd c42c 6f3d
00000360: 6150 59bd 84a1 5e3d 3d6c 2fbd 4628 a0b8
00000370: 0064 133c 48c9 8a3c d8de e93c 4963 4f3d
00000380: fa9a 423d 33be 023d 1102 5fb8 7dc7 8fbd
00000390: f811 bebc 1405 5cbd b94c 9dbc b5a1 14bd
000003a0: 7081 12bd 38e7 17bd c0de 87bb 638c 87bd
000003b0: 5202 533d 0882 30bd aa41 14bd bcdf 033d
000003c0: 5481 2cbd c046 7abb a8c2 833c be5f 3b3c
000003d0: 5244 383d 58ac 8ebd e839 bbbc b211 7fbc
000003e0: f6d1 373d f98a 0a3d 0429 a83c 913b 9f3c
000003f0: 183e 2b3c 6dcc 1d3d 0049 e2bc 5023 ad3c

FC2.bias f4 [128]
-0.008340626 0.24119988 -0.08752659 0.21650507 -0.0046705236 -0.1107614 -0.21348448 -0.066113316
-0.08702327 -0.06385276 -0.070972025 -0.06361197 0.2738683 -0.01419045 -0.029825568 -0.00827706
-0.024878925 -0.045030892 -0.028401278 -0.051735908 0.16469562 0.27155346 -0.055790704 0.22765324
-0.028683566 -0.046390437 0.1199243 -0.062200643 -0.063538395 -0.035371747 -0.009223364 -0.068282485
-0.04831891 0.17418522 -0.053024247 0.21718127 -0.010479608 -0.04322685 -0.05949104 -0.048021168
-0.040488265 -0.0059826886 -0.07328174 -0.04148079 -0.012250334 -0.05503088 -0.1299249 -0.032560773
-0.053629376 0.22185865 -0.028426569 -0.017061912 -0.029298548 -0.012531039 -0.021396115 0.22437882
-0.09087251 -0.009984436 -0.0424748 -0.06976014 -0.04389095 0.27126873 -0.023152735 -0.07525565
0.22411259 -0.060425077 -0.03755036 -0.0022736257 -0.04662746 -0.08162136 -0.027899025 -0.018541992
-0.054916836 -0.008703899 -0.018883126 -0.020219564 -0.03240448 -0.032435127 -0.020727063 -0.009066935
-0.071551636 -0.054015726 0.25854203 -0.014179046 -0.068495184 -0.0009467333 0.1679266 -0.004934432
-0.07044437 -0.0155703025 -0.021547338 -0.07351893 -0.032956697 0.19341055 -0.023202013 -0.041547894
-0.05470928 -0.07920362 -0.01141478 -0.0819329 -0.04548487 -0.043653417 -0.034016177 -0.039280087
-0.22472605 -0.023641318 -0.06882986 -0.064836234 -0.049358416 -0.08368709 -0.09350479 -0.07802325
-0.02677665 -0.06940151 -0.09490254 0.2125503 -0.041026372 -0.022262286 -0.012394057 0.24272802
-0.030146115 -0.23389412 -0.096111685 -0.017751075 -0.066908024 -0.09748903 -0.06032253 0.26629704
00000000: 1fa7 08bc 1afd 763e 2441 b3bd 81b3 5d3e
00000010: 310b 99bb dfd6 e2bd ad9b 5abe 6b66 87bd
00000020: 4239 b2bd 3cc5 82bd c859 91bd fe46 82bd
00000030: 7738 8c3e 107f 68bc c054 f4bc 829c 07bc
00000040: e3ce cbbc 5072 38bd cca9 e8bc 08e9 53bd
00000050: f8a5 283e 0e09 8b3e cb84 64bd ee1d 693e
00000060: ccf9 eabc e603 3ebd df9a f53d 1ac6 7ebd
00000070: 6b20 82bd f7e1 10bd 981d 17bc b0d7 8bbd
00000080: 0dea 45bd 9c5d 323e f42f 59bd c464 5e3e
00000090: a9b2 2bbc a30e 31bd e0ac 73bd d8b1 44bd
000000a0: 06d7 25bd 6e0a c4bb bd14 96bd c3e7 29bd
000000b0: a0b5 48bc 0f68 61bd 080b 05be 725e 05bd
000000c0: 7aaa 5bbd ea2e 633e d6de e8bc 6cc5 8bbc
000000d0: 8203 f0bc fd4e 4dbc e846 afbc 90c3 653e
000000e0: 5e1b babd c395 23bc 0efa 2dbd 67de 8ebd
000000f0: ffc6 33bd bce3 8a3e ceaa bdbc a21f 9abd
00000100: c57d 653e 4980 77bd 68ce 19bd 1c01 15bb
00000110: 6ffc 3ebd 1929 a7bd 7f8c e4bc 60e5 97bc
00000120: 7af0 60bd cc9a 0ebc c9b0 9abc 80a3 a5bc
00000130: 8fba 04bd b2da 04bd cdcb a9bc 7b8d 14bc
00000140: aa89 92bd 983f 5dbd 9f5f 843e 3b4f 68bc
00000150: 3447 8cbd 322e 78ba f3f4 2b3e 04b1 a1bb
00000160: 2345 90bd 951a 7fbc 0b84 b0bc 1891 96bd
00000170: 9afd 06bd 6a0d 463e 2612 bebc 202e 2abd
00000180: d716 60bd 8235 a2bd 0f05 3bbc 70cc a7bd
00000190: 584e 3abd edcd 32bd 8c54 0bbd 28e4 20bd
000001a0: 961e 66be 70ab c1bc abf6 8cbd dcc8 84bd
000001b0: 0d2c 4abd 2364 abbd 707f bfbd a7ca 9fbd
000001c0: b55a dbbc 6122 8ebd 435c c2bd c9a6 593e
000001d0: 450b 28bd 665f b6bc 7110 4bbc b28d 783e
000001e0: fcf4 f6bc f181 6fbe 34d6 c4bd b46a 91bc
000001f0: 1307 89bd 54a8 c7bd c214 77bd 1658 883e

FC3.weight f4 [2, 128]
0.044688705 0.15813008 0.05388105 0.19831844 -0.4367596 -0.011594822 0.8926825 0.01125717
0.0043644067 0.03636021 0.002954212 0.03577091 0.29845917 -1.1501433 0.0010491163 -1.1914966
0.004941727 0.0070503107 -0.021170514 0.001941286 0.1327684 0.13873833 0.0036365539 0.36237922
-0.046594877 -0.8413435 -0.0030827003 -0.050164215 0.01075634 -0.07857521 -0.02550051 0.05415861
0.0013536015 0.12541005 0.006120105 0.2627074 0.3193603 0.048682302 0.04354975 0.0096797105
-0.05645322 -0.06323176 0.058327742 0.064937264 0.017012602 -0.016377332 0.7450797 -0.05849928
-1.0442334 0.32040817 -0.026328253 -0.048305005 -0.0060111205 -1.4359124 0.04807798 0.29073945
-0.08080288 0.0117137 -0.022890322 0.05052482 -0.071149684 0.25555816 -0.0024624702 0.03355375
0.40245643 -0.023576157 0.01362413 -0.39297655 -1.0901892 0.024861578 -0.060262274 -0.033630747
-0.05380984 -0.040722948 0.001383764 -0.0703744 -0.07027673 -0.0761706 -0.033672508 -0.61139643
-0.020266397 0.1042946 0.24989447 -0.034738056 -0.04641718 0.16753511 0.13139738 -0.2880835
0.040849585 -0.03894891 -0.35367927 0.02974519 0.0059852805 0.15132059 0.040913604 -0.041420333
-0.056293085 0.0047746142 0.010255938 0.07778409 -0.48638114 -0.093932696 0.013742712 0.31573904
0.116553724 -9.709156e-05 0.022034898 -0.0036504008 0.08656696 0.04121362 0.051359914 -0.5452118
0.035907194 0.038148716 -0.009717894 0.19889079 -0.037320003 0.06972737 0.0064523653 0.15846261
0.06818425 -1.0046334 -0.03169974 0.047730234 0.011668713 0.05147308 0.022792013 0.24330902
-0.09359239 0.32573935 0.054630667 0.24360459 -0.5535966 -0.014853234 0.8119234 -0.06992928
0.0035238024 0.033043187 -0.033158932 -0.00056184153 0.1985824 0.42729837 0.045954622 0.6346062
-0.023746897 -0.017978113 0.07931379 -0.009990372 0.19063301 0.38262808 0.05515885 0.10081651
0.051983558 0.93478656 0.24075305 0.023679787 0.0113679385 -0.0027064462 -0.004665498 -0.04776763
-0.042808842 0.25399664 0.026978055 0.15091467 -0.2818339 -0.10165002 -0.03646109 -0.062439997
0.09356324 0.14104135 0.04704791 -0.0807233 -0.12690836 0.04720506 -0.65554637 -0.05619482
0.7607466 0.122262284 0.078528695 0.043703333 0.10247899 0.3298093 0.0013146251 0.19138265
-0.030784572 0.027623411 -0.07562195 -0.061672755 0.039418597 0.32833624 -0.036608234 -0.044528067
0.035116926 -0.06704752 -0.1283624 -0.42844027 0.7338579 -0.09885086 0.052096058 0.0038972904
0.05500253 -0.0063479994 -0.017184151 -0.016099941 -0.06960171 -0.023452519 -0.030836636 -0.63086426
-0.36778843 1.8178027 0.2995179 -0.05042451 0.008213563 -0.14738129 0.24935557 -0.47279188
-0.026750801 -0.016555933 -0.22214462 -0.021487862 0.0034597123 0.29305112 -0.0063421032 -0.03675274
0.0944619 -0.048636504 0.03600779 0.09730168 -0.29911116 0.009365994 -0.022261223 -0.11503356
-0.45764616 -0.0042943335 -0.032841697 -0.033944547 0.06512503 0.04892825 0.030868163 0.41423365
-0.09557441 -0.076592505 0.037361696 0.22737673 -0.038301278 -0.001240252 0.04517852 0.3053726
0.060393177 0.49588606 0.047299117 0.059405077 0.043980688 0.024109857 0.035783216 0.2924315
00000000: 810b 373d daec 213e 60b2 5c3d fd13 4b3e
00000010: f49e dfbe 35f8 3dbc d786 643f fe6f 383c
00000020: 4c03 8f3b 72ee 143d 749b 413b 8584 123d
00000030: a4cf 983e e537 93bf 8082 893a f682 98bf
00000040: 36ee a13b 4b06 e73b c96d adbc c072 fe3a
00000050: 70f4 073e 6c11 0e3e 4053 6e3b c589 b93e
00000060: 45da 3ebd 4a62 57bf 2107 4abb fe78 4dbd
00000070: 5c3b 303c 0aec a0bd 72e6 d0bc 6bd5 5d3d
00000080: 546b b13a 7e6b 003e 298b c83b 9681 863e
00000090: 3183 a33e 1867 473d 3961 323d a697 1e3c
000000a0: 7e3b 67bd a77f 81bd 12e9 6e3d d4fd 843d
000000b0: 035e 8b3c c129 86bc 8bbd 3e3f f19c 6fbd
000000c0: 71a9 85bf 8a0c a43e 59ae d7bc 78db 45bd
000000d0: eff8 c4bb facb b7bf 6aed 443d cddb 943e
000000e0: fb7b a5bd d2ea 3f3c 7c84 bbbc 1df3 4e3d
000000f0: edb6 91bd 85d8 823e 6561 21bb a86f 093d
00000100: c50e ce3e c922 c1bc be37 5f3c 3934 c9be
00000110: 528b 8bbf 82aa cb3c 93d5 76bd 65c0 09bd
00000120: b567 5cbd 1bcd 26bd 6a5f b53a 7420 90bd
00000130: 3fed 8fbd 55ff 9bbd 2fec 09bd 7a84 1cbf
00000140: b705 a6bc 6898 d53d 56e4 7f3e 7e49 0ebd
00000150: f11f 3ebd 538e 2b3e 098d 063e ae7f 93be
00000160: e551 273d e488 1fbd 7315 b5be 2fac f33c
00000170: 2c20 c43b c9f3 1a3e 0695 273d 5ea8 29bd
00000180: 9493 66bd 5e74 9c3b 8608 283c 444d 9f3d
00000190: f306 f9be c95f c0bd 1d29 613c 8ca8 a13e
000001a0: b8b3 ee3d a29d cbb8 8882 b43c 903b 6fbb
000001b0: 054a b13d 9dcf 283d c65e 523d 0093 0bbf
000001c0: 6c13 133d d441 1c3d cd37 1fbc 07aa 4b3e
000001d0: dcdc 18bd 39cd 8e3d 5d6e d33b 0644 223e
000001e0: 2fa4 8b3d d497 80bf 96d7 01bd c780 433d
000001f0: 212e 3f3c 70d5 523d 51b6 ba3c 0026 793e
00000200: 5ead bfbd 4fc7 a63e 68c4 5f3d 7b73 793e
00000210: 82b8 0dbf fb5a 73bc 36da 4f3f 1537 8fbd
00000220: 98ef 663b 4b58 073d a9d1 07bd 8c48 13ba
00000230: 2f59 4b3e dac6 da3e ea3a 3c3d 8d75 223f
00000240: da88 c2bc d646 93bc 456f a23d a8ae 23bc
00000250: 4d35 433e d4e7 c33e 3fee 613d e378 ce3d
00000260: b6ec 543d 2c4e 6f3f f887 763e 1dfc c13c
00000270: 9740 3a3c a25e 31bb 09e1 98bb fea7 43bd
00000280: 5358 2fbd d90b 823e 1501 dd3c 6089 1a3e
00000290: 884c 90be e32d d0bd 3958 15bd 15c1 7fbd
000002a0: 159e bf3d 256d 103e 4fb5 403d 4252 a5bd
000002b0: 44f4 01be 185a 413d e3d1 27bf 8a2c 66bd
000002c0: 4ac0 423f a664 fa3d a7d3 a03d 4402 333d
000002d0: 81e0 d13d c4dc a83e 804f ac3a d0f9 433e
000002e0: ed2f fcbc 7e4a e23c aedf 9abd 929c 7cbd
000002f0: 6575 213d b01b a83e 84f2 15bd 1063 36bd
00000300: c4d6 0f3d 3650 89bd 6f71 03be 865c dbbe
00000310: 1dde 3b3f 5272 cabd ad62 553d af69 7f3b
00000320: 554a 613d e102 d0bb c7c5 8cbc 06e4 83bc
00000330: 578b 8ebd 7f1f c0bc 1d9d fcbc 5280 21bf
00000340: c44e bcbe c2ad e83f 695a 993e ee89 4ebd
00000350: 2e92 063c 1feb 16be 1157 7f3e c711 f2be
00000360: 7f24 dbbc 4fa0 87bc e179 63be 5007 b0bc
00000370: 57bc 623b cc0a 963e 6bd1 cfbb 0b8a 16bd
00000380: 3e75 c13d 1237 47bd e87c 133d 1a46 c73d
00000390: 1925 99be d373 193c 2b5d b6bc b796 ebbd
000003a0: 9950 eabe 7bb7 8cbb 0485 06bd 7009 0bbd
000003b0: 4660 853d fd68 483d 3bdf fc3c 6f16 d43e
000003c0: 84bc c3bd 88dc 9cbd 9408 193d 72d5 683e
000003d0: cde1 1cbd f48f a2ba 1d0d 393d cc59 9c3e
000003e0: d65e 773d c7e4 fd3e b8bc 413d bd52 733d
000003f0: 1825 343d 0982 c53c 6c91 123d 95b9 953e

FC3.bias f4 [2]
0.38135654 0.2800051
00000000: 2a41 c33e d45c 8f3e

FC1.weight f4 [256, 50]
-0.1275556 -0.13815543 -0.129983 -0.10885917 0.006869675 0.12145884 -0.110075116 -0.10994193
0.080189124 0.008096834 -0.07312268 -0.101758815 0.04999283 0.13905708 -0.002431795 -0.07105706
-0.102794364 -0.065252446 0.114619955 0.13270043 0.12306593 0.0040504187 -0.10513203 0.028135166
0.0025063753 -0.012399584 -0.10687502 -0.13943352 0.10239217 -0.06332073 -0.05889699 -0.12472494
0.012364313 -0.10429749 0.11914678 -0.07084056 -0.002294302 0.051251993 0.021300375 -0.0733948
-0.123854555 -0.054974094 -0.059258893 -0.0792851 -0.04042308 -0.11980193 0.12380372 -0.036354966
0.023122266 0.106102094 0.09486461 0.04680943 -0.13019307 -0.13805492 -0.118976206 -0.11695709
-0.13595088 -0.122428805 -0.030384429 0.020330604 0.05002436 -0.078394346 -0.07612042 -0.0466336
-0.090869606 0.08499257 -0.1067334 -0.15588865 0.09453529 -0.0016521097 0.04705903 0.040202253
0.018913502 -0.08473181 0.08726054 0.09565139 -0.07781617 -0.0315484 0.06870112 -0.1502262
0.03772046 -0.04668203 0.05780203 -0.052302755 0.04652631 0.10323907 0.050902043 -0.04670587
-0.07198684 0.03396462 0.039035488 0.11156733 0.06619176 -0.009954079 0.08984142 -0.104912475
0.10417486 -0.025171624 0.086452894 -0.030108757 -0.06389252 -0.03780838 -0.109031156 0.012592331
0.019291991 -0.075783655 -0.0060116467 -0.14495417 0.07424436 0.09106331 -0.0062522073 -0.033766437
0.083611235 -0.09231353 -0.14376506 0.013466285 0.11238094 -0.03670048 -0.10210957 0.084123835
-0.1070344 0.094712615 0.10420913 -0.14040335 -0.12082842 -0.088413894 0.12869102 -0.08947188
0.021416154 0.062711224 0.02182184 -0.08956277 -0.019303914 -0.14946029 0.04197251 0.090357
0.033367828 0.11690344 -0.03303926 0.01731684 -0.1218715 -0.034918297 -0.09378875 0.004515289
0.0073025534 -0.110333525 -0.04624021 -0.03380816 0.13055664 -0.14040633 -0.0074300524 -0.043310642
0.06337395 0.057598628 -0.003525688 -0.016474554 -0.019405615 -0.1424627 0.075491585 -0.07713519
-0.06759993 0.0155936135 0.03290589 -0.10396178 0.07596842 -0.021658301 -0.1493083 0.06695321
0.046904802 0.077802755 -0.14590785 -0.1275794 -0.057183634 -0.037568472 0.030785268 0.03396313
-0.1689987 0.07837348 0.10038847 0.03072231 0.05077389 -0.13230903 0.041827224 -0.14802381
0.069288224 0.098954976 -0.07695638 0.050171882 -0.009794078 0.01828281 -0.017966162 -0.10913248
-0.070101835 0.049625754 -0.065999545 0.03609251 0.07110021 0.08605801 -0.06976358 0.08975201
-0.49316037 -0.46298847 -0.3607247 -0.08521163 -0.058562737 0.083733425 0.1918869 0.20657946
0.07244728 0.19086766 0.14880164 -0.04965109 -0.06265461 -0.21179488 0.02312979 0.011437303
-0.0031507837 -0.105037645 -0.21520427 -0.15702711 -0.15441343 -0.31858417 -0.30840963 -0.33022496
-0.08242213 0.12005653 -0.09864802 -0.012566441 0.02285151 0.093021326 0.1285122 0.044266548
0.13814431 0.112363055 0.15322728 -0.01388296 0.013531105 0.034723833 0.10753209 0.106278904
-0.050652448 0.118421875 0.09010219 0.13396603 -0.030388154 0.0005289044 -0.06926439 0.07663003
-0.037601255 0.2423691 0.071889974 0.036500055 -0.11822519 0.087624125 0.031067645 -0.04853872
00000000: ef9d 02be 9e78 0dbe 431a 05be 8ef1 debd
00000010: 031b e13b 6abf f83d 106f e1bd 3c29 e1bd
00000020: 323a a43d 95a8 043c 58c1 95bd ed66 d0bd
00000030: 48c5 4c3d fb64 0e3e c05e 1fbb 5d86 91bd
00000040: da85 d2bd 13a3 85bd debd ea3d 9fe2 073e
00000050: fe09 fc3d 60b9 843b 764f d7bd b87b e63c
00000060: 0042 243b a027 4bbc 4ae1 dabd a9c7 0ebe
00000070: fcb2 d13d 4dae 81bd f83d 71bd ca6f ffbd
00000080: b093 4a3c ec99 d5bd 3a03 f43d db14 91bd
00000090: 005c 16bb 9ced 513d 207e ae3c 0350 96bd
000000a0: 75a7 fdbd 842c 61bd 74b9 72bd 3a60 a2bd
000000b0: ac92 25bd b75a f5bd ce8c fd3d f2e8 14bd
000000c0: e86a bd3c 0e4c d93d 6048 c23d 3fbb 3f3d
000000d0: 5551 05be 455e 0dbe cca9 f3bd 3387 efbd
000000e0: b536 0bbe f4bb fabd c4e8 f8bc 5e8c a63c
000000f0: 58e6 4c3d 378d a0bd 06e5 9bbd e002 3fbd
00000100: d819 babd 9610 ae3d 0a97 dabd 46a1 1fbe
00000110: b89b c13d 9a8b d8ba f8c0 403d 1eab 243d
00000120: 7df0 9a3c df87 adbd a7b5 b23d e0e4 c33d
00000130: 165e 9fbd e538 01bd 2cb3 8c3d e6d4 19be
00000140: c580 1a3d a835 3fbd d2c1 6c3d 6a3b 56bd
00000150: 5f92 3e3d 016f d33d a97e 503d a84e 3fbd
00000160: d66d 93bd 7c1e 0b3d ade3 1f3d 6a7d e43d
00000170: 8c8f 873d 6f16 23bc c7fe b73d 5adc d6bd
00000180: a159 d53d b934 cebc 370e b13d a4a6 f6bc
00000190: 15da 82bd f6dc 1abd ba4b dfbd 1050 4e3c
000001a0: 3d0a 9e3c 7634 9bbd 59fd c4bb de6e 14be
000001b0: 6d0d 983d 677f ba3d 51df ccbb ad4e 0abd
000001c0: 5e3c ab3d e00e bdbd 2637 13be b1a1 5c3c
000001d0: fa27 e63d 3e53 16bd d21e d1bd 1e49 ac3d
000001e0: da34 dbbd b0f8 c13d 996b d53d e5c5 0fbe
000001f0: e474 f7bd 5812 b5bd 94c7 033e 083d b7bd
00000200: ee70 af3c be6e 803d b7c3 b23c b06c b7bd
00000210: 3e23 9ebc 1e0c 19be 5eeb 2b3d 170d b93d
00000220: b4ac 083d 126b ef3d 2d54 07bd 0cdc 8d3c
00000230: c497 f9bd 7d06 0fbd 5114 c0bd fdf4 933b
00000240: 424a ef3b 8bf6 e1bd 6066 3dbd 6d7a 0abd
00000250: a4b0 053e adc6 0fbe cc77 f3bb 8066 31bd
00000260: 34ca 813d 8aec 6b3d 3b0f 67bb a5f5 86bc
00000270: 86f8 9ebc bee1 11be 559b 9a3d 0ef9 9dbd
00000280: d571 8abd 5b7c 7f3c 54c8 063d eae9 d4bd
00000290: 5595 9b3d c06c b1bc 46e4 18be c41e 893d
000002a0: 401f 403d 0d57 9f3d de68 15be 2da4 02be
000002b0: 6339 6abd 66e1 19bd 6331 fc3c ec1c 0b3d
000002c0: ff0d 2dbe 4682 a03d 7898 cd3d 5bad fb3c
000002d0: 48f8 4f3d 057c 07be 0653 2b3d 8e93 17be
000002e0: fce6 8d3d e8a8 ca3d 4e9b 9dbd 0881 4d3d
000002f0: 5777 20bc d5c5 953c c62d 93bc da80 dfbd
00000300: 8d91 8fbd 6044 4b3d c52a 87bd bdd5 133d
00000310: fd9c 913d 2f3f b03d 35e0 8ebd e7cf b73d
00000320: 847f fcbe d30c edbe e8b0 b8be 6f83 aebd
00000330: 7bdf 6fbd 6e7c ab3d 007e 443e 9189 533e
00000340: 3d5f 943d d072 433e 755f 183e f15e 4bbd
00000350: 0f51 80bd c2e0 58be af7a bd3c 8763 3b3c
00000360: 617d 4ebb fa1d d7bd 825e 5cbe b7cb 20be
00000370: 8e1e 1ebe 771d a3be dee7 9dbe 3f13 a9be
00000380: efcc a8bd 33e0 f53d f907 cabd 79e3 4dbc
00000390: 1733 bb3c f781 be3d b498 033e d750 353d
000003a0: b475 0d3e 9a1e e63d 9de7 1c3e 5b75 63bc
000003b0: 91b1 5d3c 943a 0e3d c939 dc3d c1a8 d93d
000003c0: f178 4fbd 2b87 f23d 7f87 b83d 642e 093e
000003d0: 94f0 f8bc 2ca6 0a3a 7dda 8dbd 35f0 9c3d
000003e0: c603 1abd 9b2f 783e 0d3b 933d 1581 153d
000003f0: 0c20 f2bd 4774 b33d 9381 fe3c 89d0 46bd

FC1.bias f4 [256]
-0.039810687 0.03386925 0.109417096 -0.12425718 0.18961298 0.050694168 -0.005738735 0.24711661
-0.08962934 -0.11643627 -0.032834843 -0.10288741 0.07034025 0.111321464 -0.018144958 -0.1279723
-0.0059388173 0.06630054 -0.061910287 -0.060973004 0.0047819912 0.14311238 0.08447252 0.12224849
0.10076249 -0.16256736 -0.008240491 0.041395836 -0.06813488 -0.16006397 -0.13528076 0.35856697
0.069285244 -0.07716648 -0.13183314 -0.059831575 -0.05969076 -0.044848904 -0.10791059 0.047011346
0.026148023 0.119061135 0.06539008 0.047713816 0.13759626 -0.114955865 -0.06685189 -0.13890241
0.09551132 -0.034854967 -0.0836163 0.08119129 -0.11134084 -0.08619511 -0.082377955 0.098122
0.103979655 0.12326773 0.006279867 0.08082388 -0.09865163 0.044628426 -0.008615022 0.06997964
0.037536025 -0.037066706 0.02028888 0.04701209 -0.087542176 0.12315558 -0.10417189 -0.06029699
-0.090969004 -0.09835745 -0.10444607 0.061898362 -0.08859973 0.034809515 -0.05649222 0.11434199
0.068911225 -0.022323415 -0.086310625 -0.005235668 -0.01495957 -0.12317982 0.04223062 -0.111851774
-0.08960599 -0.03906008 -0.121147156 0.12092527 0.10825033 0.08453739 0.0950628 0.023349209
-0.13136132 -0.13393421 0.106919795 -0.1275645 -0.13815625 -0.01782721 -0.106820986 -0.08367234
-0.009805626 -0.16112791 0.09201401 0.036009807 -0.106423125 0.31709403 0.07030001 0.010319529
0.1022065 0.068653435 -0.097432084 -0.030606829 0.12210991 -0.07301055 0.050850634 0.10030685
0.061546694 -0.017988887 0.020253118 -0.096839204 -0.102334574 0.12244668 -0.011477351 -0.1192027
-0.03470819 -0.0038315812 -0.06421737 -0.10214235 -0.12590647 0.04430827 0.02294129 0.09312265
-0.13442798 -0.028956896 -0.053609587 0.087633066 -0.0608225 -0.038082562 -0.04001978 -0.08558941
-0.13674128 0.07946722 -0.06397597 0.31807753 0.03825094 0.11455785 0.05857242 -0.051881053
0.10260235 -0.0038668318 -0.0026719868 0.08102551 -0.092131734 0.09964928 -0.122297674 -0.10953184
-0.017975852 0.021336433 -0.07291334 0.058780294 0.031757012 0.11680658 -0.11809704 0.037745047
-0.025443971 -0.34305784 -0.16699003 -0.002525726 -0.020049356 -0.14249548 0.040333383 -0.14503762
-0.02224683 0.07940762 -0.075017735 -0.074532084 0.034369186 0.06959519 -0.02079664 0.018903071
-0.05119709 0.059534293 0.13153563 -0.06814084 -0.1568036 0.01956841 -0.1112137 0.027584016
0.004189983 0.12525763 0.03231035 0.034371614 0.0573387 -0.12023088 -0.11048701 0.06863257
0.10188604 0.043037202 0.038001347 0.043489452 -0.07815855 -0.054040857 0.04298803 0.124385074
-0.0102825165 0.10315562 0.107923985 0.014650929 0.06343058 0.09644711 -0.10917421 -0.036343597
-0.13792677 0.1148213 0.051100228 -0.14542505 -0.04811478 0.006363556 -0.09222263 0.023666233
-0.03275886 0.012181804 -0.029784657 0.16253754 -0.03618262 -0.0633382 -0.08942419 -0.03828522
-0.0434341 -0.09881437 -0.10255291 0.0586514 -0.13886042 -0.13657747 -0.0063081384 0.05842954
-0.015644073 -0.10779409 0.16144976 0.014271507 -0.06985018 0.09558284 0.11685754 -0.14828607
-0.014450881 -0.00975105 -0.032675475 -0.061372355 0.34090608 -0.04602489 0.072421946 0.12466885
00000000: 8810 23bd 7cba 0a3d 1216 e03d 8c7a febd
00000010: e829 423e b0a4 4f3d 000c bcbb 230c 7d3e
00000020: 968f b7bd 2476 eebd d47d 06bd a2b6 d2bd
00000030: 8d0e 903d 82fc e33d bca4 94bc 2c0b 03be
00000040: 699a c2bb 94c8 873d a495 7dbd d4be 79bd
00000050: 40b2 9c3b 0d8c 123e eeff ac3d 6b5d fa3d
00000060: 905c ce3d 0f78 26be 2003 07bc ae8e 293d
00000070: 4d8a 8bbd cfe7 23be 0a87 0abe 1796 b73e
00000080: 6ce5 8d3d 7609 9ebd 44ff 06be f411 75bd
00000090: 4c7e 74bd 7cb3 37bd 3a00 ddbd f88e 403d
000000a0: 6134 d63c 53d6 f33d 3ceb 853d 906f 433d
000000b0: 09e6 0c3e fb6d ebbd a5e9 88bd 6f3c 0ebe
000000c0: 709b c33d 15c4 0ebd 063f abbd 9e47 a63d
000000d0: ab06 e4bd 1087 b0bd c6b5 a8bd 30f4 c83d
000000e0: 49f3 d43d cb73 fc3d 58c7 cd3b fe86 a53d
000000f0: de09 cabd 4ccc 363d 0526 0dbc 7c51 8f3d
00000100: 60bf 193d 42d3 17bd de34 a63c c08f 403d
00000110: 5049 b3bd fe38 fc3d 1258 d5bd faf9 76bd
00000120: f54d babd a16f c9bd d2e7 d5bd 2389 7d3d
00000130: c673 b5bd 6c94 0e3d 6364 67bd 222c ea3d
00000140: 5421 8d3d 98df b6bc a0c3 b0bd f78f abbb
00000150: fc18 75bc b445 fcbd 04fa 2c3d 8b12 e5bd
00000160: 5883 b7bd 76fd 1fbd 001c f8bd aba7 f73d
00000170: 59b2 dd3d f021 ad3d 49b0 c23d d746 bf3c
00000180: 9583 06be 0d26 09be c4f8 da3d 45a0 02be
00000190: d578 0dbe 5e0a 92bc f6c4 dabd 675c abbd
000001a0: c7a7 20bc b7fe 24be d771 bc3d 057f 133d
000001b0: 5ef4 d9bd 265a a23e 74f9 8f3d 3e13 293c
000001c0: a451 d13d 2c9a 8c3d 798a c7bd 2cbb fabc
000001d0: c314 fa3d 8e86 95bd c148 503d ae6d cd3d
000001e0: 6318 7c3d 6e5d 93bc dee9 a53c a253 c6bd
000001f0: ca94 d1bd 53c5 fa3d 800b 3cbc 8c20 f4bd
00000200: 2d2a 0ebd 441b 7bbb 6584 83bd 0230 d1bd
00000210: a0ed 00be 977c 353d 5fef bb3c 17b7 be3d
00000220: 7da7 09be 0337 edbc ba95 5bbd f778 b33d
00000230: 0421 79bd 76fc 1bbd c8eb 23bd 8049 afbd
00000240: e805 0cbe b6bf a23d d505 83bd 0fdb a23e
00000250: 05ad 1c3d 4e9d ea3d a2e9 6f3d 3a81 54bd
00000260: 2e21 d23d ac6a 7dbb 801c 2fbb b4f0 a53d
00000270: 90af bcbd ec14 cc3d 3477 fabd 3b52 e0bd
00000280: 1842 93bc bec9 ae3c 9753 95bd 9bc3 703d
00000290: a413 023d 4a38 ef3d dcdc f1bd 8d9a 1a3d
000002a0: e06f d0bc 47a5 afbe 6fff 2abe a786 25bb
000002b0: 8c3e a4bc 56ea 11be 9e34 253d be84 14be
000002c0: fc3e b6bc 76a0 a23d e6a2 99bd 47a4 98bd
000002d0: b4c6 0c3d ec87 8e3d b75d aabc 9dda 9a3c
000002e0: 0ab4 51bd 3bda 733d 47b1 063e 6d8d 8bbd
000002f0: 1f91 20be ee4d a03c 02c4 e3bd e0f7 e13c
00000300: 204c 893b 8943 003e dc57 043d 40c9 0c3d
00000310: fcdb 6a3d 9c3b f6bd 0347 e2bd 3c8f 8c3d
00000320: a1a9 d03d c747 303d 4da7 1b3d ff21 323d
00000330: 9711 a0bd f259 5dbd 3714 303d 9abd fe3d
00000340: 0078 28bc 4143 d33d 4007 dd3d 730a 703c
00000350: e4e7 813d 1086 c53d ba96 dfbd 06dd 14bd
00000360: ad3c 0dbe 6e27 eb3d 794e 513d 4eea 14be
00000370: 0114 45bd 6085 d03b 38df bcbd b0df c13c
00000380: 282e 06bd 3096 473c f4fe f3bc 3e70 263e
00000390: 3a34 14bd 75b7 81bd 0824 b7bd f6d0 1cbd
000003a0: f4e7 31bd 305f cabd 4307 d2bd 733c 703d
000003b0: 6d31 0ebe f7da 0bbe 80b4 cebb d053 6f3d
000003c0: 0028 80bc 26c3 dcbd 1653 253e 0ad3 693c
000003d0: 9c0d 8fbd f0c0 c33d 0253 ef3d 4ed8 17be
000003e0: 63c3 6cbc dec2 1fbc b8d6 05bd 9461 7bbd
000003f0: 3e8b ae3e 9884 3cbd f551 943d 6252 ff3d

FC2.weight f4 [128, 256]
-0.013505347 -0.015560458 0.003277071 -0.038828366 0.017336585 0.07380925 0.0033474192 -0.08511327
0.05114556 -0.053113237 0.0032351017 0.06116821 0.06175904 -0.04155081 0.047086194 0.010461494
0.071177706 0.026713895 0.02052432 -0.04537743 -0.05848787 -0.008852137 -0.0047354535 -0.028063571
0.0067805466 0.049702495 0.00066259503 0.009348905 -0.029525748 -0.027769646 0.032500736 -0.026091399
0.06654791 0.0047737313 0.0055639893 -0.021974951 0.0011020002 -0.031934112 0.04998807 -0.03567602
0.002575179 -0.04216474 0.0406858 -0.015982576 -0.051170915 -0.043814298 -0.02116209 0.023059756
0.0344653 0.025191369 0.02215989 -0.022933096 0.021141972 0.034512985 -0.0045291036 0.031592354
0.04064333 0.07134758 -0.02204983 -0.05889857 -0.04595667 0.05107718 0.0066594747 -0.010383977
0.026454873 -0.009393215 -0.05417434 0.033224776 0.07067554 -0.009270705 -0.013871038 0.013399646
-0.016757213 -0.02061857 0.043499883 -0.030444406 0.042734258 -0.042084273 0.018589774 -0.033886746
-0.02696897 0.05327996 -0.0027566943 -0.033855844 -0.056586843 -0.020730702 0.01812575 0.019650236
0.0396673 0.0018521113 0.035832502 -0.04595187 -0.03128632 0.048524626 -0.0013349801 0.021610616
-0.012127415 -0.04918947 0.045342542 0.023057146 -0.034348324 0.056530964 0.034109734 0.03810566
0.03663044 -0.05198834 0.03243651 0.025665972 0.0015498474 -0.009101545 0.06301484 -0.06698749
-0.06225227 0.06327412 0.03670942 0.02027845 -0.0023725696 0.020490048 0.0398938 0.057382777
0.031402923 -0.00239101 -0.055856686 0.017515838 0.046555366 0.013710852 0.03346022 -0.040980097
-0.009932286 0.05053398 0.047547046 -0.032817975 0.055476762 -0.060849324 -0.013153361 0.048481345
0.017688254 0.027418723 0.042450987 -0.06890974 0.025237935 -0.06980232 0.007801026 0.05387079
-0.03626419 0.0068836445 0.06461672 -0.052123193 0.030258141 0.04063478 0.058555286 -0.06755821
-0.030315138 0.07598631 0.007324472 0.032930695 0.025839569 0.049150363 -0.033855844 0.01314144
-0.013746195 -0.03020487 -0.03094741 0.03386627 -0.018419903 0.08036577 -0.033238932 0.0434604
-0.00021948665 -0.017603692 -0.0040721656 0.02097061 0.012244843 -0.054312173 -0.03080017 -0.012092211
0.009433232 -0.00030752594 0.03652539 -0.017263822 0.03811162 0.028593678 -0.053041853 -0.0029315967
0.036536567 0.04259985 0.014107466 0.019204076 0.01478792 -0.061876014 0.062370285 0.045088373
0.009928003 -0.0020950884 0.025173515 -0.032145195 0.021320485 0.015745888 0.048270494 -0.058970287
0.0094001265 -0.015245485 -0.06551526 -0.04550633 -0.024268866 0.041320913 0.03563281 -0.05945594
0.023874864 -0.061018452 -0.034872845 0.023229254 -0.019532647 -0.04161563 -0.0515495 0.05839212
-0.05305452 0.054353252 -0.042828582 -7.636925e-05 0.00899601 0.016941682 0.028548975 0.050631586
0.04751108 0.03191944 -5.3168747e-05 -0.07020465 -0.023201928 -0.053716127 -0.01920184 -0.036286972
-0.035767972 -0.03708574 -0.004146427 -0.06618432 0.051515885 -0.043092757 -0.036195435 0.03219579
-0.042115524 -0.0038189152 0.016084142 0.011436373 0.04498703 -0.06966374 -0.02285476 -0.015568096
0.0448775 0.033824548 0.02052737 0.01943728 0.010451963 0.038525123 -0.027622867 0.021135002
00000000: 8845 5dbc 4bf1 7ebc 21c4 563b 7e0a 1fbd
00000010: 7405 8e3c 4e29 973d 6060 5b3b de4f aebd
00000020: 027e 513d 448d 59bd 0004 543b 848b 7a3d
00000030: 0cf7 7c3d 2f31 2abd 74dd 403d b066 2b3c
00000040: 9ec5 913d 19d7 da3c 9e22 a83c afdd 39bd
00000050: fa90 6fbd 8e08 11bc dd2b 9bbb 93e5 e5bc
00000060: 592f de3b d894 4b3d 00b2 2d3a 262c 193c
00000070: fbdf f1bc 2b7d e3bc 7e1f 053d a1bd d5bc
00000080: 454a 883d f66c 9c3b 2052 b63b d004 b4bc
00000090: fe70 903a 58cd 02bd 4ac0 4c3d 0521 12bd
000000a0: 56c4 283b efb4 2cbd 27a6 263d e4ed 82bc
000000b0: 9898 51bd 9f76 33bd 1f5c adbc d0e7 bc3c
000000c0: 7d2b 0d3d 215e ce3c a888 b53c 30de bbbc
000000d0: ee31 ad3c 7d5d 0d3d e068 94bb fc66 013d
000000e0: 9f79 263d ae1e 923d d8a1 b4bc a03f 71bd
000000f0: 103d 3cbd 4e36 513d b937 da3b 8e21 2abc
00000100: e4b7 d83c 00e6 19bc eae5 5dbd b416 083d
00000110: 56be 903d 28e4 17bc 5a43 63bc 308a 5b3c
00000120: 6c46 89bc 46e8 a8bc ef2c 323d 8c66 f9bc
00000130: 1e0a 2f3d 8f60 2cbd 9549 983c d4cc 0abd
00000140: 08ee dcbc 163c 5a3d a8a9 34bb 6dac 0abd
00000150: 9bc7 67bd 6fd3 a9bc 747c 943c 88f9 a03c
00000160: 2e7a 223d 8bc2 f23a 1ac5 123d 0738 3cbd
00000170: 1626 00bd c2c1 463d 80fa aeba bf08 b13c
00000180: 11b2 46bc e67a 49bd 1ab9 393d 57e2 bc3c
00000190: d4b0 0cbd 038d 673d a6b6 0b3d ae14 1c3d
000001a0: cd09 163d baf1 54bd 25dc 043d 7241 d23c
000001b0: 4024 cb3a a61e 15bc ed0d 813d bd30 89bd
000001c0: 3cfc 7ebd dd95 813d 9e5c 163d fe1e a63c
000001d0: 1d7d 1bbb bfda a73c ae67 233d 340a 6b3d
000001e0: 5aa0 003d 7eb2 1cbb fbc9 64bd 607d 8f3c
000001f0: d7b0 3e3d 7ba3 603c 950d 093d bfda 27bd
00000200: 07bb 22bc b8fc 4e3d b1c0 423d 246c 06bd
00000210: 9a3b 633d 243d 79bd 3281 57bc 6094 463d
00000220: f5e6 903c 3b9d e03c 16e1 2d3d 8d20 8dbd
00000230: c9bf ce3c 85f4 8ebd c09f ff3b 9ea7 5c3d
00000240: c289 14bd 3290 e13b c555 843d 217f 55bd
00000250: ecdf f73c a870 263d abd7 6f3d f55b 8abd
00000260: 7457 f8bc b69e 9b3d 2002 f03b 56e2 063d
00000270: 81ad d33c e451 493d 6dac 0abd 324f 573c
00000280: b837 61bc 3470 f7bc 6c85 fdbc 5cb7 0a3d
00000290: 56e5 96bc cf96 a43d 8c25 08bd 8803 323d
000002a0: 0026 66b9 9e35 90bc cd6f 85bb 8fca ab3c
000002b0: 989e 483c 7176 5ebd a350 fcbc 691e 46bc
000002c0: d88d 1a3c 6f3b a1b9 a69b 153d dc6c 8dbc
000002d0: ee1a 1c3d 4a3d ea3c 6a42 59bd 0820 40bb
000002e0: 5ea7 153d 2e7d 2e3d 0023 673c de51 9d3c
000002f0: 0849 723c b471 7dbd fc77 7f3d 96ae 383d
00000300: 10a9 223c c04d 09bb b038 ce3c aeaa 03bd
00000310: 4ca8 ae3c 85fd 803c 48b7 453d d48a 71bd
00000320: fd02 1a3c 33c8 79bc dd2c 86bd d864 3abd
00000330: 80cf c6bc 1e40 293d b6f3 113d 1288 73bd
00000340: 3895 c33c 7cee 79bd d4d6 0ebd 474b be3c
00000350: ee02 a0bc 2775 2abd 9225 53bd 932c 6f3d
00000360: b24f 59bd 84a1 5e3d 066d 2fbd 6e28 a0b8
00000370: 0064 133c 48c9 8a3c 8adf e93c 1163 4f3d
00000380: fa9a 423d f5bd 023d 8201 5fb8 75c7 8fbd
00000390: f811 bebc 7105 5cbd 2d4d 9dbc a6a1 14bd
000003a0: 7081 12bd 38e7 17bd c0de 87bb a58b 87bd
000003b0: 5202 533d 0882 30bd aa41 14bd bcdf 033d
000003c0: 5481 2cbd c446 7abb e4c2 833c a05f 3b3c
000003d0: 5244 383d ddab 8ebd e839 bbbc 5411 7fbc
000003e0: 78d1 373d 9c8b 0a3d 0429 a83c ee3a 9f3c
000003f0: b63e 2b3c 85cc 1d3d 5a49 e2bc 5023 ad3c
