examples/inputs/example_02b/learned_strategies/example_02b_base/actors/actor_pp_9.pt (torch, 748450 bytes, 24 tensors)

FC1.weight f4 [256, 50]
00000000: 1373 ef3c 2ebb d63d 6df0 1bbd 8150 05be
00000010: 1c96 18be 30d7 813d 2978 b23c 6664 14be
00000020: f632 9f3d 09a2 00be bbc1 b03d a928 9cbc
00000030: ac08 a1bd 374a 923d babe 143b bcbc 1f3d
00000040: 3267 8cbd 898b ffbd 2221 89bd fb08 e4bd
00000050: 9cbd 293c b12d b53d bc1b 3c3d 4e80 01bd
00000060: 5016 683d 04ae 183c e767 e1bd a3c3 943d
00000070: 84c1 bbbd 93cc 503d 381d 543d ca85 cc3d
00000080: 4bba cf3c 3529 45bd b640 043d bbd4 9fbd
00000090: 7029 cfbd 42c3 dfbd e0e2 203d 9b77 0fbe
000000a0: fe3d 433d 0a85 22bd aec9 053c 104b 4d3d
000000b0: 0c11 aa3c 03f0 44bd cbf9 c33c 6e58 a3bb
000000c0: 0fc9 10be 2ed7 b53a cdc4 c63d 8dbc f0bd
000000d0: 3c6f b13b 9d7e 02bc ba2f 1bbd 3f6a 55bd
000000e0: c964 f9bd 629a a93d 3bb2 cd3d 7fc1 ff3d
000000f0: 460f 05be b9c8 c93d efe3 f4bd 089c 68bd
00000100: e81e c8bd 6473 ccbd b79d e4bd b8f4 38bd
00000110: d80e 543d b0b7 6dbd 83e9 afbd 4cc2 8dbc
00000120: d075 5dbd 808d d4bd 8efe a6bd 6a6d dabd
00000130: 2932 1bbd 924a cebc ed61 713d 0cdd 4bbc
00000140: 420c e0bd d389 f13d b37b e33d 03cb e6bd
00000150: 9794 b7bd 9a6c d8bd 850b 7abd 1dcf df3d
00000160: f7bb de3c bf94 b2bd bd67 a53c 6ecf 9a3d
00000170: 4e35 d53d de96 b53d 4828 b33d f225 04be
00000180: 7048 eb3d b414 d43d 7e3c 9e3d 287e b2bd
00000190: 684d a4bd 2ed7 fbbd 489f 8b3c 3696 0ebe
000001a0: 80cf 763b b048 ca3d f3ec dbbd 88eb d7bd
000001b0: 0ec0 37bd 3052 c0bd 006c ba39 208b b23c
000001c0: dcfd e1bc eb10 95bd 7a92 81bd 7a62 fa3d
000001d0: 705b 043c 6ffc 043e be71 c8bd 6e24 f1bd
000001e0: 3cd5 fcbc 6a7c c7bd 7abb f0bd 349f bdbc
000001f0: 92fa 1dbd 87e3 d0bd ac26 97bd 20ff 00be
00000200: fc42 fdbd b602 22bd a040 abbd 5ab6 f63d
00000210: a080 113c 6e52 61bd b065 d93c c88d 8e3c
00000220: 2aa5 ca3d 8066 c4bb 5016 ac3d 48c8 a63c
00000230: e8a7 f93c 1eab df3d 8020 28bc 2aee 29bd
00000240: 90d1 ce3d 1fb9 8cbd e2e0 bdbd fa93 f73d
00000250: 643e dcbd f244 983d 20ed 8dbb ac11 4abd
00000260: 2084 09bd 008d 40bc be46 dfbd 1c72 b6bd
00000270: 4498 093d 4819 493d 7e45 dabd 1f4d c1bd
00000280: 4c69 c73d 30f2 683d 7110 8abd bbc8 c2bd
00000290: fdfc 023e db2f a1bd f801 5e3d e49f 08bd
000002a0: 9ef3 f73d 355c 8ebd a855 963c 3c22 123d
000002b0: c045 6a3c 8937 c2bd a472 c4bc 089d fe3c
000002c0: 04cb 33bd f422 9a3d 5077 74bc f425 c03d
000002d0: 1293 45bd b385 063e fab6 02be 860b adbd
000002e0: 6596 093e 48e1 07be 325d 07be 2ba5 0d3e
000002f0: 7469 31bd 9003 31bd da01 9cbd e976 07be
00000300: 8ead b93d c2a4 9e3d d4fd a0bd 06f3 59bd
00000310: 4e3f cd3d d2df 77bd c062 cf3d 244e 66bd
00000320: 4863 14be 1fb9 0fbe fc0f 9bbc cc2f 16bd
00000330: 6517 a6bd b779 35bd b196 2cbd 6fbf b53c
00000340: be19 8dbd 20bb 903d b471 fb3d 43cc 8b3d
00000350: cf58 fb3d 91ba 05be 22e5 19be 48e4 ca3d
00000360: 4ad1 f8bd de58 1ebe 1117 90bd 2ad3 793d
00000370: 5da3 7a3d 72a0 d2bd 32ae 9f3d 1b08 fbbc
00000380: cebc 003e daa4 773d 8610 9bbc 6620 0fbe
00000390: af6c a03d 9955 dc3d abbd 18be c194 213d
000003a0: d856 61bd f9ff b3ba 3485 a1bd 649c 09bd
000003b0: d9e4 0dbe cea5 adbd 7d15 0fbe 0a20 2cbd
000003c0: a39f 9a3d 7e4b e43d 90f1 0f3d fb99 b13c
000003d0: dc97 09be 6c78 b93d 364f 2dbd 060d d73d
000003e0: ce23 b63d 1abb b13d 70c2 d7bd 5863 30bc
000003f0: 14f6 583c 25c0 17be 20ae c0bd 3b50 aabd
0.029229676 0.104849204 -0.038071085 -0.13018991 -0.14901012 0.06339872 0.021785812 -0.14491424
0.07773392 -0.12561812 0.08630701 -0.019062357 -0.07862982 0.071430616 0.002269669 0.03899835
-0.068556204 -0.12477786 -0.06695773 -0.111345254 0.010360148 0.088466056 0.045924887 -0.0316165
0.056661904 0.009318832 -0.11006146 0.07263877 -0.091677696 0.050976347 0.051785678 0.09986456
0.025357386 -0.048135 0.032288276 -0.07804247 -0.101153255 -0.10925914 0.039278865 -0.1401047
0.047666542 -0.039677657 0.00816576 0.050120413 0.020760082 -0.048080456 0.023922822 -0.004984907
-0.14139198 0.0013873333 0.097055055 -0.11754713 0.0054148715 -0.007964757 -0.037887312 -0.052103277
-0.12177426 0.08281399 0.100437604 0.12488078 -0.12994108 0.09852738 -0.119575374 -0.056789428
-0.0977152 -0.099829465 -0.11162894 -0.045155257 0.05177197 -0.058036506 -0.08589461 -0.017304562
-0.054067433 -0.103785515 -0.08154021 -0.106654 -0.037889633 -0.025182042 0.05893128 -0.012442838
-0.10939838 0.11793866 0.11107578 -0.1126919 -0.08963888 -0.10567589 -0.061046142 0.109281756
0.027189238 -0.08719777 0.020191068 0.07559095 0.10410558 0.08866666 0.087479174 -0.129051
0.11488426 0.10355511 0.07726382 -0.08715469 -0.080225766 -0.12296902 0.017043725 -0.13924488
0.00376603 0.09877145 -0.10738554 -0.10542971 -0.044860892 -0.09390676 0.0003555715 0.021794856
-0.02758687 -0.072786175 -0.06326766 0.12225814 0.008078441 0.12986921 -0.097873196 -0.117745265
-0.030863397 -0.09740527 -0.11754508 -0.023147203 -0.03856904 -0.101996474 -0.07380423 -0.12597322
-0.12366292 -0.039553367 -0.083619356 0.120464996 0.008880764 -0.05501025 0.026537746 0.017401591
0.09894784 -0.0059936643 0.08402693 0.020359173 0.030475572 0.1092131 -0.010261655 -0.041486897
0.100985646 -0.068712465 -0.092714086 0.12088771 -0.107540876 0.07435025 -0.004331246 -0.04933326
-0.03357327 -0.011752367 -0.10902165 -0.089084834 0.033592477 0.049096376 -0.10657786 -0.09438538
0.09736881 0.056871593 -0.06741417 -0.095109425 0.1279182 -0.07870456 0.054201096 -0.03335561
0.12107013 -0.06951181 0.018351391 0.03567718 0.014298856 -0.09483249 -0.023980446 0.031080738
-0.043894783 0.07526198 -0.014921024 0.09382239 -0.04823596 0.1313694 -0.12765113 -0.084494635
0.13436277 -0.13269532 -0.13219145 0.13832538 -0.04331346 -0.043216288 -0.07617541 -0.13228954
0.09066306 0.07746269 -0.07860914 -0.05321028 0.1002184 -0.060516186 0.10126257 -0.056226864
-0.14490998 -0.14035462 -0.01892852 -0.036666676 -0.08109931 -0.04430553 -0.042135898 0.02218601
-0.068896756 0.07066941 0.122775465 0.06826069 0.12272798 -0.1305945 -0.15028813 0.099068224
-0.12149294 -0.15463588 -0.070356496 0.060992397 0.06119095 -0.10284509 0.07796897 -0.030643513
0.12572023 0.06045995 -0.018928777 -0.13977203 0.0783323 0.10758514 -0.14916103 0.039448503
-0.05501446 -0.0013732902 -0.078867346 -0.03359641 -0.1385683 -0.0847889 -0.13973041 -0.042022742
0.075499795 0.111472115 0.03514248 0.021679869 -0.13436836 0.09056172 -0.04231187 0.10500531
0.08893548 0.08678265 -0.10535133 -0.010765873 0.013242263 -0.14819391 -0.09408212 -0.08316084

FC1.bias f4 [256]
00000000: eb6d 503d b4e4 ea3d fcf3 173d c08c 693d
00000010: 62a0 37bd 5c19 4e3d 8ae3 9ebd c5fc e23c
00000020: d0dc 5abc 5643 e73d 0534 633d 56ff 02bd
00000030: 0749 633d 306c 51bc ca36 01be 1693 efbd
00000040: 04cc ed3d 467d f13d 4197 89bd 2c5b 15be
00000050: bb92 adbd 645c adbc 5993 0bbe 20e2 d5bd
00000060: 46dc 26bd ebb7 043e 630d 8c3e 77fe 1f3d
00000070: b739 833d ad5d de3d 32d8 f23d 8073 343d
00000080: a19e 813d 329c 32bd 4c74 d6bd ebc0 b9bd
00000090: e076 d0bc 78e2 00be 163e c43c d636 0bbd
000000a0: 7572 95bd 7e47 b1bd 63c5 afbd 40d3 a33d
000000b0: 62f9 f5bd 767b 863d 8457 b73c 2a26 733e
000000c0: 9aa3 bfbd 1a3e c93d 2f01 91bd c0a4 f2bb
000000d0: 1d74 363c 0394 bdbd e6c8 ad3d 3e39 883e
000000e0: be12 b9bd 3c67 c7bd e30f ce3d 2055 f93b
000000f0: c654 b5bd 2269 47bd c262 ca3d a528 d53d
00000100: 995b 833d 2cdb 213d 8c82 bdbd 9ba1 573e
00000110: aad5 5bbd 0073 fd3b 2cbb 143e b6b7 fc3d
00000120: 0f64 c9bd 37ed f73c 13d1 1fbd ae04 f03b
00000130: 1930 00be e906 a8bd 7ed1 513d 3b81 1e3b
00000140: 1d43 c23d a1d6 583e 2ed9 743e 4ea0 8dbd
00000150: 0494 9a3d 40d0 3f3d 5f60 603d 61ee 163e
00000160: 198b 12be 8e89 383e e137 06be bada b53d
00000170: 6d59 8bbd 5816 3c3d a7cf 383b e8a5 0abe
00000180: f90b ddbd 846f cdbd a1e0 a23e 2587 1abe
00000190: f40b 073d d72a ea3c 006b 583a 5048 883c
000001a0: 4949 e9bd ae1b 65bd e2e7 603d b8df df3d
000001b0: bc45 97bd b469 bbbd 3e0d 54bd 4d2d d83d
000001c0: c8b6 3d3d e878 bf3d a4cd 0f3d 4046 b53b
000001d0: 4ee8 09be 2e78 fa3d 4e27 eebd 7712 c63d
000001e0: a822 f2bd 5d1c bc3d 00b1 c43d 78b4 0cbe
000001f0: b0b8 71bc 71b1 e3bd e2cf 5e3d 9ac0 49bd
00000200: 2ae1 cc3d 77f7 943d a98d a73d 4425 ee3d
00000210: c4ea ce3d b685 b0bd 034e 3b3c bbe2 c3bd
00000220: 6e53 a6bd 9249 8abd 9990 fdbd 4097 583e
00000230: ca44 f8bd 00c7 da3c 6890 503d 010c 10be
00000240: 981d d5bd dcbe af3d 3f90 b1bd 227e 8a3d
00000250: 1e26 e6bd e631 34bd 975d 97bd 8a61 4d3e
00000260: a934 663d 937f 91bd 9f79 78bd 942e 4e3d
00000270: d342 c7bd 3db2 263e be98 0cbc 0678 19bb
00000280: 90ef 433d 2556 81bd 683d 573d 73b3 033e
00000290: 5c07 2abd 297b 02bd 5641 7c3c fc0e 5c3e
000002a0: 7118 d93c 9299 1bbd 0ecf 663d c69d 0ebe
000002b0: a85a 2a3d e0d5 543d 54b3 713d 3473 063c
000002c0: f19f c5bd 4038 ca3c 6b42 89bd 151c 8bbd
000002d0: b7c3 febd 3832 34bd 0fa2 cebd 795a 8e3e
000002e0: d388 34bc 98bb 8d3e d8be ffbc 5b34 14be
000002f0: fd44 033e ad74 2e3c 958a 1abc 8247 d8bd
00000300: b208 6cbd e609 c53d 81f3 dc3d 69be dabc
00000310: 6c07 e03d 6884 8e3e 53ea 0e3e 6991 2abe
00000320: da24 ffbc 1de6 903d 7247 05bd d3c1 e7bd
00000330: 4e80 8cbd 4ccf f4bc acb2 6d3d 33ce 09be
00000340: 5084 13be 5526 63bd 1e91 4d3e 0a9c 64bd
00000350: 809b ce3d bd39 ee3d 0329 453e d5e1 16be
00000360: 328c d6bd a811 e03d 398c 083e 3dfd 203e
00000370: 20a6 bbbd 502b a2bd 1ee9 ccbd 3000 5d3d
00000380: d404 643d d1cd 873d d234 253d 7c46 a9bd
00000390: f82e 813c 0641 10be f1ec 8e3c 9ae4 b33d
000003a0: e6c2 49bd ec24 f1bb 24d5 923b 77b9 a33d
000003b0: 83aa d6bd fe52 91bd 46ff da3d 344f 5a3c
000003c0: 893d 593b 1d3f a83d ce7f 7bbc 04ae 063d
000003d0: b028 dfbd 05ec 0c3e a8a1 323e 0545 f2bd
000003e0: dba5 da3d ba3a d4bc 163a fa3d d799 0dbe
000003f0: 988e d93c 9b31 393d 42b1 b63a 8232 7e3d
0.050886076 0.11469403 0.037097916 0.057018995 -0.044830687 0.050317153 -0.077582434 0.02770842
-0.01335831 0.1129214 0.05546953 -0.03198179 0.055489566 -0.012782142 -0.12618557 -0.11697976
0.116111785 0.11791472 -0.067183025 -0.1458556 -0.08475252 -0.02116222 -0.13630427 -0.104435205
-0.040737413 0.12960784 0.27353963 0.039061036 0.064074926 0.10857711 0.11857642 0.044055462
0.06329084 -0.04360599 -0.104714006 -0.09069999 -0.025447309 -0.12586391 0.023955386 -0.033987843
-0.072972216 -0.08656214 -0.085825704 0.07999277 -0.120104566 0.06566517 0.022380598 0.23745027
-0.093573764 0.09826298 -0.07080304 -0.0074048936 0.011136082 -0.092567466 0.08485584 0.26606172
-0.09036778 -0.09736487 0.10061624 0.0076090246 -0.0885406 -0.048684247 0.09882118 0.10408143
0.06413955 0.03951566 -0.092534155 0.21057741 -0.053670563 0.0077346563 0.14524525 0.123397276
-0.09833538 0.03026448 -0.039017748 0.0073247766 -0.12518348 -0.08204443 0.051225178 0.0024185914
0.09485457 0.21175624 0.23910972 -0.06915341 0.07547763 0.046829462 0.054779407 0.14739372
-0.14310874 0.18021223 -0.13107254 0.088796094 -0.06804166 0.045919746 0.0028199942 -0.1353985
-0.10793299 -0.100310355 0.31812003 -0.15090616 0.032970384 0.02858488 0.00082556903 0.016636044
-0.11390931 -0.0559346 0.05490864 0.10931343 -0.07386348 -0.09151021 -0.05177044 0.105555154
0.046316892 0.09349233 0.035108224 0.005532056 -0.13467523 0.12229954 -0.116285905 0.09671491
-0.118230164 0.09185097 0.096040726 -0.13740718 -0.014753506 -0.11117829 0.05439747 -0.049255945
0.10003884 0.07273763 0.081813164 0.116282016 0.10103372 -0.08619253 0.011432174 -0.0956473
-0.08121382 -0.06752314 -0.123810954 0.21151447 -0.121224955 0.026706219 0.050918967 -0.14067079
-0.10406035 0.085813254 -0.08670091 0.06762339 -0.11237739 -0.0439929 -0.07390898 0.2005674
0.056202564 -0.07104411 -0.060662862 0.05033739 -0.097295426 0.1627893 -0.008581338 -0.0023417487
0.047835886 -0.06315259 0.052548796 0.12861423 -0.041510925 -0.031855736 0.015396437 0.21490091
0.026500912 -0.037988253 0.056349806 -0.13927373 0.041590363 0.05196178 0.05900891 0.0082061775
-0.09649647 0.024685025 -0.06702121 -0.067924656 -0.124396734 -0.043993205 -0.10089504 0.278034
-0.01101895 0.27682185 -0.031218931 -0.14473097 0.12819286 0.010647935 -0.009432455 -0.10560514
-0.05762548 0.096210286 0.10788632 -0.026702123 0.109389156 0.27835393 0.13956575 -0.16657032
-0.031145502 0.070751406 -0.03253884 -0.11316266 -0.0686041 -0.029884003 0.058031723 -0.13457565
-0.14405942 -0.05545648 0.20074889 -0.055812873 0.10088253 0.116321065 0.19253926 -0.14734586
-0.10475959 0.10940868 0.1333474 0.15721603 -0.09162545 -0.079184175 -0.10005401 0.053955257
0.055668667 0.06631053 0.040333577 -0.08265397 0.015769467 -0.14087304 0.017446967 0.08783837
-0.049258135 -0.0073591378 0.0044809747 0.07994359 -0.10481741 -0.07095908 0.10693221 0.013324548
0.003314825 0.08215163 -0.015350295 0.032880798 -0.108964324 0.1376191 0.1744448 -0.11829571
0.10676166 -0.02590691 0.1221811 -0.13828216 0.026557252 0.045213323 0.0013938325 0.062059887

FC2.weight f4 [128, 256]
00000000: 850c 2fbd 1883 febc d801 91bc ac7a 59bd
00000010: 2f5d efbb ae86 b7bc 04c1 6e3c 3eee 183d
00000020: d68e 243d a0d1 5abc 821e 28bd 5652 4bbd
00000030: d858 3ebc 4a24 4f3d c1aa 92bd de62 2abd
00000040: ed57 c3bc d05a 26bc 00ff 24bd 2737 34bd
00000050: 6bde b13c 8085 7dba 14d0 7e3d e836 6e3c
00000060: 20f3 18bb 9861 0b3c 10f7 acbc bd0c d7bc
00000070: 0b16 86bd 75c7 3abd 2472 7b3d f882 8dbc
00000080: 2455 96bc 12a7 7bbd 32ec 74bd 0c6b 31bd
00000090: 2c75 353c a08a 2c3b 3aff 493d a8b0 fc3c
000000a0: f0e3 6b3c 70c9 4c3c a0e2 313d 85b3 263d
000000b0: 2e18 33bd 0834 bc3c a0cb 503c 5d12 4abd
000000c0: 247e 703c ddce 99bc b51a bd39 f89d 17bd
000000d0: a920 59bd 4002 d73a 78a0 453d 5a15 82bd
000000e0: c84b 46bc cab1 293d 6162 263d 9c61 08bd
000000f0: f4cb 083d b0d3 e8bc 708a 0abd 6f3f bf3c
00000100: e969 48bb c944 383c 4682 433d d66a 3a3a
00000110: 8e31 dc3c 70aa 9e3b 5986 b6bc 3831 b4bc
00000120: 1c6b 2abd 0162 3bbd f028 9abc a6ec 1c3d
00000130: 43a4 05bc 33f1 6c3c 43b1 92bc 32a5 d1bc
00000140: 1447 b03c ed45 18ba a930 58bc bb49 1d3c
00000150: fd8e 483d 09e2 97bc 0523 d73b 44d4 25bd
00000160: 2814 3bbd 4a07 93bd cd51 2e3d 5821 1d3c
00000170: 40a2 e5bc 4ca4 3a3d cb21 cb3c 222d 4ebd
00000180: 9e06 69bd c6c7 e73c d92e 09bd 532d 92bb
00000190: 7f47 563c c86f 90bd 12fc 4bbd e53a 19bd
000001a0: 57db 02bd 56b9 26bd 2646 ef3b 3e83 5a3d
000001b0: da20 40bd 36be ba3c e890 6c3c d187 d7bc
000001c0: 60df 843b 44b4 683d 8039 81ba d008 d03c
000001d0: 6fb6 ffbc bcad 9bbc bc4c 963c 77fc 3b3c
000001e0: a0d3 5cbc d2d1 5cbd ada4 4cbd 3daf bc3c
000001f0: 98a9 26bc 2e7e 1c3d ff55 453d 32f9 94bd
00000200: 505a 263c 3d3d 0d3d 303d 953c 39d1 9db9
00000210: 106e 85bb 2c5e 81bd c3be 14bd eeb6 6ebd
00000220: 50f8 84bd db91 733d dc15 22bc 819b 7cbd
00000230: 7dde ac3b ccf4 2fbd b609 863d 5c55 4dbd
00000240: e013 9e3c d833 5a3d 58ba 44bc 583b 8bbd
00000250: 0010 223b 7e98 78bc 718d 0d3d 57c7 1cbd
00000260: 69d2 fc3b 589a 2c3d b350 eabc f89f 263d
00000270: 02b5 a53c 6cbe 443b ce35 963a f2bb 863d
00000280: aa9e 79bd d455 cbbc 3e8a 773d 00d6 02bb
00000290: e828 fcbc 7d49 b8bb 3baf 1dbd cee0 f2bb
000002a0: 90d4 23bd 148e e13c de5e 81bd 80a0 d63b
000002b0: 14f1 2a3d 00c2 4d39 b843 2dbd a44c e5bc
000002c0: c94b 62bd 54ff 43bd 5600 793d d45a 7fbd
000002d0: 2e3a 55bc 043c 7cbd a005 12bd dd32 123d
000002e0: 935a b7bb 7b84 b3bd 681e 5abd 80dc 32bd
000002f0: 12ed 393d e09d c2bb a4d4 34bd ada7 30bd
00000300: 10d4 7fbc 886f d6bc 60e5 713d c567 ffba
00000310: ec94 fe3c 060d 5bbd 2a59 4c3d b5e6 c7bc
00000320: e5cd b2bc 6c30 483d 085c f0bc c0ac dbbc
00000330: 6a37 1fbd 5804 e73c ae53 2dbd 6c2b 58bd
00000340: d58e 123c d71d ca3c 0d87 27bb d1b3 d73c
00000350: 3eb3 413d b558 6ebd fedc 87bd c833 1fbd
00000360: e027 a93c e546 c93c 424f e23b 87f2 48bd
00000370: e786 463d 269f 41bc a8db 03bc f061 e6bc
00000380: b27b 653d 7823 58bc 3915 253d 1b11 563d
00000390: 34ab 75bd 5744 223d e83f 30bd 63af 06bc
000003a0: 764f 363d e294 12bc a083 2a3d 047c 283b
000003b0: 5883 e13c 507d 7dbc 4c87 efbc a89c 87bd
000003c0: 22f8 10bd b886 103d b6bd e13c d9e9 0e3d
000003d0: 5cc9 d73c 6857 36bd e6fc 10bd a086 11bb
000003e0: ad62 1d3c c5cc babc e4af a9bc 1954 66bd
000003f0: 9b52 22bd f5ff 3d3d 7360 dc3c b1dc 43bb
-0.04273655 -0.03106837 -0.017701074 -0.053095505 -0.0073048095 -0.022403087 0.014572386 0.03733658
0.04017528 -0.013355643 -0.04104472 -0.04963907 -0.011617862 0.050571717 -0.07161475 -0.041598193
-0.023845637 -0.010153487 -0.04028225 -0.04399791 0.021712502 -0.0009671077 0.062210158 0.014539458
-0.0023338273 0.008507155 -0.021113902 -0.026251191 -0.06547173 -0.045600373 0.06138815 -0.017274365
-0.018351145 -0.061438628 -0.059795566 -0.04331498 0.011075299 0.0026327744 0.04931567 0.030845955
0.014397606 0.012499198 0.043429017 0.040698547 -0.04372423 0.02297403 0.0127438605 -0.04933392
0.014678512 -0.018775398 0.00036068787 -0.037015885 -0.053009663 0.0016403869 0.048248738 -0.06351729
-0.012103029 0.04142932 0.040621165 -0.033296213 0.03339763 -0.028421253 -0.03382343 0.023345677
-0.0030580705 0.011246868 0.04773166 0.0007111257 0.026879098 0.004842095 -0.022280859 -0.021996126
-0.041606054 -0.04574776 -0.018818349 0.038311623 -0.008156839 0.014461803 -0.01790679 -0.025591467
0.021518268 -0.00058087596 -0.013195195 0.009600098 0.04896449 -0.0185404 0.006565454 -0.040485635
-0.04567352 -0.07179125 0.04255848 0.009590469 -0.028031468 0.045566842 0.024796387 -0.05033601
-0.056891076 0.028293502 -0.033491943 -0.0044609695 0.013078569 -0.070525706 -0.04980094 -0.03740968
-0.03194746 -0.040704094 0.0073020635 0.05334782 -0.04690633 0.022795778 0.014438845 -0.02630988
0.0040549487 0.05681254 -0.0009859055 0.025394827 -0.03121492 -0.019003741 0.018347137 0.0114737665
-0.01347819 -0.053911038 -0.049961735 0.023032779 -0.01017227 0.03820627 0.048177715 -0.07274093
0.010153368 0.03448223 0.018217653 -0.00030101257 -0.0040719584 -0.0631679 -0.036314737 -0.058279924
-0.06492674 0.05946527 -0.009892907 -0.061671738 0.005275546 -0.042958066 0.06544821 -0.050130233
0.019296587 0.0532721 -0.012007318 -0.06798428 0.0024728775 -0.015173076 0.034558717 -0.038276043
0.0077155125 0.04213938 -0.028602934 0.0406799 0.020227913 0.0030020727 0.0011460127 0.065788165
-0.06094233 -0.0248212 0.060434572 -0.001996398 -0.030781224 -0.005623995 -0.03849719 -0.0074120527
-0.039997637 0.027533568 -0.063169226 0.006549895 0.041733816 0.00019622594 -0.04230091 -0.027990647
-0.055248056 -0.04785092 0.060791336 -0.06234248 -0.013014359 -0.061580673 -0.035649896 0.03569304
-0.005595514 -0.08765503 -0.053251654 -0.043667316 0.045392103 -0.0059392303 -0.044148102 -0.043128658
-0.0156145245 -0.02617623 0.05905664 -0.0019485882 0.03107687 -0.053479217 0.04988972 -0.024402002
-0.021826694 0.048874304 -0.029340759 -0.026815772 -0.038871206 0.028200313 -0.04231613 -0.052775785
0.008945187 0.024672432 -0.0025562674 0.02633086 0.04729008 -0.058190066 -0.06633948 -0.03886774
0.020648897 0.024569938 0.006906421 -0.049059417 0.048468497 -0.011817729 -0.008047976 -0.028122872
0.05602617 -0.01319205 0.040303443 0.052262407 -0.059977725 0.039615955 -0.043029696 -0.008220526
0.044509374 -0.008946629 0.041629434 0.0025708685 0.02752845 -0.015471771 -0.02923932 -0.06621677
-0.035392888 0.035284728 0.027556282 0.034890983 0.026341133 -0.04451695 -0.035397433 -0.0022205487
0.009606046 -0.02280272 -0.020713754 -0.056232546 -0.03962956 0.046386678 0.02690146 -0.002988618

FC2.bias f4 [128]
00000000: 2904 82bd 9499 84bd b82e e1bc 6710 a4bd
00000010: c15b 24bd 4df2 7f3b d70c 7abd b44e 0b3d
00000020: 8c9d 8c3c b536 98bd 602e a6bd 8b4d 02bd
00000030: ada5 acbd 410d ecbc 2116 62bc ce2d 16bd
00000040: 95dc b5bd af9e f93d 882f c1bc 1a82 a3bd
00000050: baef 143e 26d1 4a3c b7ea 853d 3e86 16bd
00000060: 253d 5e3b 2a9f 87bd 1214 b6bc 93ce aabc
00000070: c1e8 5abd db32 acbd ed99 41bd 3c2d d13c
00000080: 740a b1bc 4c54 bfbd 8ee4 81bd 0b9d 1ebc
00000090: 55df 94bd 5618 cebc c635 fc3c 79a7 3bbd
000000a0: 5add 6ebd 65b4 12bd 97ed 153d 92ec 5f3b
000000b0: c0b2 32bc 020c 20be d59a 34bd fb3d 673c
000000c0: 7e0f b9bb 39d2 443d 8a6e 9c3c e048 bdbd
000000d0: 0e83 45bd 3ed7 ebbd 24b6 c0bd 15d4 21bc
000000e0: 28d5 073d 9bc7 64bc 5a8c 52bd e41a f03e
000000f0: d4f4 b5bd e428 3dbd d788 3f3b aeb5 82bd
00000100: 3ee5 0dbc 3940 3cbd 698a c6bd 160e 9ebd
00000110: 5fb1 9cbd 8b2e acbd eca9 d73c 12af f7bc
00000120: 6207 e73d 658d b3bd 0f71 27bd 02ab 14bd
00000130: ecab 91bd 7bc4 693c 3db2 19bd 410f d3bc
00000140: 64b5 d0bc f51c 9dbd 7aec 113d 0914 5ebd
00000150: 95a7 8dbd 80e8 a6bd 9377 10bd 6b8e 923c
00000160: 8777 5d3e ef4c 3abc 165b eabb cdb9 88bd
00000170: abc2 87bd 8220 6b3e e89c 193d 0f3b ffbc
00000180: 5a9b 94bc ac50 b8bd d9f1 8f3c 3112 c23d
00000190: bc05 a2bc 5dc6 593e f9a8 77bd f0d6 dabd
000001a0: 12a4 0d3d 3a05 833c 0c96 bbbc 447d 7b3e
000001b0: 6f1c 5d3b 1d04 3cbd a56c 36bd f00a 6bbd
000001c0: 73d8 60bd dd22 633e 1deb cdbd 7372 fc3c
000001d0: f0ef 87bd 426e d6bc af0e c6bb def9 94bd
000001e0: d676 15bd a155 2f3b 7bf0 3c3c 8247 59bc
000001f0: 62e3 2e3e 1e1c 6f3c 076b 28bd 9713 cdbc
-0.0634845 -0.06474605 -0.027488098 -0.08010941 -0.040126566 0.0039054335 -0.0610474 0.034010604
0.017164968 -0.074323095 -0.08114314 -0.031812232 -0.08430038 -0.028814914 -0.013799221 -0.036664777
-0.08879963 0.121884696 -0.023582235 -0.07983799 0.14544573 0.012378966 0.06538909 -0.036749117
0.0033910957 -0.06622155 -0.022226367 -0.020850455 -0.053444628 -0.084081374 -0.047265936 0.025534265
-0.02161143 -0.0934225 -0.063424215 -0.009680997 -0.0726916 -0.025158089 0.03078736 -0.04581401
-0.058316566 -0.03581657 0.036603536 0.0034168107 -0.010906875 -0.1562958 -0.04409297 0.014113898
-0.0056475988 0.048052046 0.019095678 -0.092424154 -0.048220687 -0.115156636 -0.094097406 -0.009877224
0.033162266 -0.013963605 -0.05140338 0.46895516 -0.08884588 -0.046181574 0.002922585 -0.06382309
-0.008660613 -0.045959685 -0.096943684 -0.077175304 -0.07651018 -0.08407315 0.026326142 -0.030234847
0.11280705 -0.08767203 -0.040879305 -0.0362959 -0.071128696 0.014268036 -0.037523497 -0.02576411
-0.025477119 -0.07671539 0.035625912 -0.054218326 -0.06916729 -0.081498146 -0.035270285 0.017890176
0.21627627 -0.011370881 -0.0071519716 -0.06676064 -0.06628927 0.2296162 0.037503153 -0.031156091
-0.018140484 -0.08999762 0.017571377 0.09476126 -0.019778125 0.21267076 -0.06046388 -0.10685527
0.034580298 0.015993703 -0.022898696 0.24559504 0.0033738872 -0.04590236 -0.044537205 -0.057383478
-0.054893922 0.22181268 -0.1005461 0.030816292 -0.06637561 -0.026175622 -0.006044231 -0.07274221
-0.036490284 0.002675392 0.011531944 -0.013261678 0.17078927 0.014594106 -0.041117694 -0.025033755

FC3.weight f4 [2, 128]
00000000: 04df 90bc 4449 863d 6187 9d3d cfc2 1e3b
00000010: eb4c 63bd 4d17 5abd 1348 1b3c 89a6 00bd
00000020: a2a0 1abd 95d9 b73c 17f2 18bd 9645 4ebd
00000030: c68b 92bc 4755 6c3d 9286 10bd f8ff 9dbc
00000040: 4ad6 ddbc 0fde 853d ca84 573d e8c3 343d
00000050: 7819 f33c 0cd6 02bc aeb1 293d 0bd5 a23d
00000060: 3155 e2bc 4427 d13c ec9e 933c dbf1 d0b9
00000070: 6cef 3a3d a80a 3dbd 7954 9b3c f048 f2bb
00000080: ca0f e73c 53cc a03c 35f5 09bd 9e1f 23bc
00000090: 52f2 713c e947 293d 0d9d 913d 5187 a03c
000000a0: 70de 86bd 22b2 31bd 6d05 4e3d 840b 67bd
000000b0: c184 2d3c 373f 273b 17e7 92bd 0554 79bd
000000c0: e7f3 503c 7191 a23c 5d20 7ebc 6db0 b8bc
000000d0: ecba 84bc b13b 47bd a246 f73b 7fd8 71bc
000000e0: f4e4 a8bd b7ec 7cbc d71a 08bd 8219 5d3e
000000f0: da98 573d f5d8 093d f13a 24bc bc5f 453d
00000100: 091b c13a a2d9 3abc 1422 333c 2191 0dbd
00000110: 78d9 4f3d b585 61bb 5e0a 9f3c acdc 76bb
00000120: d700 42be 319d eb3b 73ab 923c cc5a b8bc
00000130: 89d1 de3c ef1d 843d 36c8 e8bc d04b f6bc
00000140: 9924 8b3c 20dd 25bc 2054 67bd f414 8fbd
00000150: 50df 5cbc bc91 81bc 60e4 5dbd fd98 193c
00000160: c77c 143e 57cf 9cbc d577 8cbd 2e03 d93c
00000170: 8598 3abb 0095 f53a f721 4b3c de6a e4bc
00000180: b84a 953d 4f80 25bd 6a23 243c b479 2d3d
00000190: 6e15 bd3d 2f67 4f3d 63b2 3cbc fe08 eebc
000001a0: d282 84bd 6013 fe3b 96fb ecbc eee6 8d3d
000001b0: af01 103b 9475 c3bc b0e3 2bbd 3c29 49bc
000001c0: d490 373d 0623 143e 6066 833c ec13 25bc
000001d0: 10df 733d fe11 aabb 4f42 fe3c 1f8c e73b
000001e0: c54a c939 2b99 7abc 1dbb 513d 0298 0c3c
000001f0: 2afc ea3a 48e5 313c 6ddf 55bb 90df 1f3d
00000200: f8c5 003e e545 183d 46ea 413d 9299 533d
00000210: 1f49 42bd efa4 fe3b 8692 9ebd bb77 45bd
00000220: 221d 753d 6963 d7bc 25af f9bc d9cf a7bd
00000230: f7b7 18bc f05c 84bd 58f8 1bb8 d6a5 9e3d
00000240: aae6 613c 6cac 973d ba97 263d 6efb a23c
00000250: c386 d4bc 9068 8c3c 262f ca3c 8386 abbd
00000260: 5735 b2bc 1129 f3bc 6a43 c33d 0bd1 febc
00000270: 5045 8b3c 222f 6d3d d2c8 74bb b649 5cbd
00000280: 61ae 343d f517 693d 2a97 98bd c5ad b13a
00000290: 1d3a 65bd 17df 8d3c 105a ca3b cc34 d03c
000002a0: 7c43 8e3c 8a57 02bd af17 adbc 627c 84bd
000002b0: dbef 963d e490 2cbd 24c1 71bc ed34 69bd
000002c0: 1db4 bebc bd8c 92bd f698 a2bd 3114 81bd
000002d0: 0f2c 953c 47e7 423e 7160 8ebd 67e7 19bc
000002e0: 467d 2d3d 08c5 2bbd 87d4 0cbc ee34 a53d
000002f0: bdef bd3b 761f 8fbc e435 8c3d 5c21 5a3d
00000300: 9a47 253c 8879 4e3c 4b01 02bd 8d59 d1bd
00000310: 9225 763d bab5 57bb 0eee 953c 15fe 62bd
00000320: 8fbd 46be 5551 2f3d 76b0 913d 3b0e 0a3e
00000330: 7550 afbc a295 10bd aa4d a9bc b1d4 a83b
00000340: cdbe 863d dbab dd3c 03d9 34bd b396 1c3d
00000350: 7cac 983c 8cc5 293d 710d 3bbd ea1b 26bc
00000360: f81b d9bc ed5d abbb 319b 8fbd a122 39bd
00000370: 8f42 50bf 8843 80be 45e2 dbbc 5347 4dbd
00000380: 5cb8 14bd d9c8 b3bd 89b2 b3bc 2bff b73d
00000390: 5985 32bd edd1 17be 9ee6 c73d 6d1d ccbb
000003a0: 107e aa3c 68be 5c3d 0646 a2bc cc53 c23d
000003b0: 9b8a 113d d76a 86bc ca3a b3bd c53e a5bc
000003c0: dae5 813d fca5 bfbd 5606 46bd 9c95 64bd
000003d0: 7a04 7e3d d503 183c f7eb 873d 0d92 f7bc
000003e0: eea2 35bc c9af 2cbd 09d5 49bd 5975 0bbc
000003f0: 1cd9 c4bf bc36 6d3d 39b5 223d f18b 45bd
-0.017684467 0.06556943 0.07691837 0.0024225002 -0.055493277 -0.053244878 0.009477633 -0.03140882
-0.037750848 0.022442618 -0.03734025 -0.05035933 -0.017888915 0.057698514 -0.035284586 -0.019287094
-0.02707972 0.06536495 0.052616872 0.044132143 0.02967523 -0.007985603 0.041429214 0.07950791
-0.027628513 0.025531419 0.018020116 -0.00039853048 0.045638487 -0.04615274 0.018961178 -0.0073939487
0.028205771 0.01962868 -0.033681113 -0.009956269 0.014767246 0.041328344 0.07110033 0.019595774
-0.06585395 -0.04338277 0.050298143 -0.056407467 0.010590733 0.0025519857 -0.07172983 -0.060871143
0.012753463 0.019844742 -0.015510646 -0.022545064 -0.016202413 -0.04864091 0.007546262 -0.014761089
-0.08246794 -0.015437297 -0.03322872 0.21591762 0.052636005 0.033654172 -0.010023818 0.048187003
0.0014732789 -0.011404427 0.010933418 -0.034562234 0.050744504 -0.003441197 0.019414123 -0.0037668152
-0.18945633 0.0071903695 0.017904019 -0.022504233 0.027199524 0.06451022 -0.02841578 -0.030065447
0.016985225 -0.010123521 -0.056476712 -0.06986418 -0.013480976 -0.015816562 -0.054172873 0.009374854
0.14500724 -0.019141836 -0.06858794 0.026490774 -0.0028472256 0.0018736422 0.012398235 -0.02788299
0.07289642 -0.040405568 0.010018209 0.042352393 0.09232603 0.050635513 -0.01151714 -0.029057022
-0.064702645 0.0077537745 -0.02892856 0.06928812 0.002197366 -0.023859777 -0.041965187 -0.012277897
0.044815853 0.14466485 0.016040027 -0.0100755505 0.0595389 -0.005190133 0.031037478 0.0070662643
0.00038393415 -0.015295307 0.051203836 0.008581163 0.0017927934 0.010857888 -0.0032634393 0.039031565
0.12575519 0.03717603 0.04734256 0.051660128 -0.047433015 0.0077711265 -0.07742791 -0.048209887
0.059842236 -0.02629252 -0.030479023 -0.08193941 -0.009321204 -0.06463039 -3.7186168e-05 0.077464744
0.013787905 0.07405934 0.04067204 0.019895282 -0.025943166 0.017139703 0.024680685 -0.083752654
-0.02175395 -0.029682668 0.095343426 -0.031105539 0.017000824 0.057906277 -0.0037351144 -0.053781234
0.044111613 0.056907613 -0.07450707 0.0013555816 -0.055963624 0.017318292 0.006175287 0.0254158
0.017366163 -0.031821765 -0.021129457 -0.06469037 0.073699676 -0.042130366 -0.014755521 -0.05693524
-0.023279244 -0.0715575 -0.07939331 -0.06302679 0.018209485 0.19033538 -0.069519885 -0.0093935495
0.0423558 -0.04193595 -0.008595592 0.08066736 0.0057964013 -0.017471056 0.06846216 0.05325447
0.010087872 0.0126022175 -0.031739514 -0.102221586 0.060094424 -0.0032914714 0.01830199 -0.055418093
-0.19408248 0.042802174 0.071137354 0.13481991 -0.02140067 -0.03529895 -0.020666916 0.005152308
0.06579361 0.027059486 -0.04415227 0.038229655 0.018636934 0.04144816 -0.045667116 -0.010138491
-0.026502594 -0.0052297027 -0.07012022 -0.04519904 -0.8135156 -0.25051522 -0.026841292 -0.05011685
-0.03630863 -0.08778543 -0.021935718 0.08984216 -0.0435842 -0.14826174 0.097607836 -0.0062290938
0.020812064 0.053892523 -0.01980878 0.09488639 0.035532575 -0.016408367 -0.087514475 -0.020171532
0.06342669 -0.09357831 -0.048345886 -0.05580674 0.062015988 0.009278257 0.066368036 -0.03022101
-0.011086209 -0.04215983 -0.04927543 -0.008511865 -1.5378757 0.057913527 0.03972361 -0.04822916

FC3.bias f4 [2]
00000000: a2c1 f03e ee84 bcbc
0.4702273 -0.023012605

FC1.weight f4 [256, 50]
00000000: aa73 ef3c 89bb d63d f6ef 1bbd c54f 05be
00000010: 5e95 18be 7cd7 813d b778 b23c ee63 14be
00000020: 1d33 9f3d 87a1 00be 6fc2 b03d 3628 9cbc
00000030: a708 a1bd 6d4a 923d 55bf 143b 65bd 1f3d
00000040: 9d66 8cbd 348b ffbd 1d21 89bd 0309 e4bd
00000050: 56be 293c 772e b53d e71b 3c3d fd7f 01bd
00000060: 8216 683d 5dae 183c 9367 e1bd 05c4 943d
00000070: 48c1 bbbd c9cc 503d 011e 543d 4086 cc3d
00000080: 90ba cf3c 1929 45bd 7441 043d 0ed4 9fbd
00000090: 4129 cfbd 42c3 dfbd 26e3 203d fd76 0fbe
000000a0: 783e 433d 5784 22bd 6cca 053c 204b 4d3d
000000b0: 2611 aa3c 49ef 44bd f8f9 c33c 0f58 a3bb
000000c0: 7ec8 10be ffd7 b53a 98c5 c63d 94bc f0bd
000000d0: df6f b13b e57d 02bc fe2e 1bbd 0a6a 55bd
000000e0: 3464 f9bd 2e9b a93d 08b3 cd3d e3c1 ff3d
000000f0: ed0e 05be 78c9 c93d dce3 f4bd 539b 68bd
00000100: e91e c8bd b972 ccbd 739d e4bd 18f4 38bd
00000110: 290f 543d 23b7 6dbd 3fe9 afbd 45c2 8dbc
00000120: 6a75 5dbd f28c d4bd 6ffe a6bd da6c dabd
00000130: 1e32 1bbd 994a cebc 3362 713d b9dc 4bbc
00000140: eb0b e0bd 0b8a f13d 627c e33d 7bca e6bd
00000150: 8894 b7bd 5a6c d8bd 640b 7abd c1cf df3d
00000160: c1bc de3c 1094 b2bd 2e68 a53c adcf 9a3d
00000170: b135 d53d 2797 b53d 7f28 b33d 5525 04be
00000180: 4249 eb3d 6915 d43d 053d 9e3d 307e b2bd
00000190: 684d a4bd 2ed7 fbbd 489f 8b3c 3696 0ebe
000001a0: 80cf 763b b048 ca3d f3ec dbbd 88eb d7bd
000001b0: 0ec0 37bd 3052 c0bd 006c ba39 208b b23c
000001c0: dcfd e1bc eb10 95bd 7a92 81bd 7a62 fa3d
000001d0: 705b 043c 6ffc 043e be71 c8bd 7c24 f1bd
000001e0: 3cd5 fcbc 6a7c c7bd 7abb f0bd 349f bdbc
000001f0: 92fa 1dbd 87e3 d0bd ac26 97bd 20ff 00be
00000200: fc42 fdbd b602 22bd a040 abbd 5ab6 f63d
00000210: a080 113c 7b52 61bd b065 d93c c88d 8e3c
00000220: 2aa5 ca3d 8066 c4bb 5716 ac3d 48c8 a63c
00000230: e8a7 f93c 1eab df3d 8020 28bc 2aee 29bd
00000240: 90d1 ce3d 1fb9 8cbd e2e0 bdbd fa93 f73d
00000250: 643e dcbd f244 983d 20ed 8dbb ac11 4abd
00000260: 2084 09bd 008d 40bc be46 dfbd 1c72 b6bd
00000270: 4498 093d 4819 493d 7e45 dabd 1f4d c1bd
00000280: 4c69 c73d 30f2 683d 7110 8abd bbc8 c2bd
00000290: fdfc 023e db2f a1bd f801 5e3d e49f 08bd
000002a0: 9ef3 f73d 355c 8ebd a855 963c 3c22 123d
000002b0: c045 6a3c 8937 c2bd a472 c4bc 089d fe3c
000002c0: 04cb 33bd f422 9a3d 5077 74bc f425 c03d
000002d0: 1293 45bd b385 063e fab6 02be 860b adbd
000002e0: 6596 093e 48e1 07be 325d 07be 2ba5 0d3e
000002f0: 7469 31bd 9003 31bd da01 9cbd e976 07be
00000300: 8ead b93d c2a4 9e3d d4fd a0bd 06f3 59bd
00000310: 4e3f cd3d d2df 77bd c062 cf3d 244e 66bd
00000320: 2663 14be 9db8 0fbe be0f 9bbc 4e2f 16bd
00000330: 2f17 a6bd 7879 35bd 7796 2cbd c7bf b53c
00000340: 8519 8dbd 35bb 903d fb71 fb3d b4cc 8b3d
00000350: fb58 fb3d 05ba 05be 86e4 19be 10e5 ca3d
00000360: 54d1 f8bd 5e58 1ebe 5e16 90bd ebd3 793d
00000370: bba3 7a3d fa9f d2bd 8dae 9f3d bc07 fbbc
00000380: 74bd 003e 53a5 773d 8610 9bbc 4520 0fbe
00000390: 2e6d a03d e955 dc3d 36bd 18be 4695 213d
000003a0: 6356 61bd 58ff b3ba df84 a1bd c59b 09bd
000003b0: a5e4 0dbe 8fa5 adbd 5515 0fbe b71f 2cbd
000003c0: 05a0 9a3d 324c e43d a4f1 0f3d 0f9a b13c
000003d0: dd97 09be e778 b93d d74e 2dbd 910d d73d
000003e0: 8f24 b63d a7bb b13d 0ac2 d7bd 2063 30bc
000003f0: a1f6 583c 16c0 17be 71ad c0bd a74f aabd
0.029229958 0.10484988 -0.03807064 -0.13018711 -0.14900729 0.063399285 0.021786077 -0.14491245
0.07773421 -0.12561618 0.08630835 -0.019062143 -0.078629784 0.07143102 0.002269705 0.03899898
-0.068555094 -0.12477723 -0.06695769 -0.11134531 0.010360321 0.08846753 0.045925047 -0.0316162
0.05666209 0.009318915 -0.11006083 0.0726395 -0.09167725 0.05097655 0.051786426 0.09986544
0.025357515 -0.048134897 0.032288983 -0.07804118 -0.101152904 -0.10925914 0.039279126 -0.14010234
0.047666997 -0.03967699 0.008165937 0.050120473 0.02076013 -0.048079763 0.023922905 -0.0049848626
-0.14138982 0.0013873576 0.09705657 -0.117547184 0.0054149474 -0.007964586 -0.037886612 -0.05210308
-0.12177315 0.08281551 0.10043913 0.12488153 -0.12993975 0.0985288 -0.11957523 -0.056788754
-0.09771521 -0.09982819 -0.111628436 -0.04515466 0.05177227 -0.05803598 -0.0858941 -0.017304549
-0.054067053 -0.10378446 -0.08153998 -0.10665293 -0.037889592 -0.025182055 0.05893154 -0.012442761
-0.10939773 0.11793908 0.111077085 -0.11269089 -0.08963877 -0.105675414 -0.06104602 0.10928298
0.027189614 -0.08719647 0.020191278 0.07559142 0.104106314 0.08866721 0.087479584 -0.12904866
0.11488582 0.10355646 0.07726482 -0.087154746 -0.080225766 -0.12296902 0.017043725 -0.13924488
0.00376603 0.09877145 -0.10738554 -0.10542971 -0.044860892 -0.09390676 0.0003555715 0.021794856
-0.02758687 -0.072786175 -0.06326766 0.12225814 0.008078441 0.12986921 -0.097873196 -0.11774537
-0.030863397 -0.09740527 -0.11754508 -0.023147203 -0.03856904 -0.101996474 -0.07380423 -0.12597322
-0.12366292 -0.039553367 -0.083619356 0.120464996 0.008880764 -0.0550103 0.026537746 0.017401591
0.09894784 -0.0059936643 0.084026985 0.020359173 0.030475572 0.1092131 -0.010261655 -0.041486897
0.100985646 -0.068712465 -0.092714086 0.12088771 -0.107540876 0.07435025 -0.004331246 -0.04933326
-0.03357327 -0.011752367 -0.10902165 -0.089084834 0.033592477 0.049096376 -0.10657786 -0.09438538
0.09736881 0.056871593 -0.06741417 -0.095109425 0.1279182 -0.07870456 0.054201096 -0.03335561
0.12107013 -0.06951181 0.018351391 0.03567718 0.014298856 -0.09483249 -0.023980446 0.031080738
-0.043894783 0.07526198 -0.014921024 0.09382239 -0.04823596 0.1313694 -0.12765113 -0.084494635
0.13436277 -0.13269532 -0.13219145 0.13832538 -0.04331346 -0.043216288 -0.07617541 -0.13228954
0.09066306 0.07746269 -0.07860914 -0.05321028 0.1002184 -0.060516186 0.10126257 -0.056226864
-0.14490947 -0.14035268 -0.018928405 -0.036666207 -0.08109891 -0.044305295 -0.042135682 0.022186173
-0.06889633 0.07066957 0.122775994 0.068261534 0.12272831 -0.13059242 -0.15028581 0.099069715
-0.12149301 -0.15463397 -0.07035516 0.060993116 0.0611913 -0.10284419 0.07796965 -0.030643336
0.1257227 0.0604604 -0.018928777 -0.13977154 0.078333244 0.107585736 -0.14915928 0.039449
-0.055014025 -0.0013732715 -0.07886671 -0.03359582 -0.13856752 -0.084788434 -0.13972981 -0.042022433
0.075500526 0.111473456 0.035142556 0.021679906 -0.13436837 0.090562634 -0.042311516 0.105006345
0.08893692 0.0867837 -0.10535057 -0.010765821 0.013242395 -0.14819369 -0.09408081 -0.08315974

FC1.bias f4 [256]
00000000: 416e 503d 42e5 ea3d fcf3 173d c08c 693d
00000010: 40a0 37bd 281a 4e3d 6ee3 9ebd 0afd e23c
00000020: d0dc 5abc 5643 e73d 8234 633d 56ff 02bd
00000030: 9a49 633d 306c 51bc 8d36 01be 1693 efbd
00000040: 3acc ed3d 467d f13d 4197 89bd ce5a 15be
00000050: 0792 adbd 645c adbc 5993 0bbe 20e2 d5bd
00000060: 46dc 26bd 34b8 043e 662d 8d3e 05ff 1f3d
00000070: 2c3a 833d 395e de3d 32d8 f23d 8073 343d
00000080: 3c9f 813d 329c 32bd 4c74 d6bd c8c0 b9bd
00000090: da76 d0bc 78e2 00be b83e c43c d636 0bbd
000000a0: 7572 95bd 7e47 b1bd 63c5 afbd 7ed3 a33d
000000b0: 62f9 f5bd 767b 863d 9757 b73c 8b26 733e
000000c0: 08a3 bfbd 683e c93d be00 91bd c0a4 f2bb
000000d0: 3f74 363c 0394 bdbd 7ec9 ad3d dc39 883e
000000e0: 9012 b9bd 8966 c7bd 0010 ce3d 2055 f93b
000000f0: c654 b5bd 2269 47bd c262 ca3d 3129 d53d
00000100: c45b 833d 96db 213d 8c82 bdbd 01a2 573e
00000110: 02d5 5bbd 0073 fd3b 6dbb 143e 8bb8 fc3d
00000120: 0f64 c9bd fbed f73c eed0 1fbd fb04 f03b
00000130: db2f 00be 7f06 a8bd b9d1 513d c581 1e3b
00000140: b043 c23d 61d7 583e ef9c 773e e59f 8dbd
00000150: 4d94 9a3d 57d0 3f3d 1261 603d b5ee 163e
00000160: 7e8a 12be d789 383e cd37 06be bada b53d
00000170: 6d59 8bbd 5816 3c3d 27d0 383b e8a5 0abe
00000180: f90b ddbd 116f cdbd 4352 a43e 0687 1abe
00000190: 4c0c 073d 522b ea3c 006b 583a b448 883c
000001a0: c348 e9bd 3b1b 65bd 3ae8 603d 29e0 df3d
000001b0: 6e45 97bd 0069 bbbd 3e0d 54bd d92d d83d
000001c0: c8b6 3d3d e878 bf3d a4cd 0f3d af46 b53b
000001d0: 55e8 09be 2e78 fa3d 4e27 eebd b012 c63d
000001e0: a822 f2bd af1c bc3d 90b1 c43d f5b3 0cbe
000001f0: b0b8 71bc bbb0 e3bd 49d0 5e3d 19c0 49bd
00000200: 2ae1 cc3d 95f7 943d 2e8e a73d 1226 ee3d
00000210: c4ea ce3d 8085 b0bd 6f4e 3b3c 89e2 c3bd
00000220: 5753 a6bd 3549 8abd 2c90 fdbd 5197 583e
00000230: b444 f8bd 00c7 da3c a190 503d 010c 10be
00000240: 981d d5bd 0ebf af3d 3f90 b1bd 547e 8a3d
00000250: 1e26 e6bd 5831 34bd de5c 97bd c861 4d3e
00000260: 4235 663d 4e7f 91bd 0c79 78bd 942e 4e3d
00000270: 9942 c7bd a6b2 263e 9d98 0cbc ee77 19bb
00000280: d0ef 433d 2556 81bd 683d 573d 73b3 033e
00000290: 5c07 2abd 67c3 f1bc cb41 7c3c 990f 5c3e
000002a0: 0119 d93c 9299 1bbd 2acf 663d cd9d 0ebe
000002b0: a85a 2a3d e0d5 543d 54b3 713d f473 063c
000002c0: d99f c5bd 4038 ca3c 6b42 89bd 151c 8bbd
000002d0: 34c3 febd 3832 34bd 19a2 cebd 04bc 8f3e
000002e0: d888 34bc 781e 8f3e d8be ffbc 4634 14be
000002f0: 1c45 033e 5e75 2e3c 268a 1abc da46 d8bd
00000300: b208 6cbd a00a c53d b9f3 dc3d 1abe dabc
00000310: 0208 e03d cc84 8e3e 53ea 0e3e 4791 2abe
00000320: dc24 ffbc 2de6 903d 7247 05bd d3c1 e7bd
00000330: 9d7f 8cbd 4ccf f4bc acb2 6d3d 33ce 09be
00000340: b683 13be ab25 63bd 7091 4d3e e39b 64bd
00000350: 809b ce3d 623a ee3d 94dd 473e 6ee1 16be
00000360: 328c d6bd 2a12 e03d ac8c 083e b6fd 203e
00000370: f0a5 bbbd 472b a2bd 1ee9 ccbd 3a00 5d3d
00000380: d404 643d 0cce 873d 6635 253d 0746 a9bd
00000390: f82e 813c 8e40 10be 7ced 8e3c c7e4 b33d
000003a0: e6c2 49bd 7c24 f1bb 7dd5 923b b6b9 a33d
000003b0: 83aa d6bd fe52 91bd 46ff da3d f14f 5a3c
000003c0: b93d 593b 863f a83d 447f 7bbc 8cae 063d
000003d0: b028 dfbd 05ec 0c3e 1fa2 323e 0545 f2bd
000003e0: a9a6 da3d 223a d4bc 163a fa3d a599 0dbe
000003f0: f98e d93c cf31 393d f7b1 b63a ab32 7e3d
0.050886396 0.11469509 0.037097916 0.057018995 -0.04483056 0.050317913 -0.077582225 0.027708549
-0.01335831 0.1129214 0.055469997 -0.03198179 0.055490114 -0.012782142 -0.12618466 -0.11697976
0.11611219 0.11791472 -0.067183025 -0.1458542 -0.08475118 -0.02116222 -0.13630427 -0.104435205
-0.040737413 0.12960893 0.275737 0.039061565 0.0640758 0.10857815 0.11857642 0.044055462
0.063292 -0.04360599 -0.104714006 -0.09069973 -0.025447298 -0.12586391 0.023955688 -0.033987843
-0.072972216 -0.08656214 -0.085825704 0.07999323 -0.120104566 0.06566517 0.022380633 0.23745172
-0.093572676 0.09826356 -0.0708022 -0.0074048936 0.011136114 -0.092567466 0.08485697 0.26606643
-0.09036744 -0.09736354 0.100616455 0.0076090246 -0.0885406 -0.048684247 0.09882118 0.10408247
0.06413987 0.039516054 -0.092534155 0.21057893 -0.053669937 0.0077346563 0.14524622 0.12339886
-0.09833538 0.030264845 -0.03901761 0.0073248125 -0.12518255 -0.08204364 0.051225398 0.0024186235
0.094855666 0.2117591 0.24180959 -0.06915263 0.075478174 0.046829548 0.054780073 0.14739497
-0.14310643 0.18021332 -0.13107224 0.088796094 -0.06804166 0.045919746 0.002820024 -0.1353985
-0.10793299 -0.1003095 0.3209401 -0.1509057 0.03297071 0.02858511 0.00082556903 0.01663623
-0.11390831 -0.055934172 0.05490897 0.10931427 -0.073862895 -0.091508865 -0.05177044 0.1055562
0.046316892 0.09349233 0.035108224 0.005532108 -0.13467534 0.12229954 -0.116285905 0.09671533
-0.118230164 0.091851585 0.0960418 -0.13740523 -0.014753506 -0.11117693 0.054397855 -0.049255464
0.10003884 0.07273785 0.081814155 0.11628355 0.10103372 -0.08619213 0.011432274 -0.095646925
-0.081213646 -0.067522444 -0.12381014 0.21151473 -0.12122479 0.026706219 0.05091918 -0.14067079
-0.10406035 0.08581363 -0.08670091 0.067623764 -0.11237739 -0.04399237 -0.0739076 0.20056832
0.056203134 -0.071043596 -0.060662314 0.05033739 -0.09729499 0.16279086 -0.008581308 -0.002341743
0.047836125 -0.06315259 0.052548796 0.12861423 -0.041510925 -0.02951212 0.015396546 0.21490325
0.02650118 -0.037988253 0.05634991 -0.13927384 0.041590363 0.05196178 0.05900891 0.008206356
-0.09649629 0.024685025 -0.06702121 -0.067924656 -0.12439576 -0.043993205 -0.100895114 0.28073132
-0.011018954 0.27952933 -0.031218931 -0.14473066 0.12819332 0.0106481 -0.009432351 -0.10560389
-0.05762548 0.09621167 0.10788674 -0.026701976 0.10939027 0.2783569 0.13956575 -0.16656981
-0.031145506 0.070751525 -0.03253884 -0.11316266 -0.06860278 -0.029884003 0.058031723 -0.13457565
-0.14405712 -0.055455845 0.20075011 -0.055812728 0.10088253 0.116322294 0.19518119 -0.14734432
-0.10475959 0.109409645 0.13334912 0.15721783 -0.091625094 -0.07918411 -0.10005401 0.053955294
0.055668667 0.06631097 0.040334128 -0.0826531 0.015769467 -0.14087126 0.017447226 0.0878387
-0.049258135 -0.0073590856 0.004481016 0.07994406 -0.10481741 -0.07095908 0.10693221 0.013324724
0.0033148362 0.08215241 -0.015350167 0.032881305 -0.108964324 0.1376191 0.17444657 -0.11829571
0.10676319 -0.025906626 0.1221811 -0.13828142 0.026557432 0.045213517 0.0013938536 0.06206004

FC2.weight f4 [128, 256]
00000000: 270c 2fbd eb83 febc d801 91bc ac7a 59bd
00000010: 035d efbb 7886 b7bc c3c0 6e3c 6dee 183d
00000020: d68e 243d a2d1 5abc ef1d 28bd 5652 4bbd
00000030: d858 3ebc 4a24 4f3d 86aa 92bd de62 2abd
00000040: 7957 c3bc d05a 26bc 00ff 24bd d036 34bd
00000050: cfde b13c 8085 7dba 14d0 7e3d e836 6e3c
00000060: 20f3 18bb ac61 0b3c 8ff6 acbc 020c d7bc
00000070: 6d15 86bd 0fc8 3abd 2472 7b3d fd82 8dbc
00000080: ce54 96bc 1ca7 7bbd 32ec 74bd 2f6b 31bd
00000090: 8f75 353c a08a 2c3b 60ff 493d a8b0 fc3c
000000a0: f3e3 6b3c 71c9 4c3c a0e2 313d 6fb3 263d
000000b0: 2e18 33bd 0834 bc3c a0cb 503c 2112 4abd
000000c0: 147e 703c a6ce 99bc 5f1b bd39 f89d 17bd
000000d0: 0a20 59bd 4002 d73a a0a0 453d 3515 82bd
000000e0: 804c 46bc d6b1 293d f662 263d 9c61 08bd
000000f0: f5cb 083d b0d3 e8bc 708a 0abd cf3f bf3c
00000100: e969 48bb 1745 383c 4682 433d 176b 3a3a
00000110: f931 dc3c 70aa 9e3b 3886 b6bc 9030 b4bc
00000120: 1c6b 2abd bf62 3bbd 7e28 9abc 15ed 1c3d
00000130: 25a4 05bc 7af1 6c3c c6b0 92bc 32a5 d1bc
00000140: c747 b03c ae45 18ba 3230 58bc 0d4a 1d3c
00000150: 688f 483d aee1 97bc 7123 d73b ffd3 25bd
00000160: d813 3bbd b606 93bd 6f51 2e3d 5821 1d3c
00000170: 40a2 e5bc 4ca4 3a3d 0022 cb3c 222d 4ebd
00000180: 9e06 69bd 9bc7 e73c 652e 09bd be2c 92bb
00000190: e947 563c 6e6f 90bd 12fc 4bbd fd3a 19bd
000001a0: ddda 02bd aeb9 26bd 5a46 ef3b 8183 5a3d
000001b0: d120 40bd afbe ba3c e890 6c3c 7287 d7bc
000001c0: 60df 843b 44b4 683d 8039 81ba 7909 d03c
000001d0: 2cb6 ffbc bcad 9bbc bc4c 963c a7fc 3b3c
000001e0: a0d3 5cbc d2d1 5cbd 80a5 4cbd c8ae bc3c
000001f0: 98a9 26bc ed7e 1c3d 6856 453d 26f9 94bd
00000200: 505a 263c ad3c 0d3d 1e3d 953c 36d1 9db9
00000210: 106e 85bb 9d5d 81bd 8ebe 14bd 9bb6 6ebd
00000220: 45f8 84bd 9491 733d 2e16 22bc dc9a 7cbd
00000230: 57de ac3b ccf4 2fbd b509 863d 5c55 4dbd
00000240: e013 9e3c d233 5a3d 58ba 44bc 9d3a 8bbd
00000250: 0010 223b 4c98 78bc ec8d 0d3d cec6 1cbd
00000260: 1bd3 fc3b 269b 2c3d 0b50 eabc f89f 263d
00000270: 86b5 a53c d8be 443b 5536 963a d5bb 863d
00000280: 049e 79bd d455 cbbc 3e8a 773d 00d6 02bb
00000290: e828 fcbc 0049 b8bb 9daf 1dbd 3ce0 f2bb
000002a0: 47d4 23bd 148e e13c 655e 81bd 80a0 d63b
000002b0: 14f1 2a3d 00c2 4d39 b843 2dbd 3a4d e5bc
000002c0: b34b 62bd 54ff 43bd 5600 793d d45a 7fbd
000002d0: 613a 55bc 043c 7cbd e604 12bd fd32 123d
000002e0: b75a b7bb e883 b3bd 681e 5abd b7dc 32bd
000002f0: 4fed 393d 509e c2bb a0d4 34bd 18a7 30bd
00000300: 10d4 7fbc fa6e d6bc ace4 713d 4467 ffba
00000310: 1b95 fe3c 020d 5bbd 2a59 4c3d a9e6 c7bc
00000320: a7ce b2bc e030 483d 085c f0bc c0ac dbbc
00000330: 0637 1fbd 5804 e73c ae53 2dbd 6c2b 58bd
00000340: 2d8f 123c a01e ca3c 5f86 27bb 32b3 d73c
00000350: 3eb3 413d 1358 6ebd e5dc 87bd 1e33 1fbd
00000360: e027 a93c 0047 c93c 9a4f e23b d9f1 48bd
00000370: 1887 463d a09f 41bc a8db 03bc f061 e6bc
00000380: b27b 653d ea22 58bc 5e15 253d 7210 563d
00000390: 34ab 75bd 0e45 223d 303f 30bd 1cb0 06bc
000003a0: 764f 363d a694 12bc 3783 2a3d 767c 283b
000003b0: 5883 e13c 507d 7dbc 4c87 efbc 0d9c 87bd
000003c0: 26f8 10bd dd86 103d 83bd e13c 5cea 0e3d
000003d0: 5cc9 d73c 6857 36bd d6fc 10bd a086 11bb
000003e0: 0d63 1d3c c0cc babc e4af a9bc bb53 66bd
000003f0: 5752 22bd 4700 3e3d d960 dc3c 49dc 43bb
-0.0427362 -0.031068763 -0.017701074 -0.053095505 -0.007304789 -0.022402987 0.014572325 0.037336756
0.04017528 -0.013355644 -0.041044172 -0.04963907 -0.011617862 0.050571717 -0.07161431 -0.041598193
-0.023845421 -0.010153487 -0.04028225 -0.043997586 0.021712689 -0.0009671077 0.062210158 0.014539458
-0.0023338273 0.0085071735 -0.021113662 -0.026250843 -0.065470554 -0.045600947 0.06138815 -0.017274374
-0.018350985 -0.061438665 -0.059795566 -0.04331511 0.011075391 0.0026327744 0.04931581 0.030845955
0.014397609 0.012499199 0.043429017 0.040698465 -0.04372423 0.02297403 0.0127438605 -0.049333695
0.014678497 -0.018775295 0.00036069282 -0.037015885 -0.05300907 0.0016403869 0.048248887 -0.06351701
-0.0121032 0.041429363 0.04062172 -0.033296213 0.033397634 -0.028421253 -0.03382343 0.023345856
-0.0030580705 0.011246941 0.04773166 0.00071112945 0.026879298 0.004842095 -0.022280797 -0.021995813
-0.041606054 -0.04574847 -0.018818136 0.038312037 -0.008156811 0.014461869 -0.017906558 -0.025591467
0.021518601 -0.0005808723 -0.013195084 0.009600175 0.048964888 -0.01854023 0.0065655042 -0.04048538
-0.04567322 -0.071790144 0.04255813 0.009590469 -0.028031468 0.045566842 0.024796486 -0.05033601
-0.056891076 0.028293421 -0.03349151 -0.0044609 0.013078668 -0.070525035 -0.04980094 -0.03740977
-0.031947006 -0.04070442 0.0073020877 0.05334807 -0.046906296 0.022796003 0.014438845 -0.026309703
0.0040549487 0.05681254 -0.0009859055 0.025395142 -0.031214796 -0.019003741 0.018347137 0.011473811
-0.01347819 -0.053911038 -0.04996252 0.023032561 -0.01017227 0.038206983 0.048178107 -0.07274084
0.010153368 0.034481693 0.01821762 -0.00030101248 -0.0040719584 -0.063166834 -0.03631454 -0.058279615
-0.06492666 0.059465006 -0.009892983 -0.061671123 0.0052755284 -0.042958066 0.0654482 -0.050130233
0.019296587 0.053272076 -0.012007318 -0.06798289 0.0024728775 -0.015173029 0.034559175 -0.038275532
0.0077155954 0.04214015 -0.02860262 0.0406799 0.020228159 0.0030020978 0.0011460284 0.06578795
-0.06094171 -0.0248212 0.060434572 -0.001996398 -0.030781224 -0.0056239367 -0.038497556 -0.0074119847
-0.039997365 0.027533568 -0.063168325 0.006549895 0.041733816 0.00019622594 -0.04230091 -0.027990926
-0.055247974 -0.04785092 0.060791336 -0.06234248 -0.013014407 -0.061580673 -0.035649203 0.035693157
-0.005595531 -0.087653935 -0.053251654 -0.04366752 0.04539233 -0.0059392825 -0.044148088 -0.043128103
-0.0156145245 -0.026175965 0.05905597 -0.0019485732 0.031076958 -0.053479202 0.04988972 -0.02440198
-0.021827055 0.048874736 -0.029340759 -0.026815772 -0.038870834 0.028200313 -0.04231613 -0.052775785
0.008945269 0.024672806 -0.002556227 0.026330564 0.04729008 -0.058189463 -0.06633929 -0.03886711
0.020648897 0.024569988 0.006906462 -0.04905877 0.04846868 -0.011817843 -0.008047976 -0.028122872
0.05602617 -0.013191918 0.04030358 0.052261777 -0.059977725 0.039616637 -0.04302901 -0.008220699
0.044509374 -0.008946573 0.041629042 0.002570895 0.02752845 -0.015471771 -0.02923932 -0.06621561
-0.035392903 0.035284866 0.027556187 0.03489147 0.026341133 -0.04451695 -0.035397373 -0.0022205487
0.009606135 -0.02280271 -0.020713754 -0.056232195 -0.039629307 0.046386983 0.02690165 -0.002988594
