examples/inputs/example_02b/learned_strategies/example_02b_base/actors/actor_pp_8.pt (torch, 748450 bytes, 24 tensors)

FC1.weight f4 [256, 50]
00000000: b948 67bc 56d7 aebd 0ebe dbbd 0300 98bd
00000010: 9554 a2bc eeaa 903c 4826 62bd 056f c83c
00000020: f09f 10be e3cf 4bbd c60f 223d 9251 0c3d
00000030: 4821 943d 8d14 da3d f994 d3bd 9af1 fbbd
00000040: 4042 e83d 2acd 8a3d 0439 843d 0180 49bd
00000050: cc36 d7bc bfd1 95bc 3ceb 8a3d ea33 503d
00000060: 9db4 39bd baad 8bbd f801 19be 022b c83d
00000070: 3118 27bd 2a42 613d b564 8ebc 3499 27be
00000080: 3489 20be 6877 ff3c cf3d 29be 1511 e53d
00000090: 5fbe 32bd 633d 243c 82d8 20be aa5d 47bd
000000a0: ef9b 103d c2d2 d73d 34bb ccbd b2b2 a7bd
000000b0: e286 eabd 68da 8fbd 696f b53d 9e35 08be
000000c0: 861b b6bc e457 d8bd cc5a b23d 165e 323c
000000d0: 9bb6 b33d 95eb 893d b8b1 13be 33db bebd
000000e0: bba5 a7bc 220a 613d 22f3 72bd e101 07be
000000f0: 2357 98bc e3d5 d03d 7a7a aebd 80db 85bc
00000100: 0ddd 7f3d ac8a d93d d895 1b3d d2da 4dbd
00000110: 64be 443d 61c0 7b3d 05f3 b1bd 3c00 993a
00000120: 25f8 cebd 7dcd d2bc 613e 793d 7795 74bd
00000130: 70cf c7bd f287 9ebb c00a 4ebd d076 6a3d
00000140: 00c0 a03d ed97 513d 0520 f0bd d307 1fbd
00000150: 5a1d 643d 3866 d1ba 6618 cabd 92e4 3b3d
00000160: 163d bdbc d10f 77bd 8635 d33d 65e5 00be
00000170: 399d 653c 2724 89bd 7527 61bd d795 343b
00000180: a2a6 7f3d 5aef e43c 5692 1abe 3cc4 9fbd
00000190: 2759 a33d ab8c 043d 73d6 dd3d a469 d2bd
000001a0: 8530 dfbd 8f83 e3bd 5eba e93d a667 a63d
000001b0: 63d2 b4bd 331e fe3d 6ce9 943d 5fcd a33d
000001c0: 2095 283c 09bd e63d d956 85bd bfc7 d1bd
000001d0: 25ef e33d 0152 30bd 020e 30bd ce61 413d
000001e0: c775 3ebd f9a0 8cbd 92a5 51bd 3697 63bc
000001f0: 2389 f7bd 0047 77bd 061b af3d 39cd 2abd
00000200: c141 94bd c20a a43d cfca 17bd b8d3 f4bd
00000210: 4ad8 ddbd d87f 853d 56d3 b33d 8107 ea3c
00000220: 4509 22bc 36c2 bc3d 235c 523d b6af b03d
00000230: 87da dbbd eeb4 a93c d7b0 fdbd f4e5 25bd
00000240: 05b6 a23b 6f53 f1bd c64d b8bd 2c87 0b3c
00000250: 8803 c7bd 85c4 13be 02ef dcbd 240e 0bbe
00000260: a230 bebd 1018 28bd 66e5 a7bd 52ae f33d
00000270: 20d4 9d3c c322 c4bd 4fd8 d2bd 486d a4bd
00000280: 60a1 ba3c dc81 993d f2b6 bb3d 8030 05be
00000290: 5259 dfbd 00a3 4dbc 005a e93a 8e30 e2bd
000002a0: b4e1 e4bc fed7 f93d 6c4c ac3d 1007 60bd
000002b0: 3857 c9bd a071 c13d d4e9 843d 8092 dfbd
000002c0: cfd2 e0bd 4840 763d ea16 bbbd 2b14 fabd
000002d0: ad8f 053e 68dd 783d 9009 fdbd 8310 0b3e
000002e0: ff64 003e 603e eebb a834 233d 62d5 8f3d
000002f0: 26d6 44bd 680f 2bbd 23de efbd a871 6c3d
00000300: c454 d8bd d6c7 bc3d 4a5a 4abd 3858 e93c
00000310: 5cd8 233d 0ce2 d43d b819 183d 965c ccbd
00000320: c469 323d f28b d0bd 90ff 483d 9b5a e6bd
00000330: aa42 e0bd 0604 c53d 74db 853d 0a6e 933d
00000340: f05a 36bc 8453 aa3d 1acc cf3d 0e8b 00bd
00000350: b006 f43c f005 6f3d c0dc 98bb e024 a7bb
00000360: 22bc 5bbd a0b3 07bd 9c97 003d 7c17 8ebc
00000370: 3843 383d be15 0abe 7896 843d 67a9 fbbd
00000380: 4044 c33d 84d7 133d 5aad 77bd 5bb9 93bd
00000390: 7843 c8bc 4c74 04be 8952 fcbd e8a6 963d
000003a0: a0b5 7bbc 3ee7 0bbe 4437 8a3d 1ccd 9ebd
000003b0: 225f d8bd 009c fb39 f7fb 87bd 281a 07be
000003c0: 8064 60bb accb d33d 50d9 8a3c 3203 fa3d
000003d0: 2470 ac3d 843f cb3d e050 073c c8aa 3dbd
000003e0: a026 6f3c 0079 a7bb cc53 b5bd 8e0c 053e
000003f0: 0185 c63d c4f1 fabd a2a5 2fbd 53f4 6e3d
-0.0141164595 -0.08537166 -0.107296094 -0.07421877 -0.019815722 0.01765963 -0.05521229 0.024467
-0.14123511 -0.049758803 0.039565824 0.03425748 0.072329104 0.10648451 -0.10331149 -0.12301941
0.11340761 0.06777413 0.06456187 -0.04919434 -0.026271246 -0.018288491 0.06783149 0.05083076
-0.045338262 -0.06820245 -0.14942157 0.09773828 -0.040794555 0.05499474 -0.017382005 -0.16367036
-0.15677339 0.031184867 -0.16527484 0.11184899 -0.043638583 0.010024401 -0.15707591 -0.04867331
0.03530496 0.10538246 -0.09996644 -0.0818838 -0.11451508 -0.070240796 0.088591404 -0.13301703
-0.022229921 -0.10563639 0.087087244 0.01088669 0.087750636 0.06734387 -0.14423263 -0.09319153
-0.020464769 0.054941304 -0.0593139 -0.1318431 -0.018596238 0.10197046 -0.08519454 -0.016340017
0.06246667 0.10622153 0.0379847 -0.05025751 0.048033133 0.061462764 -0.086889304 0.0011673043
-0.101059236 -0.02573275 0.060850505 -0.059712853 -0.097563624 -0.0048379833 -0.05030322 0.057242215
0.07849121 0.05117028 -0.11724857 -0.03882582 0.055692054 -0.0015975898 -0.09867935 0.04587228
-0.023100417 -0.060317818 0.10312943 -0.12587507 0.014014536 -0.06696349 -0.05496927 0.0027555132
0.062414773 0.027946163 -0.15094885 -0.078011006 0.07975989 0.032360714 0.108319186 -0.102740556
-0.10897926 -0.11109077 0.114125 0.08125238 -0.088291906 0.12408104 0.07271084 0.07998156
0.01028946 0.11266524 -0.065107055 -0.10243177 0.111295976 -0.043046955 -0.04298211 0.047212414
-0.04649904 -0.068666406 -0.05118329 -0.013891032 -0.12086704 -0.060370445 0.08550076 -0.04169962
-0.07239104 0.080098644 -0.037058648 -0.11954445 -0.108322695 0.06518525 0.087805435 0.028568031
-0.009889905 0.0921673 0.0513574 0.08627264 -0.1073504 0.020716157 -0.12387245 -0.040502504
0.004965546 -0.11783492 -0.08999209 0.008516114 -0.097174704 -0.14430435 -0.107877746 -0.13579613
-0.0928662 -0.041038573 -0.08198051 0.11898483 0.019266188 -0.09576943 -0.10295164 -0.08028656
0.022782028 0.07495472 0.091657534 -0.13006783 -0.109057084 -0.012551069 0.0017803311 -0.11044417
-0.027939655 0.121994 0.08413014 -0.054694235 -0.09831089 0.094455004 0.06489912 -0.109166145
-0.109777085 0.060119897 -0.0913523 -0.12210878 0.13043089 0.060758024 -0.123553395 0.13580517
0.12538527 -0.0072706193 0.03984514 0.070231214 -0.04805579 -0.04176274 -0.11712291 0.05772558
-0.10563043 0.09217803 -0.049402513 0.028484449 0.04000126 0.103946775 0.037133902 -0.09978597
0.043557897 -0.101829425 0.04907185 -0.1124775 -0.10950215 0.09619908 0.06535998 0.07198723
-0.01113008 0.083167106 0.10146351 -0.031382613 0.029788345 0.05835527 -0.0046649873 -0.0051008314
-0.053646214 -0.033130288 0.031394586 -0.017345183 0.04498598 -0.13484856 0.06474012 -0.1228817
0.09534502 0.036094204 -0.060468055 -0.07213088 -0.024446234 -0.12934989 -0.1232043 0.073560536
-0.015363127 -0.1366243 0.06748822 -0.07753965 -0.1056502 0.0004799068 -0.06639855 -0.13193572
-0.003423959 0.10341582 0.016949326 0.12207641 0.084198266 0.09924224 0.008259028 -0.046305448
0.014596611 -0.00511086 -0.088538736 0.1299307 0.09693337 -0.122531444 -0.04288257 0.058338474

FC1.bias f4 [256]
00000000: fbdd ac3d 91d8 4bbd 7440 d6bb d081 243c
00000010: feea 3cbd a84e ae3c 60c7 d4bc 47ac 043e
00000020: 3da4 ee3d fea9 e03d 4c5c a43d d0ce 9f3d
00000030: efef b13d 1009 b43d 72fb 90bd 97df d93c
00000040: be12 1cbe d420 393d 38b8 d23c 0a01 c13d
00000050: 35c3 23be 2f12 023e b2ca cabd e0c4 8fbb
00000060: 3415 e9bd 0685 d13d fe3b 1abd 3a5e 2fbe
00000070: baff e2bd cb00 0e3e 7abb d6bd 3018 0bbd
00000080: de74 5abd 514c 233d a593 17be daca 6bbd
00000090: 8418 23bb 3753 e83d a0c3 e93c 5a2f ddbd
000000a0: 38af e8bd 8b48 bf3d c861 d5bd 733f 6239
000000b0: 46e9 0abe 9359 a73d 00f3 be3d f428 853d
000000c0: 3ad4 e7bd 6852 85bc 30f1 c0bd 27a8 a0bd
000000d0: 129d 8fbd 34d4 c3bd 8c9d 50bd 83c9 b43d
000000e0: 6fef 1abd 3fcf bc3d acf5 00be c756 d63d
000000f0: aaef 01be 3ffc f93d 74fd b9bd fe0e d63d
00000100: 9119 273c b3b5 cc3d 182e e53c 9168 22be
00000110: 9b14 1fbd 2ad3 90bd 3624 aebd 415c e2bd
00000120: 13d7 f0bd 2fec cfbd 36eb aa3d 84ec a63d
00000130: 1dde f83b 00c2 c13a 4b0e c03c 0434 aa3d
00000140: 94a8 c5bd e56c ebbd 5069 213c d151 e6bc
00000150: 5ffc c93d 1721 22be f108 3d3d 6e4a ba3d
00000160: 5a20 ebbd 61dd 3f3d 79e2 02be 1276 8fbd
00000170: 4c9d 61bd 7746 d4bd d18e 6abd 4d74 1e3f
00000180: ac77 e2bd 94aa 20be 2569 f33d c504 10be
00000190: 808f 26bc 4b23 79bd 8660 6b3d 2f03 cd3a
000001a0: 9cb4 983d b295 33bd b044 223c 80e6 f33c
000001b0: fc35 32bd cd29 a03d 4620 c03c 8ed4 ff3c
000001c0: 52ae cb3d e4d3 e3bc 6d29 b5bd a525 95bd
000001d0: 0444 0fbe 187a d63d bdd1 a33d 6825 4dbd
000001e0: 7335 163d df19 9b3d 6473 6bbd 1065 74bc
000001f0: ca68 8abd e662 0ebe d662 de3d 1a64 d33d
00000200: 0ba2 f0bd 4ddc 81bb d0b4 10bd bbd7 92bd
00000210: 8830 353d 7058 64bc 6f42 17be a5ca 183b
00000220: 64f9 933d ee41 1bbe 5b8c 6ebd de1f d73d
00000230: 3ad3 9dbd 128f a13d 2596 15be b029 86bd
00000240: 6e47 f2bc 678e 043e 04ea b93d a003 d53b
00000250: 041d 0f3d a1e7 863d 37ed 403d bf57 55bd
00000260: 881a 7dbd 1bf2 5abd 2a8c 9e3d 7a3a ee3d
00000270: 02de 9e3e fdfc 483d 83b0 383c 8766 1e3f
00000280: b202 3f3d 863e c5bd 2c97 3e3d 4ef4 d63d
00000290: 7f37 bbbd 6e8c 323d eb07 0e3e cc90 c23d
000002a0: dedc 77bd a93e 01be ca16 00bd 452b c4bd
000002b0: bce6 213d bc71 60bd d99e 933d 124c a93d
000002c0: 56f9 87bd 52ca ad3d d0c2 683c cfa1 16be
000002d0: 3c73 29bc 2099 ccbb 5347 70bd 4028 7e3b
000002e0: c122 a23d 3996 af3d 18e1 94bd 9a4d 98bd
000002f0: 27d8 16be 90bc d83d 1ac8 6ebd 2698 24be
00000300: d250 b23d 4075 aabd 585b 9f3d ffc9 c43d
00000310: 313a edbd 2e5d 82bd 04d3 f13d 762b 033e
00000320: 8660 45bd 00c3 57bc 186c 1cbe 883b 803d
00000330: 4e3e 7abd da47 ab3d 0dd2 8e3c 2fc9 6e3d
00000340: 50fa 81bc 59dc c0bd bdb1 84bd bbed b6bd
00000350: 90a6 40bd 399f 503c 71ab 0fbc c0d0 e93d
00000360: d766 cebd 2ae0 d5bd d7dd dd3c 02bf ad3d
00000370: b1d7 633d fe63 b73d 62da ba3d 051e 923d
00000380: fcf3 713e c8ad f0bd 395a 84bb 0f83 92bd
00000390: 728c 9e3e 16f1 c4bd 2bd7 01be aea5 fc3d
000003a0: 544e c1bd efd6 d23d 341c c23d 0195 c83d
000003b0: d948 05bc 2835 403d e48d e73c 3807 a4bc
000003c0: 2480 99bd 40c3 8e3b c527 29bd 44a8 5bbd
000003d0: d860 7c3d a590 953d 80a5 f93b 1780 eb3e
000003e0: a05a 89bc 5dfc f1bd ad68 0ebe 1fe8 97bd
000003f0: 4d3d 85bd 8acd 3a3d d48c aa3d 19bd f4bd
0.08440777 -0.04976708 -0.006538445 0.010040715 -0.046122544 0.02127774 -0.025973976 0.12956344
0.1165242 0.109699234 0.08025417 0.07803118 0.08688342 0.08790791 -0.070792094 0.026595874
-0.15241525 0.045197323 0.025722608 0.09424026 -0.15992434 0.12702249 -0.09901942 -0.004387483
-0.11380997 0.1023045 -0.03765487 -0.17125788 -0.11083932 0.1386749 -0.10484977 -0.033958614
-0.05333411 0.039867703 -0.14802416 -0.0575665 -0.0024886439 0.11343997 0.028535664 -0.10800047
-0.11361545 0.09340008 -0.10419041 0.00021576676 -0.13565549 0.08171382 0.09323692 0.06501952
-0.11319776 -0.016274646 -0.09421003 -0.078445725 -0.07012381 -0.09561959 -0.0509315 0.08827498
-0.037825998 0.092192166 -0.12593716 0.1046577 -0.12689081 0.12206315 -0.090815455 0.10452078
0.010198967 0.09995594 0.02797608 -0.15860201 -0.03883801 -0.07071526 -0.085030004 -0.11052752
-0.11759772 -0.1015247 0.08345644 0.081505805 0.0075948373 0.0014782548 0.023444315 0.083107024
-0.09651294 -0.11495379 0.009851769 -0.028115185 0.09862589 -0.15832935 0.046151105 0.090962276
-0.1148078 0.046841983 -0.12781705 -0.07004942 -0.05508165 -0.103650026 -0.057265107 0.6189621
-0.11057982 -0.1569007 0.11885289 -0.1406432 -0.010166049 -0.060824674 0.0574651 0.0015641208
0.074563235 -0.043843932 0.009904072 0.029772997 -0.043508515 0.07820473 0.02345289 0.031229284
0.09945358 -0.027810998 -0.08845792 -0.07282571 -0.1399079 0.10472506 0.07998989 -0.0500845
0.036672067 0.07573294 -0.057483092 -0.014916673 -0.06758268 -0.13904914 0.10858695 0.10321827
-0.11749657 -0.0039630295 -0.035328686 -0.071700536 0.044235736 -0.013937101 -0.14771436 0.0023314145
0.07225302 -0.15161869 -0.058239322 0.10504125 -0.07706304 0.078886166 -0.14608057 -0.0655092
-0.029575076 0.12944947 0.09077838 0.0065006763 0.03493978 0.065871485 0.047101226 -0.052085634
-0.06179288 -0.053453546 0.07741578 0.11632247 0.31028754 0.049069393 0.011272552 0.61875194
0.04663343 -0.09631066 0.046530887 0.10495816 -0.091414444 0.043590955 0.13870208 0.09500274
-0.06051337 -0.12621559 -0.031271733 -0.095785655 0.039526686 -0.054795966 0.07208032 0.082664624
-0.06639354 0.08485855 0.014206603 -0.14710163 -0.010342415 -0.00624384 -0.05866177 0.0038781315
0.07916785 0.085735746 -0.07269496 -0.07436676 -0.14730893 0.105828404 -0.0582963 -0.16073665
0.087068215 -0.08323145 0.07781094 0.0960884 -0.11583365 -0.06365429 0.11807826 0.12809548
-0.048187755 -0.01316905 -0.1527561 0.06261355 -0.061094575 0.08363314 0.017434144 0.058297332
-0.015866429 -0.09417028 -0.064792134 -0.08932062 -0.047033846 0.012733274 -0.008768902 0.11416769
-0.10078209 -0.104431465 0.02708332 0.084836975 0.05562562 0.08954619 0.091236845 0.07134632
0.23628229 -0.11751896 -0.0040390757 -0.07153904 0.30966526 -0.09616296 -0.12679736 0.123362884
-0.09438768 0.102949016 0.094780356 0.09794045 -0.008135044 0.046925694 0.0282659 -0.020022973
-0.07495144 0.0043567717 -0.041297693 -0.053627267 0.061615795 0.073029794 0.007618606 0.45996162
-0.016766846 -0.118157126 -0.13907118 -0.074173205 -0.06505833 0.045606174 0.08327642 -0.1195013

FC2.weight f4 [128, 256]
00000000: 6e92 83bd 17e5 cf3c a97a 7a3b 6e0c 7cbd
00000010: 561c 283d 5d1f 2bbd ecef 35bd fcb0 593d
00000020: 2b23 003c 4c35 45bd 74ec 2dbd 5faa 65bc
00000030: cdba 463d cdc0 233c cc7f 3abd 73a2 2fbd
00000040: 12bd 083c fe8e 6c3c 489e 27bc 75b1 a53c
00000050: 1713 04ba fcb7 fa3c 00d8 3dba 02d2 293d
00000060: ace9 ac3c e44e e03c c660 45bd 2114 bdbc
00000070: 5658 153d 6837 683d 2c83 e3bc 68f2 f9bc
00000080: 30ea 883c 7723 1abc 586f 533d 4030 87bd
00000090: 4c72 c8bc a1d9 87bd e47a 263d 9f15 d0bc
000000a0: f457 c63c 6811 89bd 4a83 3e3d 6285 963b
000000b0: 1e98 74bd 290d 0a3c a84d 52bd 86e5 8fbd
000000c0: 70fb 5c3c ba57 0d3d 1834 753d 0668 51bd
000000d0: ccc0 ffbc d3b6 513d 0832 b8bc a6e7 833c
000000e0: 2643 243d 1ac1 8ebb c960 0abb a86e ff3c
000000f0: 00c5 43bb 67a2 73bd eb6a 82bd deab 0a3c
00000100: 00c8 88bd bf90 2a3d f0f9 453c 5f8f 76bd
00000110: 6c1e 57bc 3671 01bd 6f4d 303d 8e51 353d
00000120: 10b8 813c 5d2d 9ebc da69 063d 9420 2dbd
00000130: d8fb 48bc 9085 c03c 2a24 4dbd 6907 553d
00000140: 8954 453d 60eb 8cbd dc76 7e3d 6025 0fbc
00000150: c4d7 15bc 93a9 50bc 8301 f83b 51c3 0bbc
00000160: 60dc 22bc f0d4 8ebd 6bda 03bd a657 27bd
00000170: 5291 54bd b177 453d 4f1e 923c 557c 4c3c
00000180: b051 233d 8f1c 81bd 6117 58bd 2051 ff3c
00000190: a044 babc 1f3a 62bd 390a 45bc 96c4 2dbc
000001a0: d3ef b83b 28cc 503c 95bd 533c 5470 7ebd
000001b0: 1cd7 b03c f8ea 7abd 09db 0a3d 8a8a 88bd
000001c0: 52ec 743d 2e08 503c 1503 1e3d 84b4 173c
000001d0: e8da 7abc 7c35 29bd 9f4c b53c 6e4e 04bd
000001e0: 7ff8 573d 55ae cf3c 6402 19bd f046 e6bc
000001f0: 0211 61bd 0eba 18bc 04f3 c33c 9cae 7cbd
00000200: c897 eb3c d038 c2bc 3045 8abb 9f57 31bd
00000210: d81e 80bc a065 ee3c d995 35bd fc64 b8bc
00000220: 5546 f5bc 4896 fcbc c18b 1f3d d84a 98bc
00000230: 9c43 01bd 370a 3abd c6da cd37 d0e4 3b3d
00000240: 6f94 cb3c d027 e03c 4d1c 82bd 2e46 7f3d
00000250: 3cbf 1a3d 619f c63c 0d04 1c3d 606d 7b3b
00000260: d4ed 57bd c108 50bd 3ffb 41bd 03b4 72bd
00000270: a444 a1bc a2a8 433d 1d22 37bd e6f1 debd
00000280: 3eed e7bc c4f0 003d 747a 9ebc 967e 18bd
00000290: de7b 693d 8dae 3ebd 8067 8cbb f01e 9ebc
000002a0: f892 8dbc 3c99 d3bc 3864 b8bc 6a4b cc3c
000002b0: d170 343d e249 933c f333 ce3c a0c6 58bb
000002c0: e48d c93b c8ad a93c 0958 903b e36e 333d
000002d0: a9b9 1ebd a8b3 5b3d 586d ec3c 2aa9 11bd
000002e0: 2443 7abd 56f3 4d3d 2044 36bc 25ea 003d
000002f0: e26b 133d 010c 333b 867b 3dbd a429 823c
00000300: 19b6 8dbd f80b 09bc 4ec2 423d c57b f5bb
00000310: a840 07bc 21d9 583d 116c 013b 5826 7a3b
00000320: 30a7 95bc b0e3 44bc c07b 3dbd fc72 933c
00000330: ace4 d93c e8b6 6b3c 41d1 7ebd 8c04 4cbd
00000340: 7e96 143d f816 423d eee6 8abd 1cc4 cabc
00000350: 619e 263d 8638 423c d4f9 5dbd adbd 64bd
00000360: 489b 773c 3629 6abd 279e 1abd 2202 5ebd
00000370: 4039 ce3c db77 83bd 532b 81bc 8b22 cc3c
00000380: e4a1 473b f626 debc bc6f 0438 883c 5bbc
00000390: 65ea 093c c88a 603c 600c 5a3c f816 8abc
000003a0: 288f 13bd 288a 303c 7058 81bb 60a7 03bc
000003b0: 6707 8abd 066b 6b3d e80f 603b 32d1 0bbd
000003c0: 231c 32bd cc1c d3bc 3ccb 8fbc 5cde e93b
000003d0: 7983 173d ea84 1f3d 8628 0a3d 2dee 8abd
000003e0: a90d d4bc dc41 833c 2a46 a83c 8240 d939
000003f0: 43a8 0bbd 326f 84bd c117 f23b 737a f13c
-0.064244136 0.025377793 0.0038220084 -0.06153529 0.04104265 -0.041777957 -0.04441826 0.0531473
0.007820885 -0.04814653 -0.042461827 -0.01401767 0.04851799 0.009994698 -0.045532033 -0.042879533
0.008345859 0.014438389 -0.010230608 0.02022622 -0.0005038245 0.030605309 -0.00072419643 0.041460045
0.021107517 0.027381368 -0.048187993 -0.023080887 0.036461197 0.056693465 -0.027772509 -0.030511096
0.016713232 -0.00940787 0.051619858 -0.06601 -0.024468563 -0.06633306 0.04064454 -0.025400935
0.024211861 -0.06692773 0.046511926 0.004593537 -0.059715383 0.008425989 -0.05134359 -0.070262
0.013487682 0.03450749 0.059864134 -0.051124595 -0.031219862 0.051199745 -0.022484794 0.01610167
0.0401031 -0.0043565156 -0.0021114817 0.031180695 -0.002987206 -0.05948105 -0.06368049 0.008463828
-0.06678772 0.041641947 0.0120835155 -0.060195323 -0.013129812 -0.031602107 0.043042596 0.04426723
0.015834838 -0.01930874 0.03281579 -0.042267397 -0.0122670755 0.023501188 -0.050083317 0.05200902
0.048176322 -0.06880832 0.062125072 -0.008736938 -0.009145681 -0.012735742 0.0075685396 -0.008530454
-0.009940237 -0.06974208 -0.03219072 -0.040855072 -0.0518964 0.04820985 0.017836718 0.012480815
0.039872825 -0.06304275 -0.05275667 0.031166613 -0.022737801 -0.05523121 -0.012026363 -0.010605952
0.0056438236 0.012743987 0.012923618 -0.062118843 0.021586947 -0.06125924 0.033900294 -0.06667049
0.059795685 0.012697263 0.038577158 0.009259347 -0.01531098 -0.041310772 0.022131262 -0.03230136
0.05272722 0.025351683 -0.037355796 -0.028109998 -0.05494786 -0.009321703 0.02391959 -0.061689958
0.028758898 -0.023708731 -0.0042196736 -0.043296453 -0.015639707 0.029101193 -0.04433236 -0.02250909
-0.029940763 -0.030833378 0.03895164 -0.018590376 -0.031558618 -0.045419898 2.4539779e-05 0.04587251
0.024851052 0.027362734 -0.06353054 0.062322788 0.03778003 0.02424592 0.0380898 0.0038364753
-0.052717045 -0.0507896 -0.047358748 -0.059253704 -0.01968605 0.047768243 -0.044710267 -0.10885982
-0.028311368 0.031479612 -0.0193455 -0.037230097 0.057002895 -0.046553183 -0.004284799 -0.019301862
-0.017281994 -0.025829904 -0.022508726 0.024938304 0.044052903 0.017979566 0.025171256 -0.0033077374
0.006150948 0.020712748 0.004405026 0.04380692 -0.038751278 0.05363813 0.028860733 -0.035561718
-0.061099187 0.05028089 -0.011124641 0.031473298 0.035991557 0.0027320387 -0.04626038 0.015888996
-0.06919498 -0.00836467 0.047548585 -0.007491561 -0.008255161 0.052941445 0.001974825 0.0038169827
-0.018268198 -0.012017176 -0.046260595 0.017999165 0.026598297 0.01438687 -0.06221128 -0.049809024
0.036276333 0.047385186 -0.067823276 -0.024751715 0.040678386 0.011854297 -0.054193333 -0.05584495
0.0151127055 -0.057168208 -0.037748482 -0.054201253 0.025173783 -0.06419345 -0.015767729 0.024918815
0.0030461485 -0.027118187 3.1575313e-05 -0.013381131 0.0084177 0.013704963 0.0133086145 -0.016856655
-0.036025196 0.0107751265 -0.00394731 -0.008035511 -0.06739693 0.057475112 0.0034189168 -0.03413505
-0.043483865 -0.025770567 -0.017552964 0.007137103 0.036990616 0.038945116 0.033730052 -0.0678371
-0.02588542 0.016022615 0.02054127 0.00041437527 -0.034096014 -0.06466521 0.0073880856 0.029477334

FC2.bias f4 [128]
00000000: 8485 a4bd 76de 51bc 8be5 c53d ef58 09bd
00000010: 857c 0abd ec43 9bbd 7dd1 88bc 457c 7abd
00000020: a8a8 a4bc 7bb8 f1bb 69e7 38bd 5fd6 bebd
00000030: cf6f d83e 8b93 a4bd e57b 9abd fa8e 583e
00000040: 154f 023f d6e2 29bd 8862 e1bb f40a e83e
00000050: 6c08 78be 94f1 9fbd 6c35 92bc 3dc2 97bd
00000060: 66ce 5dbd 864f 0abe d5b5 7abd 61ba 6e3d
00000070: 341b 8dbd 7a98 06b8 3277 7dbd f925 1fbd
00000080: 0a5b b13a 7156 adbd 0bda c0bc 5207 4fbc
00000090: 2c51 823e 35f0 af3e e93f 46bd 9a50 4abd
000000a0: c302 1dbc 853b 46bd a549 0bbe f1b2 13bd
000000b0: 2819 05bd 1e3a 6f3e 7211 d9bd 03b4 c83e
000000c0: f2aa 87bd e190 57bd 1fba 4bbd b446 c33e
000000d0: a10a 85bd 9a77 dabc 58f8 f0bc 7e10 22bc
000000e0: 9fee 72bd fa64 4fbd 2a93 6dbe faf0 c1bc
000000f0: 3700 b93e 27b9 5f3e 3d9e 15bd 199d afbd
00000100: 18f6 c43e cc21 cfbc d177 81b9 0c43 73bd
00000110: 3dec 89bc 8a20 50bd 681b 67bd 3e6d 16bd
00000120: e564 b1bd e9d2 a3bc 92a7 51bd 1561 28bd
00000130: 69f2 05bd 0d54 c1bc c0d7 563e 6fd3 8abd
00000140: 4c4e fabc 68a7 99bd d22f 673e 81f9 3fbd
00000150: 3a0d 35bd 5e81 abbd 0c1f d43e 1581 593e
00000160: 6260 993e 9892 c1bd cd65 93bd c878 1bbd
00000170: 5091 91bc 56f5 0cbd 6895 bb3e bc6d c8bc
00000180: ad22 b63e 7a7d 29be 23bc 84bd 8521 34bd
00000190: 6119 b93c 6992 1cbd 9fb0 b8bd e2f7 49bd
000001a0: 7ffa 66bc b757 b0bc 1d52 5fbc c283 c4bc
000001b0: 8e5d d4bb b034 733e c8d6 9bbc d087 8d3d
000001c0: 3736 32bd 65df db3e cf92 593e d0bb 2fbb
000001d0: e12a 42bd e6d8 50bd 3128 d1bd 1304 953e
000001e0: 7fb7 8cbc 221f 7fbc 482a 0ebd 6a19 65bc
000001f0: 6c1c b13c ae7e 3fbd eaf1 af3e 0f5b 8dbb
-0.080332786 -0.0128093865 0.096629225 -0.03353208 -0.033810157 -0.075813144 -0.016701454 -0.06115367
-0.020099953 -0.007376728 -0.045142565 -0.09318232 0.42272803 -0.08035954 -0.07543162 0.21148291
0.5090192 -0.041476093 -0.006878201 0.45320857 -0.24221963 -0.07809749 -0.01784774 -0.07410095
-0.054151915 -0.13506898 -0.061208565 0.058283214 -0.06889954 -3.2090094e-05 -0.06188125 -0.038854573
0.001353116 -0.08463753 -0.023541471 -0.012636023 0.25452554 0.3436295 -0.048400793 -0.049393274
-0.009583178 -0.048396606 -0.13602312 -0.036059324 -0.032494694 0.23362014 -0.105990306 0.39199838
-0.06624402 -0.0526284 -0.049738046 0.3813988 -0.06496168 -0.026668359 -0.029415295 -0.009891627
-0.059309598 -0.050633408 -0.2320067 -0.023674477 0.36132976 0.21847974 -0.03652786 -0.08574886
0.38469005 -0.02528467 -0.00024694068 -0.059390113 -0.01683628 -0.05081228 -0.05642262 -0.036725275
-0.08661822 -0.01999803 -0.051185198 -0.04110821 -0.032701883 -0.023599649 0.2098074 -0.06778609
-0.030554913 -0.07502633 0.22576836 -0.046868805 -0.044202067 -0.08374284 0.41429937 0.21240647
0.29956347 -0.09451789 -0.07197151 -0.037956983 -0.017769486 -0.034413658 0.36637425 -0.024466388
0.3557333 -0.16551772 -0.06481197 -0.04397728 0.02259511 -0.038225565 -0.09018063 -0.049308665
-0.014097809 -0.0215262 -0.013630417 -0.023988608 -0.006480879 0.23750567 -0.019023314 0.0691067
-0.043508735 0.42943874 0.2124741 -0.0026814826 -0.047404174 -0.0509881 -0.10212744 0.2910467
-0.017177342 -0.0155713875 -0.03470829 -0.01398311 0.021619998 -0.04675167 0.34364253 -0.0043138335

FC3.weight f4 [2, 128]
00000000: 57b9 a6bd f958 7c3d d852 4abe 16b7 c2bb
00000010: 9085 09bb 4eab 863d 5673 4fbc c1d6 bcbc
00000020: 23fc 4fbb 68aa 57bd 1f8c a2bd f91c 25bc
00000030: 289f 5dbf fdf5 673d c335 9dbb d980 8f3e
00000040: 4aad 47c0 8fed 973c a9ac ffbc 278c 1cbf
00000050: 49df 5abf b59a e13c c434 df3c 503d 163c
00000060: d71f faba ecab 7ec0 b13c 973e d303 16be
00000070: 283b 8abd c644 87bb 0bd2 46bc 052c 103d
00000080: 68fe 8f3e fbb7 9ebc fda8 8a3b 8102 29bc
00000090: c819 b2c0 45fb 7e3e 0425 d13d e3f5 7e3d
000000a0: 3bf9 6bbc e1e9 963c 3aac 18bf 1890 a63d
000000b0: a0bd c53b 86de e93d f287 0c3c 02cf 63bf
000000c0: 9f6d 55bd 3644 9ebd 1e9c 85bd 6841 2b3e
000000d0: ff69 1abd 8778 56bc 6655 4c3d f0f3 0d3d
000000e0: 878a c53d f8b1 4c3c 929a a03e 7c80 2abc
000000f0: 14dd 783e 8808 563e 8e89 d0bc c12f b73c
00000100: d153 323e d1e1 0abd 2958 433b b08e 9abd
00000110: 07c1 e4bc 827a 503d 4311 453d aa51 d1bc
00000120: 45cb f4bc 01d2 3c3d b909 6bbd 1cf3 0fbd
00000130: 2c5d 363d c23c 36bc 5691 1fbe 166b 90bc
00000140: ba42 92bd 4c65 1a3d 642d 133e 6ab6 9bbc
00000150: 00ea 00bb 82ae 9f3d dd9c 2dbf 1384 8dbe
00000160: 8325 293d dc06 cb3c 3a3a f23b 3292 473d
00000170: 82a9 a3bc b0fb 063c ee57 973e 5bf3 983d
00000180: df64 35bf 6e8f 4fbe fc91 983b 61fe 8c3d
00000190: 5d5c bb3e 7a01 edbc 6f99 62bd 50ff 89bb
000001a0: 10b1 c2bc 32b0 adbb 99df 7abc 6160 5d3d
000001b0: 79a4 9d3d 9cac fd3d e127 143d 2a15 cc3e
000001c0: 14ca 82bb 0183 57bf 6c85 b2c0 05e7 343d
000001d0: 907a 8e3d d247 5c3c 7e1f ec3d e403 0e3e
000001e0: cb6b f03d 910b 453d 1bce 783b 6786 f63b
000001f0: a731 863e 5b7e 0b3e 3dd2 70bf 62ca 2fbd
00000200: 02a1 2d3d abb6 89bd 1ea7 183e 5f99 453d
00000210: 919d 403d 144d 7cbb 3154 a0bc 3073 b83d
00000220: 97d4 abbc 6a84 423c 3ecf 14bd 305d a43c
00000230: 1153 25be 8564 76bd ffbb dc3b eedc 953d
00000240: f1b2 09be 4e6b 0abd ee4e 1d3c be6d 80be
00000250: 993b f53e 3251 c93c 051a 923d e5f7 c4bc
00000260: c09b 3abd 40d6 b63d 294e 92bd dd78 ed3d
00000270: 5229 0dbd f50a bfbc 51ea 843d 2f0f c9bd
00000280: fd42 29bc 6dc6 31bc b6a6 603d 3a8d 5b3d
00000290: 9308 ec3b d2da 143e 773f 82bd 78d2 953d
000002a0: 1a2e 79bd 60d7 40bd dcd1 bdbf a339 bf3c
000002b0: 34c2 9bbd 5603 543e ee8d aebb 8afe 1bbe
000002c0: afc4 b23d 5bbd 643c d3ec 3f3d 1b40 1b3e
000002d0: a7f2 9fba b38a a3bc ed3c 833d 8f3e 09bd
000002e0: e0b5 903d 61c5 503d 998d 19bd 199d 003e
000002f0: 41c4 f23d 7ca1 8b3d 2e6e 6cbd 8c33 503d
00000300: a1eb 013e ad94 683c ec1f acba 5380 78bc
00000310: 349a e9bc 4d39 3bbd 4e39 453d 94e8 9a3d
00000320: 8a60 0fbe 507c 183d df76 413c 6ebc 4a3d
00000330: d733 613d 0762 07bc 2989 b63d d8fd 19bd
00000340: d778 513d 2597 69bb ec2f fe3d 0338 86bc
00000350: c120 0c3d 1722 2abc 6608 0abe 5ca7 703e
00000360: 0639 ff3d 7dfe cdbd cd1f 5ebd 1d60 99bd
00000370: 41ae 7a3c 846a b33c d514 733d 4654 bdbc
00000380: 3f8b 95be d3c9 023e 7b02 a73c da06 4e3b
00000390: 0330 1abe bae8 983d 68d0 38bd 667d b2bd
000003a0: 5703 6fbc 79ff 40bd a077 08bd b409 a4bd
000003b0: ed8e 633c 4e45 333e 4d45 cd3c cb10 90be
000003c0: e2d5 34bc b499 bbbd 1819 3cbc f20c 073d
000003d0: 71f3 293c 44e2 d6bb 3115 57bd 52d3 6e3e
000003e0: b98e d2ba 1626 75bd 4676 323b 8a9e 8b3d
000003f0: b3fb 6e3d a459 273d 28eb 773c 9fce 4e3c
-0.081408195 0.06160829 -0.19758165 -0.0059422357 -0.002098415 0.065756425 -0.012661776 -0.023051621
-0.0031735979 -0.052652746 -0.07936882 -0.010077708 -0.8657098 0.056631077 -0.0047976687 0.2802799
-3.1199517 0.018545894 -0.03121026 -0.61151356 -0.85496956 0.02753959 0.02724684 0.0091698915
-0.0019082975 -3.9792433 0.2953849 -0.14649896 -0.067495644 -0.0041280715 -0.012135039 0.03519823
0.28123784 -0.019374838 0.0042315708 -0.010315538 -5.565647 0.24900539 0.10212138 0.062246215
-0.014402683 0.018422069 -0.59637797 0.081329525 0.006034568 0.11419396 0.008577334 -0.88987744
-0.052106496 -0.07727854 -0.065239176 0.16724169 -0.037698742 -0.013090259 0.04988613 0.034656465
0.096455626 0.012493603 0.31367928 -0.01040661 0.24303085 0.20901692 -0.025456216 0.022361638
0.17414786 -0.03390676 0.0029807186 -0.07546747 -0.027924074 0.050898083 0.048112165 -0.025551636
-0.029882083 0.046098713 -0.05738232 -0.035143957 0.04452245 -0.011122884 -0.15582785 -0.017629188
-0.07141633 0.03769426 0.14372784 -0.01900788 -0.0019670725 0.077969566 -0.6781748 -0.27639827
0.04129554 0.024783544 0.007392195 0.048723407 -0.019978289 0.008238718 0.29559273 0.07468291
-0.7085704 -0.20269558 0.0046560746 0.068844564 0.36593905 -0.028931368 -0.055322107 -0.004211344
-0.02376607 -0.005300545 -0.015312099 0.054046992 0.07697386 0.12386438 0.036170844 0.39859897
-0.0039913747 -0.8418427 -5.578787 0.04416563 0.06956971 0.013444858 0.11529444 0.13868672
0.1173931 0.048106734 0.0037964645 0.007523346 0.26209757 0.1362242 -0.940708 -0.042917617
0.042389877 -0.06724294 0.149075 0.04824197 0.047025267 -0.003849809 -0.019571396 0.09006345
-0.020975394 0.01187239 -0.036330454 0.020063967 -0.16144969 -0.060154457 0.006736278 0.073175296
-0.13447167 -0.03379374 0.009601338 -0.25083727 0.47897032 0.02457485 0.07133869 -0.024043987
-0.04555869 0.08927584 -0.07143814 0.115953185 -0.034463234 -0.023320654 0.06490005 -0.09817349
-0.010330913 -0.010850531 0.054846488 0.05360148 0.0072031706 0.14536598 -0.06359761 0.07315534
-0.06083498 -0.047080398 -1.4829669 0.023342913 -0.07605401 0.20704398 -0.005326978 -0.15233818
0.08728921 0.0139611615 0.046856713 0.15161173 -0.0012203053 -0.019963598 0.06408105 -0.033506926
0.0706594 0.050969485 -0.037488554 0.12559928 0.11853839 0.0681791 -0.057722263 0.05083041
0.12687542 0.014195603 -0.0013132072 -0.015167314 -0.028515913 -0.045708943 0.048150353 0.07563892
-0.1400167 0.03722793 0.011808126 0.049496107 0.05498108 -0.008263118 0.0891288 -0.0375956
0.051140632 -0.0035643068 0.12411484 -0.01638413 0.034210924 -0.010384104 -0.13479766 0.23501343
0.12462048 -0.100583054 -0.054229546 -0.07489035 0.015300334 0.021901377 0.05934604 -0.023111474
-0.292078 0.12772302 0.020386925 0.003143719 -0.15057378 0.07466264 -0.045120627 -0.08715324
-0.014588199 -0.047118638 -0.03331721 -0.08009663 0.013889057 0.17506906 0.02505746 -0.28137812
-0.011037322 -0.09160176 -0.011480592 0.03297133 0.010372982 -0.0065577347 -0.052510444 0.233228
-0.0016064263 -0.059850775 0.002723114 0.06817348 0.058345508 0.040856972 0.015131749 0.0126225045

FC3.bias f4 [2]
00000000: 2bb0 023e c38f e33e
0.12762515 0.4444562

FC1.weight f4 [256, 50]
00000000: 4348 67bc 07d7 aebd 92bd dbbd 5eff 97bd
00000010: e753 a2bc 95ab 903c 3326 62bd 606f c83c
00000020: de9f 10be 71cf 4bbd ee0f 223d 4c52 0c3d
00000030: 8521 943d 5915 da3d 8294 d3bd 54f1 fbbd
00000040: 0a43 e83d 3ccd 8a3d a439 843d 0980 49bd
00000050: 3236 d7bc 8ed1 95bc b4eb 8a3d 7134 503d
00000060: 48b4 39bd 75ad 8bbd f601 19be 682b c83d
00000070: 3718 27bd da42 613d fd63 8ebc 1f99 27be
00000080: 8788 20be ab77 ff3c 6f3d 29be da11 e53d
00000090: 40be 32bd be3d 243c 37d8 20be 295d 47bd
000000a0: bd9c 103d 39d3 d73d 99ba ccbd 1fb2 a7bd
000000b0: bb86 eabd 35da 8fbd 1770 b53d 2d35 08be
000000c0: 301b b6bc 4257 d8bd 075b b23d 275e 323c
000000d0: afb6 b33d 3cec 893d 06b1 13be 08db bebd
000000e0: 9fa5 a7bc 9a0a 613d fcf2 72bd 5d01 07be
000000f0: de56 98bc 29d6 d03d 0f7a aebd d5da 85bc
00000100: 3bdd 7f3d 118b d93d 1d96 1b3d 19da 4dbd
00000110: d8be 443d e3c0 7b3d 58f2 b1bd 6500 993a
00000120: 09f8 cebd 4acd d2bc b33e 793d f494 74bd
00000130: 39cf c7bd 3e87 9ebb 890a 4ebd 1a77 6a3d
00000140: c6c0 a03d b198 513d 8c1f f0bd 5e07 1fbd
00000150: 1a1e 643d ea65 d1ba 6118 cabd 37e5 3b3d
00000160: f83c bdbc 540f 77bd f935 d33d 4de5 00be
00000170: b29d 653c 7523 89bd bc26 61bd 1f96 343b
00000180: 53a7 7f3d 7aef e43c f691 1abe a6c3 9fbd
00000190: 9e59 a33d 3c8d 043d 11d7 dd3d 4a69 d2bd
000001a0: 6230 dfbd 6b83 e3bd d2ba e93d 6e68 a63d
000001b0: 48d2 b4bd 5b1e fe3d 85e9 943d 06ce a33d
000001c0: 7695 283c 32bd e63d cd56 85bd 92c7 d1bd
000001d0: 3aef e33d f051 30bd f80d 30bd e861 413d
000001e0: 7875 3ebd 6da0 8cbd 32a5 51bd f396 63bc
000001f0: 6c88 f7bd cc46 77bd c61b af3d a7cc 2abd
00000200: 8e41 94bd f60a a43d 3eca 17bd 74d3 f4bd
00000210: dad7 ddbd 3480 853d 97d3 b33d 2a08 ea3c
00000220: e708 22bc 4fc2 bc3d c95c 523d 77b0 b03d
00000230: 7ada dbbd beb5 a93c 34b0 fdbd f7e5 25bd
00000240: 56b6 a23b 5c53 f1bd b04d b8bd f487 0b3c
00000250: 5103 c7bd 8ec4 13be 0aef dcbd 240e 0bbe
00000260: a230 bebd 1018 28bd 66e5 a7bd 52ae f33d
00000270: 20d4 9d3c c322 c4bd 4fd8 d2bd 486d a4bd
00000280: 60a1 ba3c dc81 993d f2b6 bb3d 8530 05be
00000290: 5259 dfbd 00a3 4dbc 005a e93a 8e30 e2bd
000002a0: b4e1 e4bc fed7 f93d 6c4c ac3d 1007 60bd
000002b0: 3857 c9bd a071 c13d d4e9 843d 8092 dfbd
000002c0: cfd2 e0bd 4c40 763d ea16 bbbd 2b14 fabd
000002d0: ad8f 053e 68dd 783d 9009 fdbd 8310 0b3e
000002e0: ff64 003e 603e eebb a834 233d 62d5 8f3d
000002f0: 26d6 44bd 680f 2bbd 23de efbd a871 6c3d
00000300: c454 d8bd d6c7 bc3d 4a5a 4abd 3858 e93c
00000310: 5cd8 233d 0ce2 d43d b819 183d 965c ccbd
00000320: c469 323d f28b d0bd 90ff 483d 9b5a e6bd
00000330: aa42 e0bd 0604 c53d 74db 853d 0a6e 933d
00000340: f05a 36bc 8453 aa3d 1acc cf3d 0e8b 00bd
00000350: b006 f43c f005 6f3d c0dc 98bb e024 a7bb
00000360: 22bc 5bbd a0b3 07bd 9c97 003d 7c17 8ebc
00000370: 3843 383d be15 0abe 7896 843d 74a9 fbbd
00000380: 4044 c33d 84d7 133d 5aad 77bd 5bb9 93bd
00000390: 7843 c8bc 4c74 04be 8952 fcbd e8a6 963d
000003a0: a0b5 7bbc 45e7 0bbe 4437 8a3d 1ccd 9ebd
000003b0: 225f d8bd 009c fb39 f7fb 87bd 281a 07be
000003c0: 8064 60bb accb d33d 50d9 8a3c 3203 fa3d
000003d0: 2470 ac3d 843f cb3d e050 073c c8aa 3dbd
000003e0: a026 6f3c 0079 a7bb 3053 b5bd 5c0d 053e
000003f0: 8885 c63d 14f1 fabd 47a5 2fbd 1af5 6e3d
-0.01411635 -0.08537107 -0.10729517 -0.07421754 -0.019815398 0.017659942 -0.05521221 0.02446717
-0.14123484 -0.04975838 0.039565973 0.034258172 0.07232956 0.10648603 -0.1033106 -0.12301889
0.11340912 0.067774266 0.064563066 -0.04919437 -0.02627096 -0.0182884 0.06783238 0.050831262
-0.045337945 -0.06820194 -0.14942154 0.09773904 -0.040794577 0.054995395 -0.017381663 -0.16367005
-0.15677081 0.031184992 -0.16527341 0.111850455 -0.043638468 0.010024486 -0.1570748 -0.04867283
0.035305727 0.105383344 -0.09996528 -0.08188271 -0.11451479 -0.070240416 0.0885927 -0.13301535
-0.02222976 -0.10563518 0.08708768 0.0108867055 0.087750785 0.06734511 -0.14422998 -0.09319121
-0.020464716 0.05494175 -0.05931376 -0.13184114 -0.018596109 0.10197098 -0.085193746 -0.016339699
0.06246684 0.10622228 0.037984956 -0.050256822 0.048033565 0.061463248 -0.086888015 0.0011673091
-0.10105903 -0.025732655 0.06085081 -0.059712365 -0.097563215 -0.0048378995 -0.050303016 0.05724249
0.078492686 0.05117101 -0.11724767 -0.038825385 0.05569277 -0.0015975807 -0.09867931 0.045872893
-0.023100361 -0.060317352 0.10313029 -0.12587471 0.014014648 -0.06696216 -0.05496858 0.00275553
0.062415432 0.027946223 -0.15094742 -0.07800989 0.079760775 0.032361254 0.10832036 -0.102739885
-0.108979 -0.1110905 0.11412586 0.08125387 -0.088291705 0.124081336 0.07271103 0.0799828
0.0102895405 0.11266555 -0.065106966 -0.10243143 0.11129613 -0.04304689 -0.04298207 0.04721251
-0.046498746 -0.06866536 -0.051182933 -0.01389097 -0.12086567 -0.06037025 0.08550219 -0.041699078
-0.07239066 0.08009903 -0.037058108 -0.11954394 -0.10832186 0.065185934 0.08780592 0.028568346
-0.009889818 0.09216749 0.051358018 0.08627408 -0.107350305 0.020716544 -0.12387124 -0.040502515
0.004965584 -0.11783478 -0.08999193 0.0085163005 -0.097174294 -0.14430448 -0.107877806 -0.13579613
-0.0928662 -0.041038573 -0.08198051 0.11898483 0.019266188 -0.09576943 -0.10295164 -0.08028656
0.022782028 0.07495472 0.091657534 -0.1300679 -0.109057084 -0.012551069 0.0017803311 -0.11044417
-0.027939655 0.121994 0.08413014 -0.054694235 -0.09831089 0.094455004 0.06489912 -0.109166145
-0.109777085 0.060119912 -0.0913523 -0.12210878 0.13043089 0.060758024 -0.123553395 0.13580517
0.12538527 -0.0072706193 0.03984514 0.070231214 -0.04805579 -0.04176274 -0.11712291 0.05772558
-0.10563043 0.09217803 -0.049402513 0.028484449 0.04000126 0.103946775 0.037133902 -0.09978597
0.043557897 -0.101829425 0.04907185 -0.1124775 -0.10950215 0.09619908 0.06535998 0.07198723
-0.01113008 0.083167106 0.10146351 -0.031382613 0.029788345 0.05835527 -0.0046649873 -0.0051008314
-0.053646214 -0.033130288 0.031394586 -0.017345183 0.04498598 -0.13484856 0.06474012 -0.1228818
0.09534502 0.036094204 -0.060468055 -0.07213088 -0.024446234 -0.12934989 -0.1232043 0.073560536
-0.015363127 -0.13662441 0.06748822 -0.07753965 -0.1056502 0.0004799068 -0.06639855 -0.13193572
-0.003423959 0.10341582 0.016949326 0.12207641 0.084198266 0.09924224 0.008259028 -0.046305448
0.014596611 -0.00511086 -0.088537574 0.12993377 0.09693438 -0.12253013 -0.04288223 0.058339216

FC1.bias f4 [256]
00000000: 56de ac3d 09d8 4bbd 1a40 d6bb d081 243c
00000010: feea 3cbd 164f ae3c 60c7 d4bc 7cac 043e
00000020: a2a4 ee3d 82aa e03d fe5c a43d 5dcf 9f3d
00000030: ffef b13d 7f09 b43d 72fb 90bd 39e0 d93c
00000040: 5612 1cbe 6721 393d 38b8 d23c d001 c13d
00000050: 17c3 23be 2f12 023e b2ca cabd e0c4 8fbb
00000060: 3315 e9bd 0685 d13d 063c 1abd 2f5e 2fbe
00000070: baff e2bd cb00 0e3e 7abb d6bd 7517 0bbd
00000080: de74 5abd 1e4d 233d 8e93 17be 2bca 6bbd
00000090: ff17 23bb 7253 e83d a0c3 e93c 1a2f ddbd
000000a0: 38af e8bd 2f49 bf3d 7261 d5bd fa3f 6239
000000b0: 46e9 0abe d659 a73d 00f3 be3d 7c29 853d
000000c0: 3ad4 e7bd 6852 85bc 30f1 c0bd 27a8 a0bd
000000d0: 7d9c 8fbd b1d3 c3bd 8c9d 50bd afc9 b43d
000000e0: eeee 1abd 97cf bc3d eef4 00be 8957 d63d
000000f0: aaef 01be 8bfc f93d f0fc b9bd a90f d63d
00000100: c619 273c e8b5 cc3d 182e e53c 3768 22be
00000110: de13 1fbd 2ad3 90bd 1f24 aebd 1b5c e2bd
00000120: 13d7 f0bd c9eb cfbd e6eb aa3d 3eed a63d
00000130: 9bde f83b 01c2 c13a d80e c03c 4e34 aa3d
00000140: 71a8 c5bd 6b6c ebbd 5069 213c 6351 e6bc
00000150: 08fd c93d 1f21 22be 6709 3d3d 0f4b ba3d
00000160: 5a20 ebbd 9fdd 3f3d e5e1 02be 6d75 8fbd
00000170: 4c9d 61bd da45 d4bd 8b8e 6abd 3e42 1e3f
00000180: ac77 e2bd 1faa 20be bb69 f33d 6604 10be
00000190: 808f 26bc 9422 79bd b260 6b3d 4003 cd3a
000001a0: 65b5 983d b295 33bd b497 6c3c 80e6 f33c
000001b0: fc35 32bd fe29 a03d d020 c03c a3d4 ff3c
000001c0: 52ae cb3d e3d3 e3bc 0029 b5bd ae25 95bd
000001d0: 0444 0fbe 187a d63d eed1 a33d 6825 4dbd
000001e0: 8d35 163d ad1a 9b3d 6473 6bbd 1065 74bc
000001f0: 7568 8abd 6d62 0ebe d662 de3d 1a64 d33d
00000200: 04a2 f0bd 2ddc 81bb d0b4 10bd 0ed7 92bd
00000210: cf30 353d 7058 64bc 4e42 17be 45cb 183b
00000220: adf9 933d be41 1bbe a38b 6ebd de1f d73d
00000230: c6d2 9dbd ce8f a13d 2e96 15be f528 86bd
00000240: 1c47 f2bc 678e 043e 2fea b93d a003 d53b
00000250: 241d 0f3d 5ce8 863d 80ed 403d 4a57 55bd
00000260: 881a 7dbd aaf1 5abd b58c 9e3d 2a3b ee3d
00000270: bdde 9e3e 90fd 483d e7b0 383c 5911 1e3f
00000280: df02 3f3d 863e c5bd 2c97 3e3d 4ef4 d63d
00000290: 7f37 bbbd 078d 323d eb07 0e3e cc90 c23d
000002a0: dedc 77bd a93e 01be ca16 00bd 312b c4bd
000002b0: 4ee7 213d 7b71 60bd 0d9f 933d 124c a93d
000002c0: 05f9 87bd 0ecb ad3d 2ac3 683c 5ea1 16be
000002d0: 8f72 29bc 2099 ccbb 9c46 70bd 4028 7e3b
000002e0: 7623 a23d 6e96 af3d 18e1 94bd 7e4d 98bd
000002f0: 0ed8 16be d1bc d83d cbc7 6ebd 9797 24be
00000300: df50 b23d 4075 aabd bd5b 9f3d 90ca c43d
00000310: 233a edbd 155d 82bd 7bd3 f13d 1c2c 033e
00000320: 9160 45bd 00c3 57bc 666b 1cbe 883b 803d
00000330: 4e3e 7abd 1648 ab3d 24d2 8e3c 5ac9 6e3d
00000340: 50fa 81bc 51dc c0bd 2db1 84bd bbed b6bd
00000350: 69a6 40bd 799f 503c 55ab 0fbc 7ad1 e93d
00000360: d766 cebd 2ae0 d5bd 19de dd3c 02bf ad3d
00000370: cad7 633d 1764 b73d cfda ba3d ad1e 923d
00000380: 4bf4 713e bcad f0bd ad59 84bb 0f83 92bd
00000390: b58c 9e3e 16f1 c4bd 2bd7 01be aea5 fc3d
000003a0: 9a4d c1bd 71d7 d23d 341c c23d a895 c83d
000003b0: bd48 05bc 2835 403d 928e e73c 3807 a4bc
000003c0: be7f 99bd 40c3 8e3b 8f27 29bd b2a7 5bbd
000003d0: 0b61 7c3d b590 953d 80a5 f93b 9549 e93e
000003e0: 255a 89bc 5dfc f1bd ad68 0ebe eee7 97bd
000003f0: 053d 85bd 4fce 3a3d 5e8d aa3d ccbc f4bd
0.08440845 -0.049766574 -0.006538403 0.010040715 -0.046122544 0.021277945 -0.025973976 0.12956423
0.11652495 0.10970022 0.08025549 0.07803223 0.08688354 0.08790874 -0.070792094 0.026596176
-0.1524137 0.04519787 0.025722608 0.09424174 -0.1599239 0.12702249 -0.09901942 -0.004387483
-0.113809966 0.1023045 -0.0376549 -0.17125772 -0.11083932 0.1386749 -0.10484977 -0.033957917
-0.05333411 0.039868467 -0.14802381 -0.05756585 -0.002488613 0.11344041 0.028535664 -0.107999995
-0.11361545 0.093401305 -0.10418977 0.00021576873 -0.13565549 0.08171432 0.09323692 0.06502053
-0.11319776 -0.016274646 -0.09421003 -0.078445725 -0.0701227 -0.09561861 -0.0509315 0.088275306
-0.037825517 0.09219282 -0.12593433 0.10465915 -0.12689081 0.12206372 -0.09081447 0.10452206
0.010199016 0.09995633 0.02797608 -0.15860067 -0.038837306 -0.07071526 -0.08502983 -0.11052724
-0.11759772 -0.10152394 0.08345775 0.08150719 0.007594896 0.0014782549 0.023444578 0.083107576
-0.09651268 -0.114952885 0.009851769 -0.02811498 0.09862715 -0.15832947 0.046151545 0.090963475
-0.1148078 0.046842214 -0.12781484 -0.07004819 -0.05508165 -0.10364886 -0.057264846 0.6181983
-0.11057982 -0.15689896 0.11885401 -0.14064178 -0.010166049 -0.060823992 0.057465263 0.0015641227
0.07456473 -0.043843932 0.014440466 0.029772997 -0.043508515 0.078205094 0.023453146 0.031229323
0.09945358 -0.027810996 -0.08845711 -0.072825775 -0.1399079 0.10472506 0.07999025 -0.0500845
0.036672164 0.075734474 -0.057483092 -0.014916673 -0.06758205 -0.13904734 0.10858695 0.10321827
-0.11749652 -0.0039630146 -0.035328686 -0.07169925 0.044236 -0.013937101 -0.14771387 0.0023314517
0.07225356 -0.15161797 -0.058238637 0.10504125 -0.077062175 0.07888757 -0.1460807 -0.06550781
-0.029574923 0.12944947 0.0907787 0.0065006763 0.0349399 0.06587288 0.047101498 -0.0520852
-0.06179288 -0.053453125 0.077416815 0.116323784 0.3102931 0.04906994 0.011272646 0.6174522
0.046633597 -0.09631066 0.046530887 0.10495816 -0.091414444 0.043591525 0.13870208 0.09500274
-0.06051337 -0.12621559 -0.031271733 -0.095785506 0.03952723 -0.054795723 0.07208071 0.082664624
-0.066392936 0.08485995 0.014206687 -0.14709994 -0.010342254 -0.00624384 -0.05866109 0.0038781315
0.0791692 0.08573614 -0.07269496 -0.074366555 -0.14730856 0.10582889 -0.058296006 -0.16073452
0.08706831 -0.08323145 0.077811696 0.09608948 -0.11583354 -0.0636541 0.11807915 0.12809795
-0.048187796 -0.01316905 -0.15275344 0.06261355 -0.061094575 0.08363359 0.017434187 0.058297493
-0.015866429 -0.09417022 -0.06479106 -0.08932062 -0.0470337 0.012733334 -0.008768876 0.114169076
-0.10078209 -0.104431465 0.027083443 0.084836975 0.055625714 0.089546375 0.09123766 0.07134757
0.23628347 -0.11751887 -0.0040390105 -0.07153904 0.30966726 -0.09616296 -0.12679736 0.123362884
-0.094386294 0.102949984 0.094780356 0.0979417 -0.008135018 0.046925694 0.028266225 -0.020022973
-0.07495068 0.0043567717 -0.04129749 -0.053626724 0.061615985 0.07302991 0.007618606 0.4556395
-0.016766617 -0.118157126 -0.13907118 -0.07417284 -0.06505779 0.045606907 0.08327745 -0.11950073

FC2.weight f4 [128, 256]
00000000: 7592 83bd 88e5 cf3c 1b7b 7a3b 6e0c 7cbd
00000010: 5f1c 283d af1e 2bbd ecef 35bd 59b1 593d
00000020: be23 003c d134 45bd dfeb 2dbd 33aa 65bc
00000030: 70bb 463d 86c1 233c cc7f 3abd 27a2 2fbd
00000040: 1cbd 083c d28f 6c3c 489e 27bc 9eb1 a53c
00000050: 9512 04ba fcb7 fa3c 00d8 3dba 02d2 293d
00000060: ace9 ac3c e44e e03c c660 45bd 9013 bdbc
00000070: 5658 153d 6837 683d 2c83 e3bc 64f2 f9bc
00000080: 30ea 883c 0623 1abc c96f 533d 3d30 87bd
00000090: b971 c8bc fdd8 87bd e47a 263d 3215 d0bc
000000a0: f457 c63c b510 89bd 8783 3e3d 0586 963b
000000b0: 1e98 74bd d40d 0a3c a84d 52bd 25e5 8fbd
000000c0: 70fb 5c3c ba57 0d3d 1834 753d 0668 51bd
000000d0: 54c0 ffbc 29b7 513d 0832 b8bc 64e8 833c
000000e0: 3643 243d f5c0 8ebb a560 0abb a86e ff3c
000000f0: 00c5 43bb fca1 73bd 5d6a 82bd 6cac 0a3c
00000100: 45c7 88bd 4691 2a3d f0f9 453c 348f 76bd
00000110: fa1d 57bc 3671 01bd 074e 303d 9f51 353d
00000120: 10b8 813c 662d 9ebc 946a 063d f71f 2dbd
00000130: 39fb 48bc 9985 c03c 1124 4dbd 9907 553d
00000140: d854 453d a5ea 8cbd dc76 7e3d f524 0fbc
00000150: 06d7 15bc daa8 50bc 4b02 f83b 55c3 0bbc
00000160: 60dc 22bc 7dd4 8ebd 55da 03bd a657 27bd
00000170: 5291 54bd 0078 453d ad1e 923c e07c 4c3c
00000180: b051 233d fd1b 81bd 3217 58bd 6351 ff3c
00000190: a044 babc bb39 62bd d909 45bc 07c4 2dbc
000001a0: 2ff0 b83b 28cc 503c e9bd 533c 5470 7ebd
000001b0: 1cd7 b03c d4ea 7abd 4cdb 0a3d 558a 88bd
000001c0: 52ec 743d b108 503c 3503 1e3d 25b5 173c
000001d0: e8da 7abc 7c35 29bd ef4c b53c 6e4e 04bd
000001e0: b9f8 573d d8ae cf3c 6402 19bd f046 e6bc
000001f0: db10 61bd 16ba 18bc 04f3 c33c 9cae 7cbd
00000200: 2a98 eb3c c138 c2bc 3045 8abb a857 31bd
00000210: ab1e 80bc a065 ee3c 9895 35bd 5864 b8bc
00000220: 4c46 f5bc 2c96 fcbc 2d8c 1f3d d84a 98bc
00000230: 0d43 01bd 380a 3abd e0da cd37 37e5 3b3d
00000240: d894 cb3c d027 e03c 3d1c 82bd 2e46 7f3d
00000250: 0cc0 1a3d 18a0 c63c 4504 1c3d 606d 7b3b
00000260: d4ed 57bd b208 50bd 09fb 41bd b4b3 72bd
00000270: 0744 a1bc b8a8 433d b021 37bd e2f1 debd
00000280: 1bed e7bc c4f0 003d 747a 9ebc 967e 18bd
00000290: de7b 693d 80ae 3ebd 8067 8cbb f01e 9ebc
000002a0: f892 8dbc 3c99 d3bc 3864 b8bc a84b cc3c
000002b0: 6771 343d ad4a 933c b834 ce3c a0c6 58bb
000002c0: 188e c93b eead a93c c558 903b 976f 333d
000002d0: 3eb9 1ebd a8b3 5b3d 726d ec3c 2aa9 11bd
000002e0: dc42 7abd e0f3 4d3d 2044 36bc c4ea 003d
000002f0: 456c 133d 5f0c 333b 787b 3dbd 4c2a 823c
00000300: c5b5 8dbd f80b 09bc 08c3 423d 6c7b f5bb
00000310: a840 07bc b9d9 583d 746c 013b bb26 7a3b
00000320: 30a7 95bc b0e3 44bc 787b 3dbd fc72 933c
00000330: ace4 d93c 6ab7 6b3c 44d1 7ebd 9104 4cbd
00000340: 7e96 143d 2817 423d 3de6 8abd 1cc4 cabc
00000350: 1e9f 263d c038 423c 72f9 5dbd 7bbd 64bd
00000360: 489b 773c 3629 6abd ae9d 1abd 2202 5ebd
00000370: 6839 ce3c 1d77 83bd d52a 81bc 0823 cc3c
00000380: b0a2 473b c226 debc 5470 0438 883c 5bbc
00000390: acea 093c c88a 603c 600c 5a3c f816 8abc
000003a0: a68e 13bd f78a 303c 7058 81bb c5a6 03bc
000003b0: cd06 8abd 066b 6b3d 9a10 603b 32d1 0bbd
000003c0: c01b 32bd cc1c d3bc 95ca 8fbc c2de e93b
000003d0: ed83 173d 2585 1f3d 8628 0a3d 0dee 8abd
000003e0: 9a0d d4bc dc41 833c 8e46 a83c d940 d939
000003f0: fda7 0bbd c56e 84bd 3b18 f23b 337b f13c
-0.06424419 0.025378004 0.003822035 -0.06153529 0.04104268 -0.04177731 -0.04441826 0.053147648
0.007821022 -0.048146073 -0.042461272 -0.014017629 0.048518598 0.00999487 -0.045532033 -0.04287925
0.008345868 0.014438586 -0.010230608 0.020226296 -0.00050381693 0.030605309 -0.00072419643 0.041460045
0.021107517 0.027381368 -0.048187993 -0.023080617 0.036461197 0.056693465 -0.027772509 -0.030511089
0.016713232 -0.009407764 0.05162028 -0.066009976 -0.02446829 -0.06633184 0.04064454 -0.025400732
0.024211861 -0.0669264 0.046512153 0.004593613 -0.059715383 0.008426148 -0.05134359 -0.07026128
0.013487682 0.03450749 0.059864134 -0.051124595 -0.031219639 0.051200066 -0.022484794 0.016102023
0.04010316 -0.0043564984 -0.0021114734 0.031180695 -0.002987206 -0.059480652 -0.063679434 0.00846396
-0.06678633 0.04164245 0.0120835155 -0.060195163 -0.013129706 -0.031602107 0.043043163 0.044267293
0.015834838 -0.019308757 0.032816485 -0.042266812 -0.012266927 0.023501204 -0.050083224 0.0520092
0.048176616 -0.068806924 0.062125072 -0.008736839 -0.009145504 -0.01273557 0.0075686327 -0.0085304575
-0.009940237 -0.06974123 -0.03219064 -0.040855072 -0.0518964 0.048210144 0.017836893 0.012480944
0.039872825 -0.063041665 -0.052756496 0.031166738 -0.022737801 -0.055230837 -0.012026274 -0.010605819
0.0056438665 0.012743987 0.012923696 -0.062118843 0.021586947 -0.061259106 0.033900544 -0.0666701
0.059795685 0.012697385 0.038577277 0.009259497 -0.01531098 -0.041310772 0.022131411 -0.03230136
0.052727435 0.025351927 -0.037355796 -0.028109998 -0.054947715 -0.00932171 0.02391959 -0.061689958
0.02875908 -0.023708703 -0.0042196736 -0.043296486 -0.015639624 0.029101193 -0.044332117 -0.022508785
-0.029940747 -0.030833326 0.03895204 -0.018590376 -0.031558085 -0.0454199 2.4539826e-05 0.045872893
0.024851248 0.027362734 -0.06353042 0.062322788 0.037780806 0.02424626 0.03809001 0.0038364753
-0.052717045 -0.050789542 -0.047358546 -0.05925341 -0.019685758 0.047768325 -0.04470986 -0.10885979
-0.028311303 0.031479612 -0.0193455 -0.037230097 0.057002895 -0.046553135 -0.004284799 -0.019301862
-0.017281994 -0.025829904 -0.022508726 0.02493842 0.04405346 0.017979944 0.025171623 -0.0033077374
0.006150972 0.020712819 0.0044051134 0.043807592 -0.03875088 0.05363813 0.028860781 -0.035561718
-0.06109892 0.050281405 -0.011124641 0.03147389 0.035991926 0.0027320606 -0.046260327 0.01588931
-0.069194354 -0.00836467 0.047549278 -0.0074915197 -0.008255161 0.05294201 0.001974848 0.0038170058
-0.018268198 -0.012017176 -0.046260327 0.017999165 0.026598297 0.014386991 -0.06221129 -0.049809042
0.036276333 0.047385365 -0.06782196 -0.024751715 0.04067909 0.011854351 -0.054192968 -0.055844765
0.0151127055 -0.057168208 -0.03774803 -0.054201253 0.025173858 -0.064192034 -0.015767494 0.024919048
0.003046196 -0.02711809 3.1575866e-05 -0.013381131 0.008417767 0.013704963 0.0133086145 -0.016856655
-0.036024712 0.010775319 -0.00394731 -0.008035366 -0.067395784 0.057475112 0.0034189583 -0.03413505
-0.043483496 -0.025770567 -0.017552653 0.0071371505 0.03699105 0.038945336 0.033730052 -0.06783686
-0.025885392 0.016022615 0.020541456 0.0004143778 -0.034095753 -0.0646644 0.0073881424 0.029477691
